model/denoise.pt (torch_old, 14706 bytes, 40 tensors)

stem.weight f4 [6, 3, 3, 3]
0	0x3cce9ff4	0.025222756
1	0xbdf482cd	-0.11939011
2	0x3e0310cf	0.1279938
3	0x3c400528	0.011719979
4	0xbd1e69c4	-0.038675085
5	0x3d16c157	0.036805477
6	0xbe1ab7d1	-0.15109183
7	0xbe5a390e	-0.21310827
8	0xbd8c5967	-0.0685299
9	0x3a8451e3	0.0010095205
10	0x3df011fd	0.11722181
11	0xbd18edf5	-0.03733631
12	0x3d02efa8	0.031966835
13	0xbd947bd4	-0.07250181
14	0x3da3a556	0.0799052
15	0xbe7a51b1	-0.24445225
16	0xbd492331	-0.049105827
17	0x3cea3207	0.028588308
18	0x3d037dbf	0.032102343
19	0xbdcfb663	-0.101422094
20	0x3d483009	0.048873935
21	0xbd2e6243	-0.04257418
22	0xbe4862a4	-0.19568878
23	0xbdb40b1f	-0.08791184
24	0xbdfc0e29	-0.12307388
25	0xbd632600	-0.05545616
26	0xbe4c70c3	-0.1996489
27	0xbe0af57c	-0.13570207
28	0xbe732084	-0.23742872
29	0xbe612aab	-0.21988933
30	0xbd2adf66	-0.041716956
31	0xbd6e6096	-0.05819758
32	0x3da96ddc	0.08272907
33	0x3daf5deb	0.08562835
34	0x3de42814	0.11140457
35	0x3e2bfe20	0.1679616
36	0xbe5a6254	-0.21326572
37	0xbda90cdd	-0.082544066
38	0xbe6ca664	-0.23110348
39	0xbd67496f	-0.056466516
40	0x3e093f18	0.13402975
41	0xbdd3ff1a	-0.10351391
42	0x3e12cff7	0.14337145
43	0x3d8bcf97	0.06826704
44	0xbd8e5643	-0.06950047
45	0xbe5b035c	-0.21388
46	0xbdd0fbfb	-0.102043115
47	0xbeab8f91	-0.3350797
48	0x3e1cd250	0.15314603
49	0x3dbb47a9	0.091445275
50	0x3dcb5cb9	0.09929795
51	0x3e221e06	0.15831766
52	0x3d9c0aaf	0.07619225
53	0xbd8b06d4	-0.06788412
54	0x3d7554ca	0.059895314
55	0x3d4d831c	0.050173864
56	0xbe84cb8b	-0.2593654
57	0x3de9dc6c	0.11418995
58	0x3d80b4dd	0.06284497
59	0xbe971de2	-0.29514986
60	0x3e0d6001	0.13806154
61	0x3a2a588b	0.0006498179
62	0xbe2feeeb	-0.17180984
63	0xbe0d84ab	-0.1382014
64	0xbd0a65e0	-0.03378856
65	0xbe65117d	-0.22369952
66	0xbcba85f5	-0.022768954
67	0x3d668aaa	0.056284584
68	0xbe4c19b1	-0.19931675
69	0x3d56d539	0.05244944
70	0x3d74075a	0.059577323
71	0xbd7ac53e	-0.06122326
72	0xba88dae4	-0.0010441211
73	0x3d08984a	0.03334836
74	0x3d969bdf	0.07353949
75	0xbc31e902	-0.010858776
76	0xbe128bd0	-0.14311147
77	0xbccc5b95	-0.024946013
78	0xbe4726b9	-0.19448365
79	0x3c23c375	0.009995331
80	0x3e1c4119	0.15259208
81	0x3e85b32d	0.26113263
82	0x3db68646	0.089123294
83	0xbe3c9a60	-0.18418264
84	0x3eae98f2	0.34101063
85	0x3dc4d058	0.09610051
86	0xbed3cc75	-0.41366926
87	0x3d4bcb67	0.049754526
88	0xbd6f10bc	-0.05836557
89	0xbdda5953	-0.106615685
90	0x3eac5a14	0.33662474
91	0x3dc0a936	0.094072744
92	0xbe87352c	-0.26407754
93	0x3ed1db15	0.4098746
94	0x3dc9a762	0.09846379
95	0xbf0ff034	-0.56225896
96	0x3db51866	0.08842544
97	0xbda2d0f7	-0.07950013
98	0xbe053429	-0.13008179
99	0x3e8d9d10	0.27658892
100	0x3d885982	0.06657697
101	0xbe4f4113	-0.20239668
102	0x3ea6f72b	0.3261045
103	0x3e04a28d	0.12952633
104	0xbec99409	-0.39370754
105	0x3dd377f2	0.10325612
106	0xbd95706a	-0.07296832
107	0xbe0e4244	-0.13892466
108	0xbd57088d	-0.05249839
109	0xbd474908	-0.048653632
110	0xbd4f0a05	-0.050546665
111	0xbd77d887	-0.06050923
112	0xbdbbd6e3	-0.09171846
113	0xbeb11d6c	-0.3459276
114	0x3dd73841	0.105087765
115	0x3e20c67a	0.15700713
116	0x3ecde006	0.4020998
117	0xbd4333d6	-0.047656856
118	0xbd668f05	-0.056288738
119	0xbde2cc13	-0.1107408
120	0xbce1b75e	-0.027553257
121	0xbd94ad64	-0.07259634
122	0xbead37e7	-0.33831713
123	0x3df4b8fd	0.11949346
124	0x3e387b8e	0.18015882
125	0x3ee09939	0.438669
126	0xbd59212a	-0.053010143
127	0xbd1f0bd3	-0.038829636
128	0xbd550743	-0.05200888
129	0xbdaf37c2	-0.08555557
130	0xbe057df8	-0.13036335
131	0xbeb25ed3	-0.3483797
132	0x3e07351f	0.13203858
133	0x3e5ba64d	0.21450157
134	0x3ec4ad25	0.3841335
135	0xbcc4b0c3	-0.024010068
136	0x3e53ec71	0.20695664
137	0x3e03b7c7	0.12863074
138	0xbdcd5068	-0.10025102
139	0x3e27c8d4	0.16385204
140	0xbe0109cb	-0.12601392
141	0xbdf55902	-0.119798675
142	0xbd7160b8	-0.05893013
143	0x3d0d1503	0.034443866
144	0xbc271742	-0.010198416
145	0x3dd3c5f2	0.103404894
146	0x3dff70c0	0.12472677
147	0xbe25e24c	-0.16199607
148	0x3db069b8	0.08613914
149	0xbe3fd9d1	-0.18735434
150	0xbdf38846	-0.118912265
151	0xbe0419a2	-0.12900403
152	0x3d344156	0.04400762
153	0xbcaacd02	-0.020849708
154	0x3e7b202d	0.24523993
155	0x3e3f470d	0.18679447
156	0xbdc7b5ef	-0.09751498
157	0x3e54a6f2	0.2076681
158	0xbd466895	-0.04843958
159	0xbe236c60	-0.1595931
160	0xbda4a5bd	-0.080394246
161	0x3cdd8d00	0.027044773

stem.bias f4 [6]
0	0xbc000555	-0.007813771
1	0x3cde0d3d	0.027105922
2	0x3d82a0c3	0.06378319
3	0x3ea7ed4a	0.32798225
4	0x3e20f0ba	0.1571683
5	0x3e1d53cc	0.15363997

nrms.0.c1_d.op.weight f4 [6, 6, 1, 1]
0	0xbd091220	-0.03346455
1	0x3ea33b8a	0.31881362
2	0x3e824bf1	0.25448564
3	0x3d8bede0	0.068324804
4	0xbe3496fb	-0.1763572
5	0xbe55358c	-0.20821208
6	0xbdc69476	-0.096962854
7	0x3dea643d	0.114449
8	0xbbab210f	-0.0052224468
9	0xbe0bc766	-0.13650283
10	0x3dd9bd88	0.10631853
11	0xbe9acebb	-0.30235848
12	0xbeb87ca7	-0.36032602
13	0x3e123684	0.14278609
14	0xbe0ef1f7	-0.1395949
15	0x3ebd6381	0.36989978
16	0x3e2160e3	0.15759616
17	0xbd867e6f	-0.06567084
18	0xbec8b844	-0.39203084
19	0x3e007e36	0.12548146
20	0xbd1a3352	-0.0376466
21	0x3e472df4	0.19451123
22	0xbc054ee7	-0.008136488
23	0xbe6a5f7c	-0.22887987
24	0xbdcce9e2	-0.10005547
25	0x3ddf83f0	0.10913837
26	0x3e12e114	0.14343673
27	0xbe90d562	-0.28287798
28	0xbe7fc854	-0.24978763
29	0x3ec32858	0.38116717
30	0xbe98f56d	-0.29874745
31	0xbebaa544	-0.36454213
32	0x3e62f2dc	0.22162956
33	0xbe765336	-0.2405518
34	0xbd52f496	-0.051502787
35	0xbe4534c6	-0.19258413

nrms.0.c1_d.op.bias f4 [6]
0	0xbd958108	-0.073000014
1	0x3ebad6a4	0.36491883
2	0xbe46bc5e	-0.19407794
3	0x3dab7c1a	0.0837328
4	0xbebc9ec9	-0.36839893
5	0xbcf917df	-0.03040689

nrms.0.c1_r.op.weight f4 [6, 6, 1, 1]
0	0x3e013cbc	0.12620825
1	0xb99298fb	-0.0002796127
2	0x3b57f146	0.0032950207
3	0x3eaebe84	0.34129727
4	0x3d9c20f1	0.076234706
5	0x3d779298	0.060442537
6	0xbe8b365d	-0.27189913
7	0x3e7ec177	0.24878488
8	0x3daea032	0.085266486
9	0xbe108b34	-0.14115602
10	0xbd13a466	-0.036045454
11	0x3e0b526b	0.13605659
12	0xbdd0f482	-0.10202886
13	0xbe877c83	-0.26462182
14	0xbdd5308a	-0.10409649
15	0xbeb3fdc2	-0.3515454
16	0xbe87be20	-0.2651224
17	0x3e05bc45	0.130601
18	0xbe5a81aa	-0.21338525
19	0x3d790560	0.06079614
20	0x3eb9874f	0.36236045
21	0x3df4ebc5	0.11959032
22	0x3df60d0e	0.12014209
23	0xbef430d3	-0.476935
24	0xbe3b9992	-0.18320301
25	0x3e456d60	0.19280005
26	0x3e07be91	0.13256289
27	0xbe1f79f5	-0.15573867
28	0xbeeae9e2	-0.45881563
29	0xbea29c0d	-0.31759682
30	0xbd524468	-0.05133477
31	0x3d8eb8bb	0.06968828
32	0xbcd2ef0c	-0.025748752
33	0x3f0643a9	0.5244699
34	0x3e9c1658	0.30485797
35	0x3d83c1ea	0.064334705

nrms.0.c1_r.op.bias f4 [6]
0	0xbd3357e5	-0.043784995
1	0xbe5cadc3	-0.2155066
2	0xbe6a3301	-0.22871019
3	0xbea60f42	-0.32433516
4	0x3de91f4f	0.11382925
5	0x3eb112cf	0.34584662

nrms.0.c2_d.op.weight f4 [6, 6, 3, 3]
0	0xbd12866d	-0.03577273
1	0xbdc5db09	-0.09660918
2	0xbde89967	-0.11357384
3	0xbdb84d13	-0.08999076
4	0x3d149ea4	0.036284104
5	0xbc4fe573	-0.012688982
6	0xb880de4c	-6.144922e-05
7	0x3d21e433	0.03952427
8	0x3cedfdaf	0.02905163
9	0x3e0291bd	0.12750907
10	0x3dce971e	0.10087417
11	0x3d17994d	0.037011433
12	0xbc90f6d0	-0.017695814
13	0xbdd17cbe	-0.10228871
14	0x3dab872d	0.08375392
15	0x3d42fdde	0.047605388
16	0xbd85ab47	-0.06526809
17	0xbd9bf230	-0.07614553
18	0x3dcf9966	0.1013668
19	0xbd13832e	-0.036013775
20	0xbcdc5b20	-0.02689892
21	0xbc6535eb	-0.013989906
22	0xbd9fa216	-0.07794587
23	0xbd15e9ac	-0.0365998
24	0xbdc24c6c	-0.094872326
25	0x3a3fd337	0.0007317545
26	0x3dc87ee0	0.097898245
27	0x3e2c3a75	0.16819175
28	0x3d2f56c5	0.04280736
29	0xbe915d28	-0.28391385
30	0x3e05474a	0.13015476
31	0xbd8a1c02	-0.06743623
32	0xbf1de83a	-0.61682475
33	0x3d62fd8d	0.055417586
34	0xbce78096	-0.028259557
35	0xbdd38046	-0.103272006
36	0x3dbc53dc	0.091956824
37	0xbdd4176a	-0.103560284
38	0xbce15c34	-0.027509786
39	0x3cb9b130	0.022667497
40	0x3d6864ec	0.05673687
41	0x3d4c94c8	0.049946576
42	0x3bb764b6	0.0055967225
43	0x3d5900c0	0.05297923
44	0x3d9a2474	0.07526484
45	0xbd8d6f69	-0.069060154
46	0xbc56c039	-0.013107353
47	0x3d0630c4	0.03276135
48	0xbccf4ab8	-0.025304183
49	0x3da7711e	0.08175872
50	0x3eb6a297	0.3567092
51	0x3d31e070	0.04342693
52	0x3c5684ab	0.013093154
53	0x3d3762d5	0.044771988
54	0x3c4ee9fe	0.01262903
55	0x3dcb2db0	0.099208236
56	0x3dc1791c	0.09446928
57	0xbd3558e4	-0.044274226
58	0xbdfc92e0	-0.12332702
59	0xbe00cec6	-0.12578878
60	0x3db9ed36	0.090784475
61	0x3de620f8	0.11236757
62	0xbd8eef44	-0.0697923
63	0xbd325d60	-0.04354608
64	0x3d923a81	0.07140065
65	0x3e1a0e7c	0.15044588
66	0x3d633789	0.055472884
67	0xbcd20166	-0.025635432
68	0xbc11fdbc	-0.008910593
69	0xbd228fec	-0.039688036
70	0x3d16ef38	0.03684923
71	0x3ce28053	0.02764908
72	0xbdd23b33	-0.102651976
73	0x3df8f9c6	0.121570155
74	0x3c3e23dc	0.011605229
75	0xbde25a2f	-0.110523574
76	0x3dbc183e	0.09184311
77	0xbd8d3088	-0.06894022
78	0xbda3e138	-0.080019414
79	0x3d284843	0.04108454
80	0x3a7ac3b4	0.0009565905
81	0xbddff824	-0.10936001
82	0x3e4832c5	0.19550617
83	0x3d7503c2	0.059818037
84	0xbe2c854b	-0.16847722
85	0x3d48877e	0.04895734
86	0xbe5f89eb	-0.21829955
87	0xbc1ddb2f	-0.009634777
88	0x3e19c03b	0.15014736
89	0x3d7f09a8	0.06226507
90	0xbd66326e	-0.056200437
91	0xbcdbf8c5	-0.026852021
92	0xbdec0137	-0.11523669
93	0xbe1397a7	-0.1441332
94	0xbb8e52b8	-0.004343357
95	0x3e3b04cd	0.1826355
96	0x3c3d44e0	0.011552066
97	0xbd8110b7	-0.06302016
98	0xbce91a0b	-0.028454801
99	0xbbbde628	-0.005795259
100	0xbcefe460	-0.029283702
101	0x3d982b9a	0.07430191
102	0x3d0e7944	0.034783617
103	0xbd244ed3	-0.040114235
104	0x3e6e83ac	0.23292416
105	0xbc736a28	-0.014856853
106	0xbd9d7c63	-0.076897405
107	0x3e0f6aa7	0.14005528
108	0xbddce8de	-0.107866034
109	0x3dbde3a1	0.092719324
110	0xbc2e0319	-0.010620856
111	0x3d54b00d	0.051925708
112	0x3d87b220	0.066257715
113	0xbdda8b6c	-0.10671124
114	0xbdbb9a9a	-0.09160347
115	0x3d8e2d82	0.06942274
116	0xbc85dbda	-0.016340185
117	0x3d62a53d	0.055333365
118	0x3c363e94	0.011123318
119	0xbd9566cc	-0.072949976
120	0x3da799fe	0.081836686
121	0x3e0a6a28	0.13517058
122	0x3c97b494	0.018518724
123	0x3d05b8d0	0.032646954
124	0x3b996738	0.004681494
125	0x3d6815f1	0.05666155
126	0x3c13153d	0.008977232
127	0x3d712831	0.05887622
128	0xbd4466a2	-0.04794944
129	0xbdb1c59a	-0.08680268
130	0x3c97052e	0.018435087
131	0xbcb7f8e4	-0.022457547
132	0x3dc878a5	0.09788636
133	0x3e016c8d	0.12639065
134	0xbcf8ff1c	-0.030395083
135	0x3e8e7684	0.27824795
136	0x3e9b084a	0.30279762
137	0xbe40e8bb	-0.1883878
138	0x3e76dab2	0.24106863
139	0x3df88ef0	0.12136638
140	0xbe9ccebe	-0.30626482
141	0x3e0591e0	0.13043928
142	0x3db9a2d8	0.09064263
143	0xbe4bc316	-0.19898638
144	0xbc92d97c	-0.01792597
145	0x3c685eac	0.014182728
146	0xb9d41eb1	-0.00040458658
147	0xbd1923a3	-0.0373875
148	0xbdbad870	-0.091233134
149	0xbd5c175b	-0.05373321
150	0xbcdf6f81	-0.027274849
151	0xbbaad0a4	-0.00521286
152	0x3d6a2de5	0.057172675
153	0xbcecbc90	-0.028898507
154	0xbe372721	-0.1788602
155	0xbc2b5100	-0.010456324
156	0xbb4c6b2e	-0.0031191814
157	0xbe491c84	-0.19639784
158	0x3df468cc	0.11934051
159	0xbcf5945b	-0.029977968
160	0xbd87845d	-0.06617043
161	0x3da6b177	0.081393175
162	0xbde5b95b	-0.112169944
163	0x3d877f7b	0.06616112
164	0xbc93291f	-0.017963944
165	0xbd7eb11f	-0.062180635
166	0x3daf6deb	0.08565887
167	0xbdada419	-0.08478565
168	0xbddb2a69	-0.107014485
169	0x3ca06df3	0.019583678
170	0xbc1cbb3b	-0.009566124
171	0x3e1cf629	0.15328278
172	0x3df173c2	0.11789657
173	0xbd473b1a	-0.048640348
174	0x3c878924	0.016544886
175	0x3d91eea6	0.07125597
176	0xbd534f74	-0.051589444
177	0xbdd991a5	-0.106234826
178	0x3d8e07a2	0.069350496
179	0xbda14128	-0.07873756
180	0x3d67329d	0.056444753
181	0x3ddccbf1	0.10781086
182	0x3c60bfb0	0.013717577
183	0xbcfc9984	-0.03083492
184	0x3d97a18a	0.07403858
185	0x3dfddfce	0.12396203
186	0xbd107ac1	-0.035273317
187	0x3dd9a5fa	0.10627361
188	0xbbc4e39b	-0.006008578
189	0x3db624bd	0.08893726
190	0x3ae80c16	0.0017703797
191	0xbda9f1e7	-0.08298092
192	0xbc87e0bb	-0.016586652
193	0xbda7a92d	-0.081865646
194	0xbcf174fa	-0.029474724
195	0x3b826efe	0.0039805165
196	0x3d6b0086	0.057373546
197	0x3e2c0b37	0.16801153
198	0x3da55d74	0.080744654
199	0xbd9d8a20	-0.07692361
200	0xbdcb6880	-0.09932041
201	0xbdf5fe7a	-0.12011428
202	0x3cc455ca	0.023966689
203	0x3d24eb88	0.040263683
204	0xbdaf84c7	-0.08570247
205	0x3d8ce8cf	0.06880342
206	0x3d94da56	0.07268207
207	0x3d836b3e	0.06416939
208	0x3d0272fa	0.03184793
209	0x3c25c96a	0.010118822
210	0xbcbf640a	-0.023363132
211	0x3e045f2b	0.12926929
212	0x3d69e330	0.05710143
213	0x3c88058d	0.01660421
214	0xbdebe285	-0.115178145
215	0xbe1da3c5	-0.15394504
216	0xbd6b1c04	-0.057399765
217	0x3d3aae2c	0.04557626
218	0xbddafc61	-0.10692669
219	0xbdccf696	-0.1000797
220	0x3d446186	0.047944568
221	0xbdaa808b	-0.08325299
222	0x3c6e036f	0.014527186
223	0xbd2ee621	-0.042699937
224	0xbd252bd6	-0.04032501
225	0x3e2d786c	0.16940469
226	0x3d033aa7	0.032038357
227	0x3e548efd	0.2075767
228	0xbd8f2eac	-0.06991324
229	0xbdc92493	-0.09821429
230	0x3c916cce	0.017752077
231	0x3ca27d5a	0.019835163
232	0xbdfc9424	-0.12332943
233	0x3d156552	0.03647358
234	0x3ce2b706	0.027675163
235	0x3d8629ef	0.06550967
236	0xbb945931	-0.004527234
237	0x3df23590	0.118266225
238	0x3d800172	0.06250276
239	0xbdcb206d	-0.09918294
240	0xbd179329	-0.037005577
241	0x3d704a51	0.058664624
242	0xbcfdcd92	-0.030981813
243	0xbd49f6af	-0.04930752
244	0x3d673372	0.056445546
245	0x3e037c4d	0.12840386
246	0x3d777454	0.060413674
247	0xbe00dd71	-0.12584473
248	0xbcd768d4	-0.026295103
249	0x3d1b33bb	0.03789113
250	0x3dc56129	0.096376725
251	0xbbe71825	-0.007052439
252	0xbdf7de22	-0.12102915
253	0xbec70946	-0.38874263
254	0xbe0cc259	-0.13746013
255	0x3d4c82ac	0.049929306

nrms.0.c2_d.op.bias f4 [6]
0	0x3daa1de5	0.08306483
1	0x3d3ea44d	0.04654341
2	0xbd46c493	-0.04852731
3	0x3d5b8e83	0.053602707
4	0x3d9c07cd	0.076186754
5	0x3d11342d	0.03545015

nrms.0.c3_d.op.weight f4 [6, 6, 1, 1]
0	0x3e9ea983	0.30988702
1	0xbeb0d0d4	-0.34534323
2	0xbe137e06	-0.14403543
3	0x3e7c6463	0.2464767
4	0x3ebdc83b	0.37066826
5	0x3ea0785f	0.31341836
6	0x3eb05dfd	0.34446707
7	0x3e9219a6	0.28535193
8	0xbe7ae0ea	-0.2449986
9	0xbd05ec02	-0.032695778
10	0x3de1ae64	0.110195905
11	0x3e1459a2	0.14487317
12	0xbebf103e	-0.3731708
13	0x3c80819d	0.015686804
14	0x3e5a689c	0.21328968
15	0x3e45a326	0.19300517
16	0x3e4c5b43	0.19956689
17	0x3ce2f00b	0.027702352
18	0x3e09b464	0.1344772
19	0x3dc22f77	0.094817095
20	0x3e520acd	0.20511933
21	0xbe362d0a	-0.17790619
22	0x3e33bb4c	0.17551917
23	0xbe217e03	-0.15770726
24	0xbda12488	-0.07868296
25	0x3e8607b3	0.2617775
26	0xbebe7826	-0.3720104
27	0x3cacb8c0	0.02108419
28	0x3e700edf	0.23443173
29	0x3e162f60	0.1466651
30	0x3e1b9bb2	0.15196112
31	0x3e617473	0.22017078
32	0x3a799f19	0.00095223036
33	0xbda2a2a0	-0.079411745
34	0xbe54d24a	-0.20783344
35	0x3d5ad6bd	0.053427447

nrms.0.c3_d.op.bias f4 [6]
0	0x3e4e5c74	0.20152456
1	0xbbbf5d98	-0.0058400147
2	0x3db535e3	0.08848169
3	0x3e9867f8	0.29766822
4	0x3e02904a	0.12750354
5	0xbeca23f2	-0.3948055

nrms.0.c3_r.op.weight f4 [6, 6, 1, 1]
0	0x3e90b689	0.28264263
1	0x3eb68739	0.35650042
2	0xbc882402	-0.016618732
3	0xbeaaa550	-0.33329248
4	0xb89f49ee	-7.595481e-05
5	0xbec2d36b	-0.38051924
6	0x3ea6d772	0.32586247
7	0xbd8c6945	-0.06856016
8	0xbeaf355d	-0.342204
9	0x3eae316d	0.34022084
10	0x3ceda9a3	0.029011553
11	0x3e98d273	0.2984806
12	0xbd38fbf8	-0.04516217
13	0xbeb93138	-0.36170363
14	0x3ebe3065	0.37146297
15	0x3ee3eac4	0.4451505
16	0xbdb53939	-0.08848805
17	0xbeb9b4d6	-0.3627078
18	0x3eb38f44	0.3507024
19	0xbe8bc4e9	-0.27298668
20	0xbe83abfb	-0.25717148
21	0xbea9305f	-0.33044717
22	0x3cdc9f35	0.026931385
23	0x3d535138	0.051591128
24	0xbe6c0b07	-0.23051082
25	0xbe8490a4	-0.25891602
26	0x3eb757a8	0.35809064
27	0xbe343851	-0.17599608
28	0x3e841403	0.25796518
29	0x3e977abd	0.2958583
30	0xbdbf77fb	-0.09349056
31	0x3d46ab05	0.04850294
32	0x3e865ef6	0.26244324
33	0xbdb40517	-0.08790033
34	0x3e624460	0.22096395
35	0xbedfffd8	-0.4374988

nrms.0.c3_r.op.bias f4 [6]
0	0x3e4fdd84	0.20299345
1	0xbe093698	-0.13399732
2	0x3d972713	0.073805
3	0xbd92115c	-0.07132217
4	0xbe5d64c5	-0.21620472
5	0xbe3eed71	-0.18645264

nrms.0.c5.weight f4 [6, 24, 1, 1]
0	0xbdd36695	-0.103223
1	0x3de8a517	0.113596134
2	0x3e4024fc	0.18764108
3	0xbda07972	-0.07835664
4	0xbdf919c3	-0.12163117
5	0x3cc4b176	0.024010401
6	0xbdff355d	-0.1246135
7	0xbdb1cfcf	-0.086822145
8	0x3cb90dfa	0.022589672
9	0xbdf08075	-0.11743251
10	0xbd47e8dc	-0.048806056
11	0x3db74318	0.08948344
12	0xbe9b8db8	-0.3038156
13	0x3d5f0a77	0.05445334
14	0xbd2df76a	-0.04247228
15	0xbe074b07	-0.13212214
16	0xbe3c1282	-0.18366435
17	0x3cdc62e0	0.026902616
18	0xbdfe60ae	-0.12420784
19	0xbdcb3e4b	-0.09923991
20	0x3e701383	0.23444943
21	0xbcd91e42	-0.026503686
22	0xbe5173f1	-0.20454384
23	0x3c5b9602	0.013402464
24	0xbc870495	-0.016481677
25	0xbdc268db	-0.09492656
26	0xbc91588b	-0.017742416
27	0xbe0e5b14	-0.13901931
28	0x3dc03b70	0.09386337
29	0x39625b77	0.00021587113
30	0xbe7e1ff4	-0.24816877
31	0xbc308c15	-0.010775586
32	0x3e813184	0.2523309
33	0xbcfc80c4	-0.030823119
34	0x3c7c512a	0.01540021
35	0xbe5d4c4c	-0.21611136
36	0xbe28202a	-0.1641852
37	0xbc8598b5	-0.016308168
38	0xbdaba73b	-0.08381506
39	0xbd8c772a	-0.06858666
40	0x3e105f8d	0.1409895
41	0x3d535455	0.051594097
42	0xbea197f0	-0.31561232
43	0xbe34d3f2	-0.17658976
44	0x3dbe0c6f	0.09279715
45	0xbd93c7e0	-0.072158575
46	0xbe163714	-0.14669448
47	0xbe5e3913	-0.2170146
48	0xbe1eb712	-0.15499523
49	0xbcf4db9d	-0.029889876
50	0x3d9ec72c	0.07752833
51	0x3da579bb	0.08079859
52	0xbe038235	-0.12842639
53	0xbc594962	-0.013262125
54	0xbe142f97	-0.14471279
55	0xbd382806	-0.044960044
56	0x3de90e04	0.113796264
57	0xbc02ccb5	-0.007983376
58	0x3e75e899	0.2401451
59	0xbdc189c5	-0.094501056
60	0xbe4f4c1f	-0.20243882
61	0xbda9eb30	-0.082968116
62	0x3a981143	0.0011601824
63	0x3dd3ff9f	0.1035149
64	0x3d37ebdb	0.044902664
65	0x3bc3f0a7	0.0059796157
66	0xbe309ce8	-0.17247355
67	0xbeb9b20b	-0.36268649
68	0xbc996fdb	-0.018730095
69	0x3be7baa3	0.0070718094
70	0x3e9942b9	0.29933718
71	0xbe9be35e	-0.30446905
72	0xbc7b28ce	-0.015329553
73	0x3d16faa9	0.036860142
74	0x3da999a1	0.082812555
75	0x3e4d9c6c	0.20079201
76	0x3e6aaa38	0.22916496
77	0xbc644ec8	-0.013934799
78	0xbea695a7	-0.3253605
79	0xbe424a2f	-0.18973611
80	0x3e6cb48f	0.23115753
81	0xbe48cc23	-0.19609122
82	0xbe948580	-0.29008102
83	0xbe067e83	-0.13134198
84	0xbd21beda	-0.03948865
85	0xbda56abd	-0.08076999
86	0x3e1cb214	0.15302306
87	0xbe11e061	-0.1424575
88	0xbd6349cf	-0.05549031
89	0xbe980f3f	-0.29699132
90	0xbdde4f6c	-0.10854992
91	0xbd1ae94b	-0.03782014
92	0x3e3656fa	0.17806616
93	0xbe2708e5	-0.16311987
94	0xbe0b92c0	-0.136302
95	0xbcc260c1	-0.023727776
96	0x3e1d88e0	0.15384245
97	0xbe040f0d	-0.12896366
98	0xbe1f21c2	-0.15540221
99	0x3e426fc0	0.18987942
100	0xbd078f65	-0.033095736
101	0xbd5e8a5d	-0.054331172
102	0xbce8e54e	-0.028429653
103	0x3dd550bf	0.10415792
104	0x3d54b3dc	0.05192934
105	0xbd81b024	-0.06332424
106	0xbc19b772	-0.009382116
107	0xbe42126b	-0.18952338
108	0xbe038d84	-0.12846953
109	0x3d128d14	0.035779074
110	0xbd1791e4	-0.037004367
111	0xbda2c47b	-0.07947632
112	0xbe3f9261	-0.18708183
113	0xbe793912	-0.24338177
114	0x3dd002e0	0.10156798
115	0xbe084838	-0.133088
116	0xbdc2cc32	-0.095116034
117	0xbdd73d1e	-0.10509704
118	0xbd66d371	-0.05635399
119	0xbe506299	-0.20350112
120	0x3e22d8b4	0.15902978
121	0xbde5eaed	-0.11226449
122	0xbe384036	-0.17993245
123	0xbe875eec	-0.26439607
124	0xbde1e6ad	-0.11030326
125	0x3c5919e7	0.0132508045
126	0x3ecbf2f8	0.39833808
127	0x3e7f8348	0.24952424
128	0xbefedce8	-0.49777913
129	0x3ddf147f	0.10892581
130	0x3ed63960	0.4184065
131	0x3df1c8ec	0.11805901
132	0xbe282b47	-0.16422759
133	0xbe155a24	-0.14585167
134	0x3df70438	0.120613515
135	0xbe60bc73	-0.21946888
136	0xbd5cd172	-0.05391068
137	0xbc3eec29	-0.011652985
138	0xbdeb7b51	-0.1149813
139	0xbe580fa5	-0.21099718
140	0xbeb14ef0	-0.34630537
141	0x3c1d412f	0.0095980605
142	0x3c44b231	0.012005375
143	0xbe0336ef	-0.12813924

nrms.0.c5.bias f4 [6]
0	0xbe04a591	-0.12953784
1	0x3deb27e2	0.114822164
2	0xbe4438cc	-0.19162291
3	0xbe4fd8de	-0.20297572
4	0xbc923e9e	-0.017852124
5	0xbe75b298	-0.2399391

nrms.1.c1_d.op.weight f4 [6, 6, 1, 1]
0	0xbeab4a85	-0.3345529
1	0x3e4e5db5	0.20152934
2	0x3df0e540	0.11762476
3	0x3e4a66d4	0.19765788
4	0xbda9de11	-0.08294309
5	0x3e8cf6ce	0.27532047
6	0xbe0a742a	-0.13520876
7	0x3e5ff8cd	0.21872254
8	0x3e104e6b	0.14092414
9	0xbe87f489	-0.26553753
10	0xbbb47551	-0.0055071493
11	0x3e934978	0.2876699
12	0x3dbb7f95	0.09155194
13	0x3e9556ce	0.2916779
14	0x3e1f8aad	0.15580244
15	0xbd083eb9	-0.033262942
16	0xbdd4d663	-0.103924535
17	0xbde1320a	-0.10995872
18	0xbebd7d7d	-0.37009802
19	0x3e709a10	0.2349627
20	0xbe592db2	-0.21208838
21	0xbe8d2dfc	-0.27574146
22	0x3e47dc67	0.1951767
23	0x3db37971	0.087633975
24	0xbeb94f29	-0.36193207
25	0x3e7fd424	0.24983269
26	0xbe1fd63e	-0.1560907
27	0x3dd5dbf0	0.104423404
28	0x3e98b21e	0.29823393
29	0x3ebcd3b8	0.3688028
30	0xbe65b8c3	-0.22433762
31	0xbe9851e4	-0.29749978
32	0xbe0e7538	-0.13911903
33	0xbf0451f4	-0.5168755
34	0xbe767481	-0.2406788
35	0xbe215998	-0.15756834

nrms.1.c1_d.op.bias f4 [6]
0	0xbe8ee88b	-0.2791179
1	0x3ea67a0a	0.32514983
2	0xbe21cbc1	-0.15800382
3	0x3e209202	0.15680698
4	0x3dae57a0	0.08512807
5	0xbe38fc32	-0.18064955

nrms.1.c1_r.op.weight f4 [6, 6, 1, 1]
0	0xbcf19f5d	-0.029494936
1	0x3ea31e44	0.31859028
2	0xbcb7ffa8	-0.022460774
3	0xbe0b2f3d	-0.13592239
4	0xbd8808ca	-0.066423014
5	0x3e66f01c	0.22552532
6	0x3ecbf370	0.39834166
7	0xbd568a65	-0.052378077
8	0x3e069499	0.13142623
9	0xbe9cdda7	-0.30637857
10	0xbea9cb5c	-0.33162963
11	0xbd254fbc	-0.040359244
12	0xbea202a9	-0.31642655
13	0xbda2bfa0	-0.07946706
14	0xbdaec996	-0.08534543
15	0x3e2b1c6b	0.1671006
16	0xbeb9e9b4	-0.36311114
17	0xbb8de8f3	-0.004330748
18	0xbe13ccfe	-0.14433667
19	0xbe99cb74	-0.30038035
20	0x3e93b627	0.2884991
21	0xbeb0b341	-0.3451176
22	0x3cdbf65b	0.02685087
23	0x3e802722	0.25029856
24	0x3e2734ff	0.1632881
25	0xbe82285c	-0.25421417
26	0x3eab7dab	0.33494315
27	0xbe8766eb	-0.26445708
28	0xbe396749	-0.18105806
29	0xbe89d3a9	-0.26919296
30	0xbc7be8d5	-0.015375336
31	0x3e1ae46b	0.15126197
32	0xbd8f5a77	-0.06999677
33	0x3d8bb71a	0.06822033
34	0xbe08132e	-0.13288566
35	0x3e187c7c	0.14891237

nrms.1.c1_r.op.bias f4 [6]
0	0x3db2db89	0.08733279
1	0xbe2a53ed	-0.16633578
2	0x3e1d9b5f	0.153913
3	0xbd186116	-0.037201963
4	0xbea405f5	-0.32035795
5	0x3d995c62	0.07488324

nrms.1.c2_d.op.weight f4 [6, 6, 3, 3]
0	0x3dba67c5	0.09101824
1	0xbd047849	-0.032341275
2	0x3ce74af9	0.028233992
3	0xbc9463da	-0.01811402
4	0x3cfb4488	0.030672327
5	0x3d8c3a89	0.06847102
6	0x3de122bd	0.10992954
7	0xbda8e581	-0.082468994
8	0x3deda1af	0.11603104
9	0xbb92f594	-0.0044848416
10	0x3cf1819b	0.029480746
11	0xbcc125de	-0.023577627
12	0xbddffa0a	-0.10936363
13	0x3d4e98f2	0.05043883
14	0xbd3fdccb	-0.046841424
15	0x3dcb5a73	0.09929361
16	0xbcdb3a88	-0.026761308
17	0x3daef3df	0.085426085
18	0xbd4b8ca3	-0.04969467
19	0xbd9fd9a9	-0.07805187
20	0x3cfd0809	0.03088762
21	0x3e0539b5	0.13010295
22	0xbdf7ef25	-0.1210616
23	0x3df79e74	0.120907694
24	0x3c856f39	0.016288387
25	0xbdfc4967	-0.12318688
26	0x3ba7667a	0.0051086517
27	0x3c17807c	0.009246942
28	0xbd817556	-0.06321208
29	0x3de39b08	0.11113554
30	0xbd9533bd	-0.07285259
31	0x3dd4c464	0.10389021
32	0xbd4393e0	-0.047748446
33	0xbdb6c45f	-0.089241736
34	0xbd9d6220	-0.076847315
35	0xbde7d4fc	-0.113199204
36	0x3de268fe	0.11055182
37	0xbd2d636e	-0.04233115
38	0x3dd950ce	0.106111154
39	0x3cdeb00e	0.027183559
40	0x3d99baa3	0.07506301
41	0x3d99f6d4	0.07517782
42	0xbd9108ad	-0.07081733
43	0x3cec57ba	0.028850425
44	0xbdb95b6b	-0.0905064
45	0xbde67b8b	-0.11254033
46	0xbdc09fb2	-0.094054595
47	0xbcf9a3c8	-0.030473605
48	0x3db67c8e	0.08910476
49	0xbd43b0d5	-0.047776062
50	0xbd34bca2	-0.044125207
51	0xbc5eddef	-0.013602718
52	0xbd765898	-0.060143083
53	0xbdd6a930	-0.10481489
54	0xbd1cab19	-0.03824911
55	0x3b66d24c	0.0035220562
56	0xbd999b81	-0.07500363
57	0x3de811b4	0.113315016
58	0x3d654303	0.05597211
59	0xbd420220	-0.047365308
60	0xbda699bc	-0.08134791
61	0xbdea6861	-0.1144569
62	0x3d8fb3b6	0.07016699
63	0x3db3083a	0.087418035
64	0xbd7a9fab	-0.061187427
65	0xbd5d9f82	-0.054107197
66	0x3cfcaa7b	0.03084301
67	0xbdadd825	-0.08488492
68	0xbc5ac279	-0.01335203
69	0xbde91bef	-0.11382281
70	0x3dc3fb73	0.095694445
71	0xbd8f527e	-0.06998156
72	0x3dd74657	0.10511463
73	0x3e16a3b2	0.14710882
74	0x3cf9abde	0.03047746
75	0x3ca0b575	0.019617775
76	0xbe17c9ca	-0.1482307
77	0xbd282d93	-0.041059088
78	0xbc87a806	-0.016559612
79	0x3d957f3d	0.072996594
80	0x3d068433	0.03284092
81	0xbde8625c	-0.113468856
82	0x3b5ad357	0.0033390129
83	0x3dd9b02f	0.106293075
84	0xbdd38413	-0.103279255
85	0x3cf5115a	0.0299155
86	0xbc6c2d1b	-0.014415051
87	0xbd454d70	-0.048169553
88	0xbd73c6bc	-0.0595157
89	0x3d879f74	0.0662221
90	0xbda95a60	-0.08269191
91	0xbd7fb8c5	-0.06243207
92	0xbcdb32d0	-0.026757628
93	0xbe0dffd7	-0.13867126
94	0x3d2eb81b	0.042656045
95	0xbdeb2ee9	-0.11483557
96	0xbe056669	-0.13027348
97	0xbc35c7c8	-0.011094995
98	0xbd77e0a8	-0.060516983
99	0x3c23fea5	0.010009442
100	0xbcecdad9	-0.028912948
101	0xbd319434	-0.04335423
102	0xbcebef06	-0.028800499
103	0x3c376f0d	0.01119591
104	0xbccbf30d	-0.02489617
105	0xbe0cad61	-0.13738014
106	0x3d6b76bc	0.05748628
107	0x3e225d84	0.15855986
108	0xbd8925c3	-0.066966556
109	0xbe3dccd8	-0.18535173
110	0xbde12066	-0.10992508
111	0x3d886d6a	0.06661494
112	0xbdb7abd0	-0.089683175
113	0x3d39e5fa	0.04538534
114	0xbcd80781	-0.026370766
115	0x3c8c77f1	0.017147036
116	0xbd496ac5	-0.04917409
117	0xbdbdb7b9	-0.09263558
118	0x3da57f0e	0.080808744
119	0xbd2af602	-0.041738518
120	0x3c2f17d5	0.010686834
121	0xbe0f9780	-0.14022636
122	0x3de60d2d	0.11232982
123	0x3d193422	0.037403233
124	0x3d91d90b	0.07121476
125	0xbadc6f93	-0.001681792
126	0x3c423914	0.011854429
127	0x3dae9b81	0.08525754
128	0xbd2ebbb3	-0.042659473
129	0x3ce40106	0.02783252
130	0xbdddb5b8	-0.10825676
131	0x3e4fc0d8	0.20288408
132	0xbc1e714f	-0.00967057
133	0xbc295482	-0.01033509
134	0xbcee2bcd	-0.02907362
135	0x3c726733	0.014795112
136	0xbcd0f767	-0.025508596
137	0xbd83099c	-0.06398317
138	0x3de49479	0.111611314
139	0xbdd9400a	-0.106079176
140	0xbd4cbda0	-0.049985528
141	0x3d87e938	0.0663628
142	0x3da33cd1	0.07970584
143	0xbd464347	-0.048404004
144	0xbd34b2c1	-0.044115786
145	0xbd23c8f3	-0.039986562
146	0xbd6c08bb	-0.057625514
147	0x3c98f94b	0.01867356
148	0xbd9bd98e	-0.07609855
149	0xbd9d3737	-0.07676547
150	0xbd822b8f	-0.063559644
151	0x3c9873cc	0.018609904
152	0xbdb18450	-0.08667815
153	0xbd0e6b43	-0.03477026
154	0xbd699e85	-0.05703594
155	0x3d577bf9	0.052608464
156	0x3ce6a703	0.02815581
157	0xbbbf9eb4	-0.0058477763
158	0x3ce72e1d	0.02822023
159	0xbdee1d5a	-0.11626692
160	0xbe03ac5f	-0.12858723
161	0xbb26161f	-0.0025342775
162	0xbdf83c1e	-0.121208414
163	0xbdc5c352	-0.09656395
164	0xbc259c4f	-0.010108068
165	0xbdb4d1d9	-0.08829088
166	0xbdcb69ca	-0.09932287
167	0x3dd1fb45	0.10253004
168	0x3df723f4	0.120674044
169	0x3d2b289b	0.04178677
170	0xbdb6563f	-0.08903169
171	0x3d00a21d	0.031404603
172	0xbd6b8fd9	-0.05751023
173	0x3ccc9f62	0.024978343
174	0xbdde7d05	-0.10863689
175	0xbb98a76b	-0.0046586297
176	0xbcd6373f	-0.02614939
177	0xbdbe8b72	-0.09303941
178	0xbd39d9d0	-0.045373738
179	0x3d484fe2	0.048904307
180	0x3cddcaad	0.027074182
181	0xbd9f7245	-0.07785467
182	0x3d8cad6d	0.06869016
183	0x3df9a5b8	0.121898115
184	0xbd447b6f	-0.047969278
185	0xbd1742d5	-0.03692897
186	0xbd7e26cd	-0.062048722
187	0x3d4c5dbc	0.04989408
188	0xbd948572	-0.07252015
189	0xbdf4a864	-0.119461805
190	0x3d0e6c4f	0.03477126
191	0x3d8329ea	0.06404479
192	0x3d587342	0.052844293
193	0x3cf68796	0.03009395
194	0xbd98ecfc	-0.07467076
195	0xbde78f0f	-0.11306583
196	0xbe069a13	-0.13144712
197	0xbdfe5450	-0.12418425
198	0xbcc4f494	-0.024042405
199	0xbd9429ad	-0.072345115
200	0xbcc2fe60	-0.023802936
201	0x3db1f4be	0.08689259
202	0x3cb3d41f	0.021951733
203	0x3d3cd099	0.04609737
204	0xbd113884	-0.035454288
205	0xbd3a9757	-0.045554485
206	0xbe04fcaf	-0.12987016
207	0x3df4ec3d	0.119591214
208	0x3d2d64da	0.042332508
209	0x3d2bfb79	0.04198787
210	0x3d7667a3	0.06015743
211	0xbdcd164a	-0.10014017
212	0xbdcb49d9	-0.09926195
213	0x3dacbb8b	0.084342085
214	0x3db6a21e	0.0891764
215	0x3d906885	0.070511855
216	0x3da33f75	0.07971088
217	0xbb943c27	-0.0045237723
218	0x3d0df462	0.03465689
219	0x3d4f7bdb	0.050655227
220	0xbc3ef96c	-0.0116561465
221	0xbd9d8411	-0.07691205
222	0xbdcb0ffc	-0.09915158
223	0xbd4eb70e	-0.050467543
224	0x3d4b6658	0.04965815
225	0xbdb91384	-0.090369254
226	0xbd3b14a9	-0.045674
227	0xbc322660	-0.010873407
228	0x3d6b1dbd	0.057401408
229	0xbda1d2fb	-0.079015695
230	0xbce228bc	-0.027607314
231	0x3d58985e	0.052879684
232	0xbc63bc5f	-0.013899892
233	0xbddf0274	-0.1088914
234	0xbd4cfdad	-0.05004661
235	0x3d07de13	0.03317077
236	0x3d58f209	0.052965198
237	0xbd9b135f	-0.07572054
238	0x3d456503	0.048192035
239	0xbd1984b4	-0.03748007
240	0x3de34e4e	0.1109892
241	0xbd1786a7	-0.03699365
242	0xbc4ea62f	-0.012612863
243	0xbc724dc0	-0.014789045
244	0xbddff841	-0.109360225
245	0x3df38431	0.11890448
246	0x3dbdd35e	0.09268831
247	0x3daddd02	0.084894195
248	0x3db80449	0.08985192
249	0x3d063e11	0.032774035
250	0x3dc6ca9f	0.09706616
251	0xbde074b0	-0.109597564
252	0x3ca7b0ad	0.020469988
253	0x3d016a78	0.031595677
254	0x3dbc9701	0.09208489
255	0x3da023f9	0.07819361

nrms.1.c2_d.op.bias f4 [6]
0	0xbde0e7ad	-0.10981689
1	0xbdc835eb	-0.09775909
2	0x3da1d598	0.07902068
3	0xbd6d1b90	-0.057887614
4	0xbd9ca2d0	-0.076482415
5	0xbdbaf9f2	-0.091297045

nrms.1.c3_d.op.weight f4 [6, 6, 1, 1]
0	0x3e0c64c5	0.13710316
1	0xbea4188a	-0.32049972
2	0x3e52aeea	0.20574537
3	0x3ebbb5ff	0.3666229
4	0xbd5d2622	-0.053991444
5	0x3d94ea54	0.07271257
6	0xba9fcb96	-0.0012191411
7	0x3e3c0ff4	0.1836546
8	0xbe98a088	-0.29809976
9	0xbda0d726	-0.07853536
10	0x3de9a813	0.11409011
11	0x3ea6e52d	0.32596722
12	0x3e5dc6cd	0.21657868
13	0x3ea85747	0.32879087
14	0xbea74647	-0.32670805
15	0x3df5f9ea	0.12010558
16	0xbe9edeb2	-0.31029278
17	0xbdc8810c	-0.09790239
18	0xbdf851b2	-0.12124957
19	0x3c0d1c84	0.008612756
20	0xbea2c2ad	-0.3178915
21	0xbdbf488a	-0.093400076
22	0x3e2df708	0.16988766
23	0x3dd85b8c	0.10564336
24	0x3e6e4022	0.23266652
25	0x3d926222	0.071476236
26	0x3e2e06c2	0.16994765
27	0xbd99e5f0	-0.0751456
28	0x3e9dacd0	0.30795908
29	0x3dab4f58	0.08364743
30	0xbe1eae19	-0.154961
31	0x3dfef014	0.12448135
32	0x3e618aad	0.22025557
33	0x3c993587	0.018702282
34	0x3e9558dc	0.29169357
35	0xbeaa9f37	-0.33324596

nrms.1.c3_d.op.bias f4 [6]
0	0xbd2538bf	-0.04033732
1	0x3e06c704	0.13161856
2	0x3e2ef531	0.1708572
3	0xbe0db00d	-0.1383669
4	0x3eb8a964	0.36066735
5	0x3e602bc2	0.21891692

nrms.1.c3_r.op.weight f4 [6, 6, 1, 1]
0	0xbe5810b2	-0.21100119
1	0xbeb09753	-0.3449045
2	0xbcc1c008	-0.023651138
3	0xbe588e06	-0.21147928
4	0x3e373b76	0.17893776
5	0xbe8a7570	-0.27042723
6	0x3e8b906e	0.2725863
7	0xbe686f08	-0.22698605
8	0xbe36a6cd	-0.17837067
9	0xbdd35416	-0.103187725
10	0x3ea30646	0.31840724
11	0x3ea01830	0.31268454
12	0xbeadfeac	-0.33983362
13	0xbda4ba7e	-0.08043383
14	0xbe53d87a	-0.20688048
15	0xbe6836fe	-0.22677228
16	0x3dc823d1	0.097724564
17	0xbea40032	-0.320314
18	0x3eb1766e	0.34660667
19	0x3d187a77	0.037226167
20	0x3e8cc79c	0.2749604
21	0xbd7e0598	-0.062017053
22	0xbe85c4ba	-0.26126653
23	0xbdce82b0	-0.100835204
24	0xbe0dd294	-0.1384986
25	0x3cb4eee4	0.022086568
26	0x3dbed16b	0.09317287
27	0x3d067e65	0.032835383
28	0xbd114fc6	-0.03547647
29	0xbd86aed3	-0.06576314
30	0xbdbddf44	-0.092711
31	0x3da64020	0.081176996
32	0x3e811443	0.2521077
33	0x3e884662	0.26616198
34	0xbe80fd6a	-0.2519334
35	0x3eac9e14	0.33714354

nrms.1.c3_r.op.bias f4 [6]
0	0x3e863636	0.26213235
1	0xbe4ede14	-0.20201904
2	0x3e7325d8	0.23744905
3	0x3c8ae463	0.016954606
4	0xbe813111	-0.25232747
5	0x3e9e53dc	0.30923355

nrms.1.c5.weight f4 [6, 24, 1, 1]
0	0x3e49e199	0.19714965
1	0x3d8d22e0	0.068914175
2	0xbd124950	-0.035714447
3	0xbde35ade	-0.11101316
4	0x3e308f6e	0.17242214
5	0x3e46eede	0.19427058
6	0x3dca0e0f	0.09865963
7	0x3e57c3c4	0.21070772
8	0xbe54c707	-0.20779048
9	0x3daf8294	0.08569828
10	0xbd5d19a7	-0.053979542
11	0xbb34682e	-0.0027527916
12	0xbde2ef17	-0.11080759
13	0xbdcfaa86	-0.10139947
14	0x3dd9183f	0.10600328
15	0xbbb355dc	-0.0054728817
16	0x3d75458d	0.059880782
17	0x3a103e2a	0.0005502427
18	0x3d442a8f	0.04789215
19	0xbd3b32b8	-0.045702666
20	0x3d2af154	0.041734055
21	0xbdeb1aa0	-0.11479688
22	0x3df4075c	0.11915466
23	0x3e133b28	0.14378035
24	0xbd3e3493	-0.046436857
25	0x3e426a3f	0.18985842
26	0x3d381edc	0.044951305
27	0xbe2e6f6d	-0.17034693
28	0xbceca0b5	-0.028885225
29	0x3e07495a	0.13211575
30	0xbdbe3d66	-0.092890546
31	0xbdb0a314	-0.08624855
32	0x3e6ac52e	0.2292678
33	0x3dc6bf28	0.09704429
34	0x3d982dce	0.074306116
35	0xbdb05c68	-0.08611375
36	0x3c87605f	0.016525446
37	0xbd932551	-0.07184852
38	0xbdadafe7	-0.08480816
39	0x3d13c0b7	0.03607246
40	0xbd833350	-0.064062715
41	0xbe01e8da	-0.12686482
42	0x3caa0c71	0.020757886
43	0xbe432e92	-0.19060734
44	0x3cf7e55e	0.030260738
45	0x3d076a40	0.033060312
46	0x3df8f12c	0.12155375
47	0x3cc4dcae	0.02403101
48	0xbab526d4	-0.0013820776
49	0xbd3da187	-0.046296623
50	0x3d71bc6b	0.05901758
51	0x3d64456f	0.05573028
52	0x3d58ef41	0.052962545
53	0x3e7e5e0e	0.24840567
54	0x3d97ecc9	0.0741821
55	0x3dc5657f	0.096384995
56	0x3e238954	0.15970355
57	0x3c77bf03	0.015121224
58	0x3e35248e	0.17689726
59	0xbdccc033	-0.099975966
60	0xbe348f1a	-0.17632714
61	0xbddd176f	-0.10795485
62	0x3dea2f39	0.11434788
63	0xbe10156d	-0.14070673
64	0xbdecac7f	-0.115563385
65	0xbe03c714	-0.12868911
66	0xbcfe5cf4	-0.031050183
67	0xbdc228f3	-0.09480467
68	0xbd580eb7	-0.05274841
69	0x3d915a39	0.07097287
70	0x3dae14fb	0.085000955
71	0xbdddbee6	-0.108274266
72	0xbdfdc283	-0.12390616
73	0xbe3f42c8	-0.18677819
74	0x3e2f0dc7	0.170951
75	0xbe5ff42c	-0.21870488
76	0xbdf965a2	-0.12177588
77	0xbe98b415	-0.29824892
78	0x3e1595fc	0.14607996
79	0xbe6de9a8	-0.23233664
80	0x3d96f65a	0.073712066
81	0x3d9d1796	0.07670514
82	0xbdf3f88c	-0.11912641
83	0xbe1cf6e9	-0.15328564
84	0xbc385af4	-0.011252154
85	0xbea4f224	-0.3221599
86	0xbe0b5bfd	-0.1360931
87	0x3cff03f1	0.03112981
88	0xbd1500e2	-0.036377795
89	0x3d082fc7	0.03324869
90	0x3d57d508	0.052693397
91	0xbed0852c	-0.40726602
92	0xbe63f529	-0.2226149
93	0xbeab48da	-0.3345402
94	0x3b0c8762	0.0021443
95	0xbd16f0e0	-0.03685081
96	0xbbadb5d2	-0.0053012157
97	0x3e401f78	0.18762004
98	0x3dfef90f	0.12449848
99	0x3d0073cf	0.031360444
100	0x3d8ac517	0.06775873
101	0xbe1dd163	-0.15411906
102	0xbe275cdc	-0.16344017
103	0x3cce2e6b	0.025168618
104	0xbe261d8e	-0.16222212
105	0xbe04e011	-0.129761
106	0x3daf6eb2	0.08566035
107	0x3cde320c	0.027123474
108	0x3dafb5b4	0.08579579
109	0x3dc202f0	0.094732165
110	0xbdec993d	-0.115526654
111	0x3e281a64	0.16416317
112	0xbe899fd4	-0.26879752
113	0xbd47e949	-0.048806462
114	0x3d8d6ce9	0.069055386
115	0xbe2958a7	-0.16537724
116	0xbe3c0e81	-0.18364908
117	0xbe15996f	-0.14609312
118	0x3dd14ece	0.10220109
119	0xbe15be01	-0.14623262
120	0xbb7aa53c	-0.003824546
121	0xbdb3c6aa	-0.087781265
122	0xbe1308a4	-0.14358765
123	0xbe44c42a	-0.19215456
124	0xbdec304a	-0.11532648
125	0x3e6b7b5a	0.22996274
126	0x3da35937	0.07976001
127	0x3db2783f	0.08714341
128	0xbd2d2605	-0.042272586
129	0x3d8a7f21	0.06762529
130	0xbd2f4315	-0.042788584
131	0x3b8924f5	0.004185314
132	0x3e2550cf	0.16144107
133	0x3cb17b77	0.021665318
134	0xbc4ce7f4	-0.012506474
135	0x3de8ecd3	0.11373296
136	0xbda52471	-0.08063591
137	0xbe048fad	-0.12945433
138	0xbdf98e9a	-0.12185402
139	0xbebc6fb5	-0.36803976
140	0xbd57e5f5	-0.05270954
141	0x3db9fb43	0.090811275
142	0xbe28afc1	-0.16473295
143	0x3d1c8c1a	0.03821955

nrms.1.c5.bias f4 [6]
0	0x3c53ebd0	0.01293464
1	0xbe669dc7	-0.22521125
2	0xbe6bdeae	-0.23034164
3	0xbdd8149d	-0.10550807
4	0xbc9bed0c	-0.019033931
5	0xbe2756dd	-0.1634173

nrms.2.c1_d.op.weight f4 [6, 6, 1, 1]
0	0x3d3aae8a	0.04557661
1	0xbe078519	-0.13234366
2	0x3eafbcd7	0.3432376
3	0xbd53d8a1	-0.051720265
4	0x3eb40c4e	0.35165638
5	0x3e77cee5	0.24200018
6	0x3e91d0f1	0.28479722
7	0x3e177920	0.147923
8	0xbc2ca54a	-0.010537455
9	0xbebe67c3	-0.3718854
10	0x3ea26f0b	0.31725344
11	0xbc8f45b0	-0.017489284
12	0x3ea4105a	0.32043725
13	0x3e9b9602	0.30387884
14	0x3e3dd39a	0.18537751
15	0xbeae954d	-0.34098282
16	0x3e88dd4b	0.26731333
17	0x3e99a855	0.3001124
18	0x3ea180cd	0.3154358
19	0xbea572e5	-0.3231422
20	0xbe91ae2e	-0.284532
21	0xbdddc854	-0.10829225
22	0xbe0cd83c	-0.13754362
23	0x3e007aac	0.12546796
24	0xbdee560e	-0.116375074
25	0xbe904b05	-0.28182235
26	0xbe586b68	-0.21134722
27	0x3d0947cd	0.03351574
28	0x3e33c71f	0.17556427
29	0xbd835c38	-0.06414074
30	0x3e738c26	0.23783931
31	0xbe36d302	-0.1785393
32	0x3dd10ef4	0.1020793
33	0x3d9480b8	0.07251114
34	0xbe325d8c	-0.17418498
35	0xbd3752f3	-0.04475684

nrms.2.c1_d.op.bias f4 [6]
0	0x3cc0b9d9	0.023526119
1	0xbe88da57	-0.2672908
2	0x3eb5f6c4	0.3553983
3	0xbe28eab6	-0.16495785
4	0x3d1f137c	0.03883694
5	0x3db41b5f	0.08794283

nrms.2.c1_r.op.weight f4 [6, 6, 1, 1]
0	0xbee624e2	-0.44950014
1	0x3d8dec6a	0.06929858
2	0xbcccdefa	-0.025008667
3	0xbd4510e8	-0.048111826
4	0x3e7f6b6c	0.24943322
5	0x3dc746a8	0.097302735
6	0xbea9792b	-0.33100256
7	0xbeb6a12b	-0.35669836
8	0xbd1947d8	-0.03742203
9	0x3e380137	0.17969213
10	0x3dc2ece0	0.095178366
11	0x3e813717	0.25237343
12	0xbcd77216	-0.026299518
13	0xbe66226e	-0.22474071
14	0xbaa12eeb	-0.0012297308
15	0x3dfe0e5c	0.124050826
16	0x3ead2f9f	0.33825395
17	0x3d1c59bb	0.03817151
18	0x3e846e79	0.25865534
19	0x3e7f0e02	0.24907687
20	0xbde1930b	-0.11014374
21	0xbe851971	-0.25995973
22	0xbbb7a656	-0.0056045456
23	0xbdd40e43	-0.10354283
24	0x3e746139	0.23865213
25	0x3e09f2ec	0.13471574
26	0xbe2a798b	-0.16647927
27	0x3e063efd	0.13109966
28	0x3eb458dc	0.35224044
29	0xbe3a7210	-0.18207574
30	0xbe9f80b0	-0.31152868
31	0xbe06f79f	-0.13180397
32	0xbd81f608	-0.06345755
33	0x3eb777c8	0.35833573
34	0x3e9f96af	0.3116965
35	0xbce83871	-0.028347226

nrms.2.c1_r.op.bias f4 [6]
0	0xbe0af804	-0.13571173
1	0x3d84dadd	0.06487057
2	0xbe858550	-0.26078272
3	0xbe898ca0	-0.268651
4	0x3dfa1a3b	0.12212034
5	0xbdbe1f23	-0.092832826

nrms.2.c2_d.op.weight f4 [6, 6, 3, 3]
0	0x3bb54f47	0.0055331322
1	0xbe37750c	-0.17915744
2	0x3d97e7c7	0.07417255
3	0x3cf7c02e	0.030243006
4	0x3c7d5ada	0.015463555
5	0xbcf3f741	-0.029780986
6	0xbe9052f1	-0.2818828
7	0xbe3ca890	-0.18423676
8	0xbc3c4c67	-0.011492825
9	0xbcf1d264	-0.029519267
10	0x3de6595b	0.11247512
11	0x3da4e12d	0.08050761
12	0x3d2cc3d2	0.042178936
13	0xbdabc0ae	-0.0838636
14	0x3d134abe	0.03595995
15	0xbddc068f	-0.107434385
16	0xbd08f6bc	-0.03343843
17	0x3d3d46d8	0.04621014
18	0x3dcb335e	0.09921907
19	0x3da19730	0.07890165
20	0x3cd12476	0.025530081
21	0x3d1a09cd	0.037607003
22	0xbcc5e4fd	-0.024157042
23	0x3d0fec32	0.035137363
24	0xbccf74d1	-0.025324257
25	0x3c67c0c8	0.014145084
26	0xbd8bed10	-0.068323255
27	0xbda87ee6	-0.08227329
28	0x3dcdb104	0.10043529
29	0x3d470571	0.048589174
30	0xbde873f1	-0.11350239
31	0xbcaa5b22	-0.020795409
32	0xbdb0fa65	-0.08641509
33	0x3ccbb131	0.024864765
34	0x3c68f268	0.01421795
35	0xbb97b0d8	-0.0046292357
36	0xbd02ef7d	-0.031966675
37	0xbc96ae7a	-0.018393744
38	0x3be2b300	0.006918311
39	0xbd19143b	-0.03737281
40	0x3d675083	0.056473266
41	0xbc2a090c	-0.0103781335
42	0x3c476852	0.012170868
43	0xbdb15317	-0.08658426
44	0xbe1c2e97	-0.15252148
45	0xbdce666f	-0.100781314
46	0xbdbb3ea2	-0.09142806
47	0x3cb3bb3e	0.02193987
48	0x3a7de3cb	0.0009685128
49	0x3ce69510	0.02814725
50	0x3d5cd3b7	0.053912845
51	0xbde3e920	-0.111284494
52	0xbde41b5a	-0.111380294
53	0x3d8e05e3	0.069347166
54	0x3e41daf4	0.1893118
55	0x3e511fbc	0.20422262
56	0x3dbb7f8b	0.09155186
57	0x3b0db24f	0.0021621173
58	0xbc8d89f9	-0.017277705
59	0xbdb7df16	-0.08978097
60	0xbd9c5f60	-0.07635379
61	0xbd205ddd	-0.039152015
62	0x399485d1	0.0002832846
63	0xbdcbb34c	-0.099463075
64	0xbdc6c269	-0.097050495
65	0x3dba181c	0.0908663
66	0x3d616b57	0.055034008
67	0xbd14802f	-0.036255058
68	0x3cfda951	0.030964525
69	0xbdc843f2	-0.097785845
70	0xbd5cbe20	-0.053892255
71	0x3a427a20	0.0007418711
72	0xbcad7d8f	-0.021178035
73	0xbcfb210c	-0.030655406
74	0x3dc8f05e	0.098114714
75	0x3c8c7911	0.017147573
76	0xbdc22581	-0.094798096
77	0xbdf1faa6	-0.118153855
78	0x3deb2d4b	0.11483248
79	0x3dbfcc56	0.09365146
80	0xbba09838	-0.0049009584
81	0x3d3793fa	0.044818856
82	0x3d23ee92	0.04002244
83	0xbc7d1dc5	-0.015448992
84	0xbd81521f	-0.063144915
85	0xbb83bbda	-0.0040201964
86	0xbdcf94dd	-0.10135815
87	0x3c7b5768	0.0153406635
88	0xbd85cc80	-0.06533146
89	0x3dfdc2fc	0.12390706
90	0xbd9d2925	-0.07673863
91	0xbe1f178d	-0.15536328
92	0x3c678e72	0.014133083
93	0xbc6caa16	-0.0144448485
94	0xbcfdd896	-0.030987065
95	0x3da40f03	0.08010676
96	0x3d35f5ab	0.04442374
97	0x3d8dc707	0.06922727
98	0xbc93f7b8	-0.018062457
99	0xbc997157	-0.018730802
100	0xbd3a301d	-0.04545604
101	0x3c2eb9ab	0.010664384
102	0x3a819be3	0.0009888377
103	0xbc1f1628	-0.009709872
104	0x3d7919d6	0.060815655
105	0x3cb2da7d	0.021832699
106	0x3d0b72b2	0.03404493
107	0xbde0c8af	-0.10975777
108	0xbcb0a196	-0.021561425
109	0xbe4d2019	-0.20031776
110	0x3b7b3884	0.0038333246
111	0x3e453d0e	0.19261572
112	0xbde2ab48	-0.110678256
113	0xbd583745	-0.052787084
114	0x3d0f37e6	0.03496542
115	0x3da81fa1	0.08209158
116	0xbe277ade	-0.16355464
117	0xbd5a3be4	-0.053279772
118	0x3cf265c1	0.029589536
119	0x3b9952a8	0.004679043
120	0x3de20a73	0.11037149
121	0xbc5d86c2	-0.013520898
122	0xbbcc26a0	-0.0062301904
123	0x3d25ce74	0.040480092
124	0xbd9abb83	-0.07555296
125	0xbce90407	-0.028444303
126	0xbd2fb404	-0.042896286
127	0x3d50ec8e	0.051006846
128	0x3d93b709	0.072126456
129	0xbdfa0bd5	-0.12209288
130	0x3cdb769b	0.026789954
131	0xbc8f752b	-0.017511925
132	0xbd9de9c3	-0.07710602
133	0x3bdbed96	0.006711672
134	0xbdd2a750	-0.102858186
135	0xbbd2bceb	-0.006431212
136	0x3d5bfd4d	0.053708363
137	0x3e0673e2	0.13130143
138	0xbe1e978f	-0.15487503
139	0x3d8c705f	0.068573706
140	0xbcbe67b2	-0.023242805
141	0x3dcea855	0.100907005
142	0xbdaa7752	-0.0832354
143	0x3dbe581d	0.0929415
144	0xbc753980	-0.014967322
145	0x3e1931aa	0.14960352
146	0x3dc85ea7	0.097836785
147	0x3ccf6292	0.025315557
148	0x3df3ce6a	0.11904605
149	0xbddb4318	-0.107061565
150	0xbc09a4f3	-0.008401143
151	0xbe362fa8	-0.17791617
152	0xbc49c6b7	-0.012315444
153	0x3c89befc	0.016814701
154	0x3d623330	0.055224597
155	0x3c09259a	0.008370781
156	0xbaca9dea	-0.0015458439
157	0xbc1a0131	-0.009399698
158	0x3c3f43f3	0.011673915
159	0x3cee51f7	0.029091818
160	0xbe1a0b20	-0.15043306
161	0xbdc370b3	-0.0954298
162	0x3d04c219	0.03241167
163	0xbd560dea	-0.052259363
164	0xbdeb5e7f	-0.11492633
165	0xbcf814ce	-0.030283358
166	0xbce5adfc	-0.028037064
167	0x3de2df79	0.1107778
168	0xbc75eba5	-0.015009795
169	0x3cf6716e	0.030083384
170	0x396da90c	0.00022665056
171	0xbdd5c27f	-0.10437488
172	0xbd0d875c	-0.034552917
173	0x3de1994b	0.110155664
174	0xbb7325bf	-0.0037101356
175	0xbde7f5b2	-0.113261595
176	0xbd9cb1c2	-0.07651092
177	0x3d4a86cb	0.049444955
178	0x3d1a7299	0.037706945
179	0xbd88b73e	-0.06675576
180	0xbccadb8f	-0.024762897
181	0x3dedada2	0.116053835
182	0xbd5550e4	-0.052079096
183	0xbdc8c23d	-0.09802673
184	0xbdd99ba5	-0.1062539
185	0xbdd29f3a	-0.10284276
186	0xbd4ec7d0	-0.050483525
187	0xbcba29ac	-0.022724949
188	0x3d2b8073	0.041870546
189	0x3d0bcdf4	0.03413196
190	0x3cb2b447	0.021814479
191	0xbb1d8fd2	-0.0024042022
192	0x3d6897b4	0.0567853
193	0xbd5ab392	-0.053393908
194	0x3dc72af7	0.09724992
195	0xbad95448	-0.0016580904
196	0xbd332b24	-0.043742314
197	0xbdd70e1e	-0.105007395
198	0x3d00d41e	0.03145229
199	0x3db373aa	0.087622955
200	0xbd481e33	-0.048856925
201	0xbbbac056	-0.0056991978
202	0xbdf0a1d1	-0.11749614
203	0x3ddf2b2d	0.10896907
204	0x3d15cebb	0.036574107
205	0xbcbbbe93	-0.022918021
206	0x3c9a3f06	0.01882888
207	0x3cb50375	0.022096375
208	0xbdb582b0	-0.08862817
209	0xbdad5820	-0.08464074
210	0xbd905adf	-0.07048582
211	0xbd379dbc	-0.04482816
212	0x3dad5e86	0.084652945
213	0x3c349bdb	0.011023487
214	0xbd8980c5	-0.06714014
215	0x3b9e0149	0.0048219305
216	0xbda7f664	-0.08201292
217	0xbdbe639a	-0.09296341
218	0x3dc845b9	0.097789235
219	0xbe387385	-0.18012817
220	0xbdd739a4	-0.10509041
221	0x3d46ec80	0.048565388
222	0xbd17e877	-0.03708693
223	0x3ce15646	0.027506959
224	0x3e37fc63	0.17967372
225	0x3d3bcfaa	0.04585234
226	0xbd98f878	-0.07469267
227	0xbd15e7ba	-0.036597945
228	0xbdf60bc8	-0.12013966
229	0xbd266ec6	-0.040632986
230	0xbdfdf4c4	-0.12400201
231	0xbdde7b7f	-0.10863399
232	0xbdc556cf	-0.09635698
233	0xbda6fde6	-0.08153896
234	0xbc8b44aa	-0.017000515
235	0x3dc9b411	0.09848798
236	0xbcdce7ed	-0.02696606
237	0xbd6c3f01	-0.057677273
238	0xbb8b1e50	-0.004245557
239	0x3da36c9f	0.07979702
240	0xbd55ae47	-0.052168157
241	0xbdfc9fb7	-0.12335151
242	0xbd06431f	-0.032778855
243	0xbda1f6fe	-0.07908438
244	0x3de2fc06	0.11083226
245	0x3da8f757	0.08250301
246	0x3de44be4	0.111472875
247	0x3dc03ab4	0.09386197
248	0x3b60e23c	0.0034314534
249	0xbb2a0fe0	-0.0025949404
250	0x3d9bab9c	0.07601091
251	0x3da8d4c6	0.08243708
252	0x3d516e6c	0.051130697
253	0x3c5d797c	0.013517734
254	0x3d505f34	0.050872043
255	0x3de1b3a7	0.11020594

nrms.2.c2_d.op.bias f4 [6]
0	0x3decd9b7	0.11564963
1	0x3b85e156	0.0040857
2	0x3e4097c3	0.18807893
3	0xbdf04af9	-0.1173305
4	0x3e39a35f	0.18128727
5	0xbde7f69a	-0.113263324

nrms.2.c3_d.op.weight f4 [6, 6, 1, 1]
0	0xbc8c2bca	-0.017110724
1	0xbe55a887	-0.2086507
2	0x3e69bf06	0.22826776
3	0x3cf14439	0.029451476
4	0x3d68335d	0.05668961
5	0xbe704f12	-0.23467663
6	0x3e3d8aae	0.18509933
7	0x3dbfc1f1	0.09363163
8	0x3e0a57a1	0.1350999
9	0x3e920f24	0.28527176
10	0xbe2ca6cc	-0.16860503
11	0x3e021377	0.12702738
12	0x3cdcbf86	0.026946794
13	0xbe831ac6	-0.25606364
14	0x3e8b40c3	0.27197847
15	0x3ea163c9	0.31521443
16	0x3d4b5900	0.049645424
17	0xbebc6e61	-0.36802962
18	0xbeb0b6bd	-0.34514418
19	0xbeab22d5	-0.33425012
20	0x3e3ebb72	0.18626192
21	0x3eaa4e9a	0.33263093
22	0xbcd6460c	-0.026156448
23	0xbd5c58d8	-0.053795666
24	0xbcaf0b0d	-0.021367574
25	0xbdd107a8	-0.102065384
26	0xbd83434c	-0.0640932
27	0xbe927f45	-0.28612724
28	0xbe8c83d1	-0.27444318
29	0xbd8bbb21	-0.068228014
30	0xbdc5e1f5	-0.096622385
31	0xbea9af9e	-0.33141798
32	0xbd3b0445	-0.04565837
33	0xbe9da910	-0.30793047
34	0xbeace57f	-0.33768842
35	0x3ddf185c	0.10893318

nrms.2.c3_d.op.bias f4 [6]
0	0xbe684d94	-0.22685844
1	0x3ea932d8	0.33046603
2	0x3d0285a1	0.03186572
3	0x3ec21473	0.37906227
4	0x3e9f7c78	0.3114965
5	0x3e97743c	0.29580867

nrms.2.c3_r.op.weight f4 [6, 6, 1, 1]
0	0xbe42d538	-0.19026649
1	0x3e92b146	0.28650874
2	0x3e402fe5	0.1876827
3	0x3d9465fa	0.07246013
4	0xbdbdf06a	-0.09274371
5	0x3e95c87b	0.29254517
6	0x3ea37254	0.31923163
7	0xbc2838ce	-0.01026745
8	0x3cf2378e	0.029567506
9	0xbe9133b8	-0.2835977
10	0x3da240c5	0.0792251
11	0xbeb50c58	-0.3536098
12	0x3cc9e674	0.024646021
13	0xbe838964	-0.25690758
14	0x3ea1dd30	0.31614065
15	0xbe632e76	-0.22185692
16	0xbe88ba3c	-0.26704586
17	0x3e6db321	0.23212864
18	0x3e9f0619	0.3105934
19	0x3d8d14e1	0.06888748
20	0x3ba46377	0.00501674
21	0x3eb8369c	0.35979164
22	0x3e91ea88	0.28499246
23	0xbe94c687	-0.29057714
24	0x3dcc85a0	0.099864244
25	0xbe471cdf	-0.19444607
26	0x3e392188	0.18079197
27	0x3e22efb5	0.15911753
28	0xbe45bb70	-0.19309783
29	0xbe376e13	-0.17913084
30	0xbe975ae3	-0.2956153
31	0x3e68ef73	0.22747593
32	0x3d1b8a0b	0.037973445
33	0x3eb34f8f	0.35021636
34	0xbe23923a	-0.1597375
35	0xbd818962	-0.06325032

nrms.2.c3_r.op.bias f4 [6]
0	0x3e50e79e	0.20400855
1	0xbec650c5	-0.38733497
2	0xbe295a21	-0.16538288
3	0xbc1965c9	-0.009362646
4	0xbe60c425	-0.21949823
5	0x3e2d6505	0.16933067

nrms.2.c5.weight f4 [6, 24, 1, 1]
0	0xbe4a8740	-0.19778156
1	0xbd8fa894	-0.070145756
2	0xbc05c826	-0.008165395
3	0x3e087f1a	0.13329735
4	0x3d87a5a0	0.06623387
5	0x3e2ce976	0.16885933
6	0xbe1680e0	-0.146976
7	0xbe144a11	-0.14481379
8	0x3dfe85b8	0.124278486
9	0x3e448391	0.19190814
10	0xbe134f79	-0.14385785
11	0x3d786dd0	0.0606516
12	0x3d83cb66	0.064352795
13	0xbe2a6c61	-0.16642906
14	0xbd3ee7d7	-0.04660782
15	0x3df3bba4	0.11901024
16	0x3cc6c604	0.024264343
17	0xbdd3227b	-0.10309311
18	0x3d743e66	0.05962982
19	0x3cb55508	0.022135273
20	0x3df33e0f	0.11877071
21	0xbdda8528	-0.10669929
22	0xbc75d4ef	-0.015004381
23	0x3d8a9309	0.06766326
24	0x3defae3b	0.11703154
25	0x3e27d6c1	0.16390516
26	0xbe52c4c7	-0.20582877
27	0xbd290f7b	-0.04127453
28	0xbddac693	-0.10682406
29	0xbd29b2c4	-0.04143025
30	0xbe2e2412	-0.17005947
31	0xbd1a2c5d	-0.037639964
32	0x3e5ffd04	0.21873862
33	0xbda59037	-0.080841474
34	0xbd5792c8	-0.052630216
35	0xbbe3a2d0	-0.006946899
36	0x3d4ce893	0.050026488
37	0x3ba2f9c6	0.004973623
38	0xbd87f551	-0.06638587
39	0x3e11b243	0.14228158
40	0x3da71d08	0.08159834
41	0xbe5008e0	-0.20315886
42	0x3dcbe745	0.099562205
43	0x3e90fe63	0.28319082
44	0x3dde6951	0.10859931
45	0xbbbea09c	-0.005817486
46	0xbdfeff34	-0.1245102
47	0x3cb58578	0.02215837
48	0xbe83402f	-0.25634906
49	0x3dc6fc6f	0.09716117
50	0xbe976299	-0.29567412
51	0xbc9a62ef	-0.018846003
52	0x3c8a0ab1	0.016850801
53	0xbe0995ea	-0.13436094
54	0x3d80606b	0.0626839
55	0xbe37d78a	-0.17953315
56	0x3e43b006	0.19110116
57	0xbdad8a8a	-0.0847369
58	0x3e1dedcf	0.15422748
59	0xbc12f399	-0.008969211
60	0x3d353efb	0.044249516
61	0x3e0a462c	0.13503331
62	0xbd5e46e8	-0.05426684
63	0x3e1d27af	0.1534717
64	0xbe2c6512	-0.1683543
65	0x3c65f355	0.014035066
66	0xbd49df53	-0.049285244
67	0x3d3e545c	0.04646717
68	0x3d9d2e6e	0.076748714
69	0xbcac21e2	-0.02101225
70	0x3da8d68d	0.08244047
71	0x3dbaf768	0.0912922
72	0x3e00ec28	0.12590086
73	0xbd598e0d	-0.053113986
74	0xbc3370f2	-0.010952221
75	0xbdaf5d24	-0.08562687
76	0xbe18b4f9	-0.14912786
77	0x3e3c6785	0.18398865
78	0xbdb830a6	-0.08993654
79	0xbe085068	-0.13311923
80	0xbb8f1faf	-0.0043677907
81	0x3d132efe	0.035933487
82	0x3e69e2ce	0.22840425
83	0xbcb7274f	-0.022357611
84	0xbdeb2a85	-0.11482719
85	0x3e16586d	0.1468217
86	0x3dbc72c6	0.09201579
87	0xbe3c617e	-0.18396565
88	0xbe1891a2	-0.14899305
89	0x3c607ee8	0.013702132
90	0xbd567e29	-0.05236641
91	0x3dd2217e	0.102602944
92	0x3d16fce4	0.03686227
93	0x3d573910	0.052544653
94	0xbcbedb8a	-0.023298044
95	0x3d0f609f	0.035004254
96	0x3ce027d6	0.027362745
97	0xbd597099	-0.053085897
98	0xbde6beab	-0.11266836
99	0x3e0683ca	0.13136211
100	0xbb7c7022	-0.0038518985
101	0xbe87cc76	-0.2652318
102	0x3e91f7a1	0.28509238
103	0x3dbdd12b	0.09268411
104	0x3e8300e2	0.2558661
105	0x3b3ecfba	0.0029115514
106	0x3c2e7e12	0.010650175
107	0x3de2b996	0.11070554
108	0xbd255ef0	-0.040373743
109	0x3e03f855	0.128877
110	0x3d3393f1	0.04384226
111	0x3e12aa0f	0.14322685
112	0xbd1dbd7b	-0.03851078
113	0xbd605299	-0.05476627
114	0xbd158eb8	-0.03651306
115	0x3dfdec6a	0.12398608
116	0x3d0ff076	0.03514143
117	0xbd5831bd	-0.05278181
118	0x3dab3f3c	0.083616704
119	0x3c9981b2	0.018738601
120	0x3d68068b	0.056646865
121	0xbd8822a0	-0.06647229
122	0x3c90fce2	0.017698709
123	0xbd664e53	-0.05622704
124	0x3d19ba84	0.03753139
125	0x3d4624f0	0.04837507
126	0xbe65cfa0	-0.22442484
127	0x3e67d37b	0.22639267
128	0xbe579624	-0.21053368
129	0xbe12d549	-0.14339174
130	0xbe6b6ce4	-0.22990757
131	0xbe535fdd	-0.20642038
132	0xbd7705a9	-0.060308132
133	0x3bc81d8d	0.0061070384
134	0xbc4ea2b2	-0.012612032
135	0x3d96372b	0.07334741
136	0x3ce143f7	0.027498228
137	0x3d8347d5	0.06410185
138	0x3d7c3444	0.061573282
139	0xbdd4a8db	-0.10383769
140	0x3dab57d3	0.083663605
141	0x3d1df6ee	0.03856557
142	0xbc34b1bd	-0.011028704
143	0xbd932c2e	-0.07186161

nrms.2.c5.bias f4 [6]
0	0x3d419d94	0.04726942
1	0xbde64881	-0.11244298
2	0x3e35f396	0.17768702
3	0xbbaf7675	-0.0053546974
4	0x3e0c1aa4	0.13682038
5	0xbe4a057f	-0.19728659
