ckpt/dark.pt (torch_old, 31374 bytes, 76 tensors)

enhance_net.iems.0.cell.c1_r.op.weight f4 [3, 3, 1, 1]
000000 c5 79 01 3e 52 29 06 be e5 c5 1a 3e c8 92 e7 bc
       0.12644108 -0.131017 0.15114553 -0.028268233
000010 5c e1 70 3e 47 3d 06 3e d5 04 82 bd 46 1d e4 be
       0.23523468 0.13109313 -0.06348578 -0.44553584
000020 e8 a5 00 3e
       0.12563288

enhance_net.iems.0.cell.c1_r.op.bias f4 [3]
000000 a9 a6 f9 be 2d ed 92 3d ba 71 13 3d
       -0.48759964 0.07174144 0.03599713

enhance_net.iems.0.cell.c2_d.op.weight f4 [3, 3, 3, 3]
000000 55 1e 25 bd ef cc 19 3e c2 12 49 3c 26 12 9c 3d
       -0.04031213 0.15019582 0.012272539 0.07620649
000010 45 37 9f 3d 80 da dd bd 88 8c 90 bd f6 d7 34 3e
       0.07774214 -0.10832691 -0.07058054 0.17660508
000020 e8 2e 38 be c7 c6 49 bc cd 64 6c bc ec 76 05 3e
       -0.17986643 -0.012315459 -0.01442833 0.13033646
000030 55 cd 8d bc c5 85 46 3d 66 6b 0f bc 35 72 d2 bd
       -0.017309824 0.048467416 -0.008753633 -0.102756895
000040 89 0a d5 bd 3b 9e b6 bd 2e bb 2a be 33 f2 f3 bd
       -0.104024 -0.08916899 -0.16672966 -0.1191143
000050 83 33 31 3d 07 aa f7 3d 28 fa 14 3c c9 54 ac bd
       0.043262016 0.12092977 0.009092845 -0.08414609
000060 67 56 a5 3d 2e 52 90 bd 4f 86 26 bd ed 72 ce bd
       0.080731206 -0.070469245 -0.04065543 -0.10080514
000070 53 8b 6c bd 9f 41 2e be 3e 4b a0 3d db 2f 92 3d
       -0.057750057 -0.1701722 0.07826851 0.07138034
000080 a1 9d 15 3d 42 af b8 3d ed 7d 9f 3d 94 61 06 3c
       0.03652728 0.09017803 0.0778769 0.008201975
000090 c1 fe 9b 3c c2 83 5f 3c 2f 2c c8 3d cc e2 fb 3d
       0.019042375 0.013642253 0.09774052 0.122991174
0000a0 02 b2 06 3e cd a4 d9 3d ef 16 38 bd b2 4c 08 bc
       0.13153842 0.106271364 -0.044943746 -0.008319067
0000b0 c3 21 19 bd 92 5d da 3d 63 aa a5 3c 51 e6 2d 3e
       -0.037385713 0.10662378 0.020222848 0.1698239
0000c0 98 61 be 3d 3a dd 20 be a6 ab 5b 3d 13 9a 34 3e
       0.09295958 -0.15709391 0.053630494 0.176369
0000d0 a5 f3 26 3e 8c 6a 3e bb ee 41 79 3d cf 67 30 be
       0.1630388 -0.0029055206 0.06085389 -0.172271
0000e0 ae da 6f bd 05 46 b7 3d 1e 57 2b be bb cc 23 3e
       -0.05855816 0.08948902 -0.16732451 0.15996067
0000f0 cd 53 f7 bd 3e c7 6d 3d 4f 42 e4 bb cd 8f 03 3d
       -0.120765306 0.05805134 -0.0069659124 0.03211956
000100 64 53 90 3c 05 ee 2f be 88 88 22 bd 04 37 ee bd
       0.017617889 -0.17180641 -0.039680988 -0.11631587
000110 87 b6 1f 3e ac 92 b9 bc 10 60 3b be a4 ad 35 3d
       0.15596972 -0.022652946 -0.18298364 0.04435505
000120 f7 01 a3 3d 49 90 a8 bd b7 db 8d bc 6c 49 a2 3d
       0.07959359 -0.08230645 -0.017316682 0.0792416
000130 f8 46 ea bd f7 fa c6 bd 45 9a 91 bc 88 22 04 be
       -0.114393175 -0.097158365 -0.017773757 -0.12903798
000140 f3 fb e6 3d
       0.11278524

enhance_net.iems.0.cell.c2_d.op.bias f4 [3]
000000 77 9c 78 3c 09 da df 3d d5 ac c8 3d
       0.015174023 0.10930259 0.0979859

enhance_net.iems.0.cell.c2_r.op.weight f4 [3, 3, 3, 3]
000000 9f f1 10 be 3d 86 ea bd 91 a8 00 be df d4 71 bd
       -0.14154671 -0.11451385 -0.12564303 -0.0590409
000010 d2 73 89 bd a1 57 f2 bc ed e7 35 be 94 d3 9e 3d
       -0.06711544 -0.0295828 -0.17764254 0.07755199
000020 fc 65 d5 3d ef 4c 6d 3d af 65 ee 3d 38 fc 0c 3e
       0.104198426 0.057934698 0.11640488 0.13768089
000030 cd dc 39 be ca a6 e1 3c cb 3b 2e 3e 83 73 08 be
       -0.18150635 0.027545352 0.17014997 -0.13325314
000040 32 bd a7 bd b0 91 20 bc 55 34 ea bd c6 5a 0e bd
       -0.08190383 -0.00980036 -0.11435763 -0.034754537
000050 e1 55 df bc dd 6e 27 3e f6 81 3e bc 0e c9 cb 3d
       -0.02726263 0.16350885 -0.011627665 0.099504575
000060 54 9e 09 3e 4b 74 a7 3d 76 92 23 be e1 f9 0c 3e
       0.13439304 0.08176478 -0.15973839 0.13767196
000070 55 31 f8 3d 2e b7 06 be 6d 06 86 bd 65 10 00 3e
       0.12118784 -0.13155815 -0.06544194 0.12506254
000080 6a bb 36 be 18 c5 24 be 22 d5 fe bd 5d 5e 6a 3d
       -0.1784493 -0.1609081 -0.124429956 0.057218898
000090 10 54 99 bd 6a 80 27 be 14 24 92 3d 98 78 be 3d
       -0.07486737 -0.1635758 0.071357876 0.09300345
0000a0 47 3f 8d 3d 51 f5 20 be 84 38 37 3e be 2d 61 bc
       0.06896835 -0.15718581 0.17892653 -0.013743816
0000b0 f2 ea 32 be 40 f1 e1 bc c7 d6 f5 3d a2 68 ad 3d
       -0.17472437 -0.027580857 0.12003856 0.08467223
0000c0 a9 6b f7 ba 00 ac 04 3e de 7a 2b be 23 8a 02 3e
       -0.001887669 0.12956238 -0.16746089 0.12748007
0000d0 6b b5 3a 3e c5 a1 e4 bd 4b 19 21 3d 1f 23 f3 bc
       0.18233268 -0.111636676 0.039330762 -0.029679833
0000e0 4e c7 1e be 4c a4 de ba ea 87 7c bd 3d b1 20 be
       -0.15505716 -0.001698622 -0.061653055 -0.15692611
0000f0 4f 15 09 be f5 aa 80 3b fc 40 2e 3e 0d a2 86 3d
       -0.13387035 0.0039266297 0.17016977 0.065738775
000100 ef 3e fa bd 32 b7 01 3e 38 ba 75 3c 53 d7 37 be
       -0.12219035 0.1266754 0.014998011 -0.17953233
000110 7d dc 0d 3c c7 4d f1 3d 11 51 dd bd ae 51 0b bc
       0.0086585255 0.11782413 -0.10806478 -0.008503361
000120 8c 6d bb bd 65 48 14 be 6a ad d5 bd 71 65 96 3c
       -0.09151754 -0.14480741 -0.10433467 0.018358918
000130 3b ef f2 3d 52 04 0c bd 7d 2b 29 be c3 41 d8 ba
       0.11862036 -0.034183808 -0.16520496 -0.0016499091
000140 09 98 23 be
       -0.15975966

enhance_net.iems.0.cell.c2_r.op.bias f4 [3]
000000 27 0e 28 3c b8 97 0b 3e 84 c2 a0 3d
       0.01025728 0.13632095 0.07849601

enhance_net.iems.0.cell.c3_d.op.weight f4 [3, 3, 3, 3]
000000 67 fa e5 bd 47 fa 25 bd 24 9a 96 3d 7f 1b 4c 3d
       -0.11229401 -0.040521886 0.07353619 0.04983091
000010 97 a0 30 be ae 3f db bd ba 02 85 bd 4f 2f 8a 3d
       -0.1724876 -0.10705505 -0.06494661 0.06747305
000020 36 02 28 3e 3b be a7 3d eb 2a 8e 3d 6d 8a 1f be
       0.16407093 0.081905805 0.0694178 -0.15580149
000030 cf 7e f3 3d cb c4 86 3d 0f d2 71 bd 41 58 b4 bd
       0.11889421 0.06580504 -0.059038218 -0.088058956
000040 13 e3 55 3d a5 dc cb bd e7 b0 98 3d 9a d0 0f 3e
       0.052218508 -0.09954194 0.074556164 0.14044419
000050 b2 21 f8 bd df 8f ea bd 2f 36 9c bd 81 fc 20 be
       -0.12115802 -0.114532225 -0.07627522 -0.15721323
000060 71 7a ac bc 10 3d ea 3d c0 c0 8c 3d 48 b4 71 bd
       -0.021054478 0.11437428 0.06872702 -0.05900982
000070 ba 88 b9 bc 49 62 a3 bd 8a a5 17 be 2e c0 4c bd
       -0.022648204 -0.07977731 -0.14809242 -0.049987964
000080 d1 86 50 3c 7a a0 be bd df d1 0c be fa cc 5b 3d
       0.012727455 -0.09307952 -0.13751934 0.053662278
000090 ea 5f e1 3c bc b5 67 bd 6f ca 4f 3d ee 35 2e 3e
       0.027511556 -0.0565698 0.050730165 0.1701276
0000a0 6e 57 2c 3c 03 7e 00 be 59 23 2e 3e f7 9a 07 3e
       0.010518892 -0.1254807 0.17005672 0.13242708
0000b0 bc 72 8d bc c5 a6 a9 bd c1 73 9e bd 33 10 24 3e
       -0.017266624 -0.08283762 -0.07736922 0.16021805
0000c0 ba 9d c4 3d f9 38 c1 bd a1 dc f2 3b cc 65 1a 3d
       0.096003965 -0.09434695 0.007411555 0.037694737
0000d0 0d f5 46 3d 30 59 29 bc ae a4 c4 bd 7e 41 b6 bb
       0.048573542 -0.010336205 -0.09601723 -0.0055620065
0000e0 86 81 4f bd f2 10 7c bd db 3d ba bd 48 3c b6 bd
       -0.050660633 -0.061539598 -0.09093829 -0.088982165
0000f0 04 1a b1 bd 50 4d 94 3d 5d ef 1e be 2b 73 32 be
       -0.0864754 0.07241309 -0.15520997 -0.17426746
000100 6a 45 21 3e 07 bc 87 3d 46 c6 d0 3d fd df a4 3d
       0.15749136 0.0662766 0.10194068 0.08050535
000110 26 cb 8e bd f2 a7 eb bd 19 d3 ff bd d8 d2 39 bc
       -0.06972341 -0.115066424 -0.124914356 -0.011341773
000120 f9 fa 3a 3d 69 07 30 be fc 4a 10 be 17 e9 d3 3d
       0.045649502 -0.17190327 -0.14091104 0.10347193
000130 ba be c1 3c bc 36 f8 3d 4b 8b 27 3e ec b4 e4 3d
       0.023650516 0.12119815 0.1636173 0.111673206
000140 2f a2 1f bd
       -0.03897303

enhance_net.iems.0.cell.c3_d.op.bias f4 [3]
000000 00 3b a7 bd 00 1c 57 3d 19 83 19 3e
       -0.0816555 0.052516937 0.14991416

enhance_net.iems.0.cell.c4.op.weight f4 [3, 3, 3, 3]
000000 dc 48 34 be 72 ed 49 3d a8 f1 10 be 47 7c 15 be
       -0.17605919 0.04929871 -0.14154685 -0.1459819
000010 30 1c 88 3d 2d 57 bf 3d 52 cc 80 3d f4 d1 5a 3d
       0.06646001 0.09342799 0.06288971 0.053422883
000020 26 23 63 bd 2e d2 90 3b 7d 11 26 be 58 53 f5 bd
       -0.055453442 0.0044195866 -0.16217609 -0.11978787
000030 e9 d8 75 3b 7d 76 2c bd 6e c5 e9 bc 76 d3 d5 3d
       0.0037513322 -0.042105187 -0.028536525 0.104407236
000040 4e 3a 8d 3d bc 52 1f bd b4 91 77 bd d9 0e 08 be
       0.06895886 -0.03889726 -0.060441688 -0.13286914
000050 40 8e c1 3d 31 2e 04 be a6 33 69 3d a8 c1 08 bd
       0.0945096 -0.12908246 0.05693402 -0.03338781
000060 79 68 12 3e d5 f2 ef bd c5 c3 f5 bd 21 26 ae 3c
       0.14297666 -0.117162384 -0.12000231 0.021258416
000070 a0 9f b6 3b 66 4e a1 bd 81 20 3c 3e 57 8e 20 be
       0.005573228 -0.078762814 0.18371774 -0.15679298
000080 97 62 cc 3d 7f cf b7 3d b1 1a 2c bd 3f c9 85 3d
       0.09979742 0.089751236 -0.042017642 0.06532525
000090 d3 73 fa bc 61 ef 0c be 14 ca f9 3d 6d a3 42 bd
       -0.030572807 -0.13763191 0.121967465 -0.047519136
0000a0 90 19 d8 bc ce e5 38 3e fe c6 36 3e 31 44 0b be
       -0.026379377 0.18056414 0.17849347 -0.13600232
0000b0 f2 48 42 bd 89 0e d5 3d 6b 29 e9 3d cd 50 09 be
       -0.047432847 0.10403163 0.11384853 -0.1340973
0000c0 f8 a0 08 be 94 d6 9d 3d bd 50 00 be b0 93 07 3e
       -0.13342655 0.07706943 -0.12530799 0.13239932
0000d0 3b d3 0f be a2 54 dc bd 27 83 92 3d e1 56 ce 3d
       -0.14045422 -0.1075833 0.071539216 0.100751646
0000e0 af 1a 84 bd 52 ab d9 bd 3b 30 90 3d 84 a2 72 3d
       -0.06450402 -0.1062838 0.07040449 0.05923702
0000f0 7f f5 40 3d 17 59 2d be c0 9b 62 bd 95 d2 89 bd
       0.047109123 -0.16928516 -0.055324316 -0.067296185
000100 e4 4b 02 3b 97 a4 28 3e 45 74 08 be b5 c8 1a bb
       0.001988166 0.16469036 -0.13325603 -0.0023618166
000110 d0 98 90 3d b3 cd d3 3d a1 32 3a be 95 6e fc 3b
       0.07060397 0.103419684 -0.18183376 0.007703612
000120 90 35 14 3e 14 48 f5 bd e0 05 ea 3d f6 41 d6 bc
       0.14473557 -0.119766384 0.11426902 -0.0261545
000130 54 4b 29 3e 6b 8e 21 be 43 04 04 3d 28 79 08 3e
       0.16532642 -0.15776984 0.032230627 0.13327467
000140 22 1a 08 3e
       0.13291219

enhance_net.iems.0.cell.c4.op.bias f4 [3]
000000 84 15 bc bd c8 90 19 be b7 77 86 3b
       -0.09183791 -0.14996636 0.0041036266

enhance_net.iems.0.cell.c5.weight f4 [3, 12, 1, 1]
000000 b7 f1 07 be 98 5d 32 3e e5 e6 11 be d8 bb ee 3c
       -0.132758 0.17418516 -0.14248236 0.029142305
000010 a1 cd 74 be 30 5a c9 b9 ec 4e 77 3e fb e2 15 3e
       -0.23906566 -0.00038404902 0.241512 0.14637367
000020 4d c0 ee 3d a5 c1 25 be 66 06 71 3e b7 89 0c be
       0.11657772 -0.16187151 0.23537597 -0.13724409
000030 db 4d 81 3e b3 b9 69 be 00 04 0c be cd f1 ac bd
       0.25254712 -0.22824745 -0.13673401 -0.08444557
000040 7c b8 2e 3d 09 5a 18 3e c2 4e 71 3d d1 f5 d3 bd
       0.042656407 0.14878096 0.058913 -0.1034962
000050 ba bc 60 be 76 f2 a4 bd 3c df 05 be 1f 5e 2a be
       -0.21946993 -0.08054058 -0.13073438 -0.16637467
000060 b2 f4 2e 3e 9a 4b 1d 3d 1a d9 17 be e7 08 06 3e
       0.17085531 0.038402177 -0.14828911 0.13089333
000070 73 90 3e be 54 23 26 be 8e 71 da bc 25 fc 38 3e
       -0.1860979 -0.16224414 -0.026665475 0.18064936
000080 a9 2d 10 3e 77 58 3e be 69 35 47 be b0 a1 bd 3d
       0.14079918 -0.18588434 -0.19453968 0.09259355

enhance_net.iems.0.cell.c5.bias f4 [3]
000000 9a 89 96 bc 87 40 d9 3c 8e 6f 07 3c
       -0.01837616 0.026520027 0.008266343

enhance_net.iems.1.cell.c1_r.op.weight f4 [3, 3, 1, 1]
000000 96 2c ca be 0c 7d bc bd 1e c6 33 be b8 12 bb bd
       -0.3948714 -0.09203538 -0.17556044 -0.0913443
000010 fe 2f b3 3e 97 2f 03 bf 5d 90 3a 3d e5 03 09 3f
       0.34997553 -0.5124449 0.04554783 0.5352157
000020 6c 22 fe be
       -0.49635637

enhance_net.iems.1.cell.c1_r.op.bias f4 [3]
000000 6b de 47 3e ff 7b 0f 3f 43 56 9c 3e
       0.1951844 0.5604858 0.30534562

enhance_net.iems.1.cell.c2_d.op.weight f4 [3, 3, 3, 3]
000000 de de c1 3d f0 a4 93 bd 90 53 95 3d 54 88 8d 3c
       0.09466337 -0.07209194 0.07291329 0.01727692
000010 40 57 33 3e c0 ce 37 be bf e3 bc 3d 27 37 e7 bd
       0.17513752 -0.17949963 0.092231266 -0.11289816
000020 a9 65 2a be c0 d5 28 3e 9f 92 06 3d fc db d9 bd
       -0.16640343 0.16487789 0.032854673 -0.10637662
000030 a1 01 37 be 25 bb 23 bd 8e 16 39 bd 6a 61 9a bc
       -0.17871715 -0.039973397 -0.045187525 -0.018845279
000040 48 b1 63 bd b6 99 40 3d 51 5f f3 3d e0 39 1a be
       -0.05558899 0.04702159 0.118834145 -0.1506114
000050 2a 91 95 bd 9b be 1a 3e f8 ae 35 be 33 32 13 3e
       -0.073030785 0.15111773 -0.17742527 0.14374618
000060 1e 5b 23 bd 7f 9a 4f 3d 79 b0 c5 bd 76 d5 bf 3d
       -0.039881818 0.05068445 -0.096528 0.09366886
000070 26 cd f6 3c ce 61 1e bd 1f b2 37 3e 36 c4 21 be
       0.03012712 -0.038667493 0.17939042 -0.15797505
000080 3e 39 29 3e 55 a6 04 3e ef 5c b3 bc 34 ff 4e bd
       0.16525742 0.12954076 -0.0218949 -0.05053635
000090 f4 6d 22 3e 40 3b b2 3d ba 8a 1a be be 67 05 be
       0.15862256 0.08702707 -0.15091982 -0.13027856
0000a0 0c e4 29 be d3 30 85 bd ca 14 9e bc 2a 14 a2 3d
       -0.16590899 -0.06503453 -0.019297022 0.07914002
0000b0 d5 45 f5 3d e2 0b 1d be 09 79 da 3d d3 92 98 3d
       0.1197621 -0.15336564 0.10667617 0.074498795
0000c0 87 fb 91 3d bf 6a 1e be 9b b4 e5 bd 5a 02 51 bc
       0.07128053 -0.15470408 -0.112160884 -0.012756908
0000d0 85 cf ca 3d f6 b1 08 bd 98 13 6a bd f0 34 7c 3c
       0.099028625 -0.03337284 -0.057147592 0.015393481
0000e0 bb f3 61 3c e1 e0 c2 bc 9f 99 3f 3c fd 2f c6 bd
       0.01379102 -0.023788871 0.011694341 -0.09677122
0000f0 9e a4 1c 3e aa ff f1 3b b5 ac b7 3d 20 00 1c be
       0.15297171 0.007385214 0.08968488 -0.15234423
000100 e9 b4 6d bd 41 6f 7f 3d 1b 86 f8 bd e8 d5 67 3b
       -0.058033857 0.06236196 -0.121349536 0.00353753
000110 cd 35 cf bd 05 f2 70 bd 8a 67 92 3b 40 2f 16 be
       -0.101176836 -0.058824558 0.004467909 -0.14666462
000120 44 fb 6e 3d e9 20 eb 3d 9e 55 25 be dd 84 54 bc
       0.058345094 0.114808865 -0.16145942 -0.01297113
000130 92 6c 38 bd 03 ac 2b be c5 1a 26 bd 10 13 15 3e
       -0.045025416 -0.16764836 -0.040552873 0.14558053
000140 c1 c9 ac 3c
       0.021092298

enhance_net.iems.1.cell.c2_d.op.bias f4 [3]
000000 77 c1 6a bc 1d 1d 3d 3e ed fa 5f 3d
       -0.014328352 0.18468137 0.05468266

enhance_net.iems.1.cell.c2_r.op.weight f4 [3, 3, 3, 3]
000000 92 ff 10 3e 4a 41 15 be 02 e3 c7 3d 79 41 11 3e
       0.14159992 -0.14575687 0.09760095 0.14185132
000010 54 fd ab 3d ef 30 e1 bc 05 df 2a 3e 90 9a b9 bd
       0.08397928 -0.027489154 0.16686638 -0.090626836
000020 04 3f 86 3d 6b 63 3a be b0 0d 0d be f0 2e 2d be
       0.06554988 -0.18201987 -0.13774753 -0.16912436
000030 ce 8d 10 be 0d 8b 94 bd b0 14 24 be 63 57 00 be
       -0.14116594 -0.07253084 -0.16023517 -0.12533335
000040 f3 66 c0 bd 31 b6 ac 3d f4 44 2f 3e d7 be c2 3d
       -0.09394636 0.08433188 0.17116147 0.09509056
000050 37 62 a3 bd c2 39 dc bd a1 1b c5 3d 2e 1e e2 bd
       -0.07977717 -0.10753204 0.096244104 -0.110409126
000060 9c cd 19 be 63 ef 92 bd 95 05 2f 3e f7 32 1c 3e
       -0.1501984 -0.07174566 0.17091973 0.15253817
000070 1c 57 1d be e5 da 36 3e 9d 0f c3 bd 1e 13 9d bd
       -0.15365261 0.17856939 -0.09524462 -0.07669662
000080 b4 a0 2b be cc a5 20 3e 93 fa 16 3e ed 81 34 3e
       -0.16760522 0.15688246 0.14744024 0.17627688
000090 f5 17 6f 3d 53 e6 8f bd 2e f5 dd 3d 59 47 30 bd
       0.058372457 -0.07026353 0.1083778 -0.043036792
0000a0 b1 93 2d be c4 c8 c6 bd a4 15 e0 3d 0a 3c 26 be
       -0.16950871 -0.09706262 0.109416276 -0.1623384
0000b0 f4 60 37 be 6c e6 2c 3e dd fa 18 be 3d 2a 27 3d
       -0.17908078 0.16884774 -0.14939447 0.040811766
0000c0 b7 31 39 3e 15 06 4c 3d 3b 08 a5 bc a9 e2 91 3d
       0.18085371 0.049810488 -0.020145526 0.0712331
0000d0 75 9d 39 3e 29 51 03 be e8 ba b2 3d 7b 7d 98 bd
       0.18126471 -0.12823929 0.08727056 -0.074458085
0000e0 b7 a9 f0 bd 8a db 56 bc eb d5 e5 3d 80 ad 1b be
       -0.117511205 -0.013113866 0.11222442 -0.15202904
0000f0 6e eb 38 bd dc 35 47 bd c8 e6 d2 3d e0 25 89 3d
       -0.0451464 -0.04863535 0.10297924 0.06696677
000100 ac 8e ba 3d da 55 10 3e 51 b1 c5 3d fa ee 9c bd
       0.09109244 0.1409525 0.09652961 -0.07662769
000110 73 5c a6 3c c5 a8 0b 3e c6 53 e1 3d 4c 57 06 be
       0.020307755 0.13638599 0.11002307 -0.13119239
000120 1a 05 ae ba 35 3c 9b 3d a8 4c 7b 3d d8 d6 99 bb
       -0.0013276667 0.07579843 0.061352402 -0.004694801
000130 26 11 92 bc 03 c4 94 3d 7f ec a2 bd 99 64 ea 3d
       -0.017830443 0.07263949 -0.07955264 0.11444969
000140 46 5e 12 be
       -0.14293775

enhance_net.iems.1.cell.c2_r.op.bias f4 [3]
000000 d8 7b 22 be 36 4e d6 3c 71 97 ef 3c
       -0.15867555 0.02616034 0.029247018

enhance_net.iems.1.cell.c3_d.op.weight f4 [3, 3, 3, 3]
000000 3d a4 6b 3d 22 e3 f0 bd e0 a5 4f 3d ca bc 1d be
       0.057529677 -0.11762072 0.0506953 -0.15404049
000010 fe 49 b7 3d 36 6f ed 3d d4 69 b5 bd 1a 48 02 3d
       0.0894966 0.115934774 -0.08858076 0.031807043
000020 91 5a ed 3d 70 65 e5 bc 03 91 92 3d f6 a1 ed bd
       0.1158954 -0.02800247 0.07156565 -0.11603157
000030 cd 4d 3f 3d 35 0f 64 3d 14 6e 05 3d 8a 54 f6 bd
       0.046705056 0.055678565 0.03257568 -0.12027843
000040 cb 22 c0 3b 2e ca f0 3d ed bb 0e be 50 46 59 3d
       0.0058635226 0.11757313 -0.13938875 0.05304557
000050 a1 32 a4 bd 6b 8a b2 bd 39 9e f4 bd 40 6a b8 3d
       -0.08017469 -0.087178074 -0.11944241 0.090046406
000060 ca e9 07 3e 93 44 1f be 9c f6 12 3e 34 76 d7 3d
       0.13272777 -0.15553503 0.14351887 0.10520592
000070 e3 eb 1e 3d ad 0f 05 3e 91 73 20 3d fc 3e fa 3c
       0.038799178 0.12994261 0.039172713 0.030547611
000080 ee d2 f9 3d 51 31 66 bc 81 f8 01 3e 71 e1 6f bc
       0.12198435 -0.014049844 0.12692453 -0.014641152
000090 15 a4 20 3e 88 38 62 3c 32 a7 8c bd ee b6 f6 bc
       0.15687592 0.013807423 -0.068678275 -0.030116525
0000a0 92 1e 28 be 3e b7 b7 bd 24 7e da 3c d3 a0 2c be
       -0.16417912 -0.089704975 0.026671477 -0.16858225
0000b0 ec 97 1b be e8 fa 31 3d 2c 2b 55 3d 21 6a 9b bd
       -0.15194672 0.043452173 0.052043125 -0.07588602
0000c0 98 ff 2e 3e 71 da 85 bd 2e dc df bd fc fa 08 3d
       0.17089689 -0.06535805 -0.10930668 0.033442482
0000d0 c8 8c aa 3d f8 96 c3 bd 3e 28 3a 3d cf df 49 3d
       0.08327633 -0.095502794 0.045448534 0.049285706
0000e0 65 c3 9d 3d 1b a4 f2 3c 23 c2 34 be 90 95 2f be
       0.07703284 0.029619267 -0.17652182 -0.17146897
0000f0 77 6d 1c 3e 4c a5 ca 3d 84 20 31 3e ce 7a c7 3d
       0.15276133 0.09894809 0.1729756 0.0974022
000100 df 06 4a 3d 42 f7 4d bd 88 71 88 3d b6 e7 9e 3d
       0.04932296 -0.05028463 0.06662279 0.07759039
000110 67 bb ed bd 58 4f 5d bb 77 a0 39 be 3f d5 aa 3d
       -0.1160801 -0.0033769216 -0.18127619 0.08341455
000120 f7 0c f3 bc ef a0 0b be 38 4e da 3d 9c 1f 46 bd
       -0.029669268 -0.1363561 0.1065945 -0.04836999
000130 f2 98 01 be fa 33 9c bc 15 6d e2 bd d8 f0 9d 3c
       -0.12656 -0.019067753 -0.11055962 0.019279882
000140 50 38 84 3d
       0.06456053

enhance_net.iems.1.cell.c3_d.op.bias f4 [3]
000000 8c f2 17 3c 40 38 90 3b 5b de fb bc
       0.009274136 0.004401237 -0.030745676

enhance_net.iems.1.cell.c4.op.weight f4 [3, 3, 3, 3]
000000 c1 4c 06 3e 03 1d 19 3e 89 67 3b 3b 2b 69 1d be
       0.13115217 0.14952473 0.0028595647 -0.1537215
000010 ac 88 b0 3d f3 11 93 3d 17 a9 af 3d 36 21 8b bd
       0.08619818 0.07181158 0.08577173 -0.06793444
000020 d1 3a 9f 3d da 00 15 3e 01 9c 04 3e 52 69 0e be
       0.0777489 0.14551106 0.12950136 -0.13907364
000030 59 16 e1 3c 22 83 17 be 38 2f 18 be 25 d4 f3 bd
       0.027476477 -0.14796117 -0.14861763 -0.11905698
000040 83 ab a5 3d 19 af 03 3e 3b f6 ff bd 56 f3 db bc
       0.08089354 0.12859763 -0.124981366 -0.02684943
000050 04 cf 88 3d e5 13 d9 3d 57 eb bc 3d ad 31 07 3e
       0.0668011 0.10599498 0.09224575 0.13202544
000060 f6 55 e8 3d ba ac f2 bd 74 b9 a4 3d 51 00 e8 3c
       0.11344521 -0.11849351 0.08043185 0.028320463
000070 6a 68 1d be 4a 8a f1 3d ab 51 e2 3d 61 f6 fa bd
       -0.15371862 0.11793955 0.11050733 -0.12254024
000080 1b 22 05 bc d0 e5 b9 3d 6e 1f 43 3d a0 95 33 3e
       -0.008125807 0.090770364 0.047637396 0.17537546
000090 0a 07 26 be 32 ab 22 bd b8 12 48 be 05 b3 28 3e
       -0.16213623 -0.039714046 -0.1953839 0.1647454
0000a0 d6 46 ef bd 8e 8c 9c 3d 3b 94 c7 3d d5 6c 8b bd
       -0.11683433 0.07643996 0.097450696 -0.068078674
0000b0 c8 de 00 be 57 cd 01 3e df 2f 21 3e 11 76 25 bd
       -0.12584984 0.12675987 0.15740918 -0.0403958
0000c0 91 92 3f bd d8 c0 0a 3e dd b9 2f bb 92 d9 ff bd
       -0.046770636 0.13550127 -0.0026813664 -0.1249267
0000d0 a2 28 ad 3d ad 2a 43 be 3f 9f 08 3d 67 9e 07 be
       0.08455016 -0.19059248 0.033354994 -0.1324402
0000e0 65 51 d9 bb bc d0 81 bd 94 d7 a1 bd b7 0b 98 bd
       -0.0066320174 -0.06338641 -0.079024464 -0.074241094
0000f0 ad c8 44 3d 52 b9 4b 3d 6d 57 1a be ce 13 34 3e
       0.04804294 0.049737282 -0.15072413 0.1758568
000100 46 f0 ec 3d 26 72 15 be 6c 10 31 3e bc 21 09 bd
       0.11569266 -0.14594325 0.1729142 -0.033479437
000110 95 6b f2 bd c2 44 a2 3d 40 8d 17 3d f0 ca 9b bd
       -0.11836926 0.07923271 0.03699994 -0.07607067
000120 4d 79 78 3d 6a 14 80 3d 87 77 96 3d b4 e2 ef bd
       0.060662556 0.06253894 0.07347017 -0.11713162
000130 25 ac 25 be e4 a8 df bc 19 15 32 be df 94 15 3d
       -0.16178949 -0.027302213 -0.1739086 0.036518928
000140 fb 5b 38 be
       -0.18003838

enhance_net.iems.1.cell.c4.op.bias f4 [3]
000000 d4 b1 f7 bc bd cd 08 3e d0 96 fd bd
       -0.030236162 0.13359733 -0.12382281

enhance_net.iems.1.cell.c5.weight f4 [3, 12, 1, 1]
000000 ed ce 3e bd eb bf 03 3e ce 95 45 be 3e f9 6f be
       -0.04658406 0.1286618 -0.19295427 -0.23434922
000010 45 1e 28 bd eb 0c ab 3d 32 8d 91 3d 89 ed 24 be
       -0.041044492 0.08352073 0.07107009 -0.16106237
000020 12 d8 8e bd 05 73 cf bc ed e1 7a be e9 e2 9b 3b
       -0.06974806 -0.0253234 -0.24500246 0.0047572744
000030 78 fc 9d bb 86 d8 4b be 98 4f f6 bd d3 db 64 3e
       -0.0048213564 -0.19906816 -0.120269 0.22349481
000040 1f 9b 2d 3e 42 ab 45 be 35 fb d0 3d 5a 71 8c be
       0.16953705 -0.19303611 0.10204164 -0.2743023
000050 94 a3 26 be 65 b1 a3 3d b2 e1 1c bc f8 16 3a be
       -0.16273338 0.0799282 -0.009575294 -0.18172824
000060 4e e2 57 3d 17 ab 84 3d 49 b8 5e 3e b4 be 47 bd
       0.052706055 0.06477945 0.21749987 -0.048765853
000070 23 95 94 3e d1 03 40 3e 58 86 e2 bd f7 d8 54 3e
       0.29020032 0.18751456 -0.1106078 0.2078589
000080 bd b7 12 be c1 1f 99 3d de 8d e5 3d 9f 92 15 3c
       -0.14327903 0.0747676 0.112087 0.0091291955

enhance_net.iems.1.cell.c5.bias f4 [3]
000000 26 d5 20 3e 50 7f 36 3e 3d eb 4f be
       0.1570631 0.17822003 -0.2030458

enhance_net.iems.2.cell.c1_r.op.weight f4 [3, 3, 1, 1]
000000 6d c6 84 3e f1 8c 41 3e 28 74 96 be fa e6 c1 3e
       0.25932637 0.18901421 -0.29385495 0.37871534
000010 5c 41 72 3d 12 76 d3 be 22 79 ea 3e 7c 87 39 3e
       0.059144363 -0.41301018 0.45795542 0.1811809
000020 6c aa 94 3e
       0.29036272

enhance_net.iems.2.cell.c1_r.op.bias f4 [3]
000000 f3 6b d1 3d 6a cb 0f 3e 51 2e 4a 3d
       0.10225668 0.1404244 0.049360577

enhance_net.iems.2.cell.c2_d.op.weight f4 [3, 3, 3, 3]
000000 ad cd 05 3e 38 db b8 3d 1c 07 8f 3c 2e 85 cf bc
       0.1306674 0.09026188 0.017459445 -0.02533206
000010 96 ab 16 be e2 7c 13 3d 84 96 17 be 9d 38 4b 3d
       -0.14713892 0.03600777 -0.14803511 0.049614538
000020 38 d5 c6 3d 5f 4a 83 bd ae 7d 29 bd 07 58 13 be
       0.09708637 -0.064106695 -0.041379623 -0.14389049
000030 78 ea 9d bd f7 a5 09 be fd e5 9f bd c0 59 c3 3d
       -0.07710737 -0.13442217 -0.07807539 0.09538603
000040 a8 5b be bd b3 62 a5 bd 82 9f c5 bd fb 0b c4 bd
       -0.09294826 -0.08075466 -0.09649564 -0.095725976
000050 37 9d 94 3d 32 b6 75 3d 1e 25 e3 3d 48 0e 71 bb
       0.07256549 0.059988208 0.11091064 -0.0036782194
000060 a9 5a 66 3d fe 5e c2 bc dc f9 32 bd 7b 69 2a be
       0.056238804 -0.023726936 -0.043695316 -0.166418
000070 0b a3 2f be c7 1c 13 bd a2 84 a7 bd 68 85 83 be
       -0.1715204 -0.035916116 -0.081795946 -0.25687718
000080 43 b2 42 bd c0 09 27 be b1 84 62 3c f6 98 da 3b
       -0.047533285 -0.16312313 0.013825581 0.0066710664
000090 7a c3 29 bd 4b 06 80 bc 3c 37 8b bd 7d 3a 16 bd
       -0.041446187 -0.015628 -0.067976445 -0.036676873
0000a0 a3 8b ec bd b4 69 df bd 83 93 68 bd da 6b 9a bc
       -0.11550071 -0.10908833 -0.056781303 -0.018850256
0000b0 d4 18 07 be 22 0c 65 3d 03 62 5e bd 15 6c 8c 3d
       -0.13193065 0.055919774 -0.05429269 0.068565525
0000c0 2f f6 80 3d 77 46 62 be e7 03 30 be c4 90 8f 3d
       0.06296956 -0.22097193 -0.17188989 0.07010034
0000d0 dd 0f 78 be 03 da 31 3d e2 99 41 be e6 2c 73 3d
       -0.24224801 0.043420803 -0.18906358 0.05936899
0000e0 42 ce 10 bd 78 43 69 3c 8e 6e b3 3d 4b ef d7 3d
       -0.035352953 0.014237277 0.08761321 0.105436884
0000f0 f6 85 8d bd 73 5c f7 bd 3c 71 94 3c 4c 73 29 bd
       -0.06910317 -0.1207818 0.0181204 -0.04136972
000100 59 20 47 be 88 c4 55 be d3 ff 23 be 10 f1 81 3d
       -0.19445933 -0.20875752 -0.16015558 0.06344807
000110 b0 c9 2a bd 48 86 aa bb 12 09 0f be 9e 24 f3 bd
       -0.04169625 -0.005203996 -0.13968304 -0.118722185
000120 6e 1f 9a 3c df 9a a9 3d b5 00 03 be 04 52 22 be
       0.018813815 0.082814924 -0.12793238 -0.15851599
000130 d5 fd 43 bd e8 97 77 bd fd 06 af bd 7f 1f 6e be
       -0.047849495 -0.060447603 -0.08546255 -0.23254202
000140 54 56 f9 3d
       0.12174669

enhance_net.iems.2.cell.c2_d.op.bias f4 [3]
000000 0f e2 96 bd 78 38 54 bd 95 d3 56 be
       -0.07367336 -0.051811665 -0.2097915

enhance_net.iems.2.cell.c2_r.op.weight f4 [3, 3, 3, 3]
000000 28 48 26 be 98 73 d9 3d 02 ef 02 be c0 38 0b bc
       -0.16238463 0.10617751 -0.12786487 -0.008497417
000010 1d c6 1f bc 73 55 f1 3c e2 53 18 be d4 a8 a2 3d
       -0.009751824 0.02945969 -0.14875749 0.07942358
000020 33 c0 12 bc 56 67 53 3d 58 a2 05 3e 58 56 ea bd
       -0.008956957 0.05161222 0.1305021 -0.1144225
000030 8c c1 10 3c 35 e5 49 3d d6 95 78 bd b8 6e e8 3d
       0.008835208 0.049290854 -0.06068977 0.11349243
000040 f0 e6 09 3e 86 2c b4 bd a6 8d 24 bd 20 3c 8f 3d
       0.13467002 -0.08797555 -0.04017415 0.0699389
000050 b2 8b 78 bd d1 78 40 be 32 52 2c 3e 47 5f e3 bb
       -0.0606801 -0.18796088 0.1682823 -0.006938848
000060 39 8d e7 3d 34 13 62 3d d7 4f 6b bc 30 b1 e3 bd
       0.11306233 0.055194095 -0.014362297 -0.1111778
000070 10 4f 22 3d 37 a9 b1 bd bc 1f ec 3c 32 fd 38 be
       0.03962618 -0.08674853 0.028823726 -0.18065336
000080 56 5b be bc c8 4e fe bc 0e 77 e9 bd 54 43 ed bd
       -0.023236912 -0.031043425 -0.11399661 -0.115851074
000090 f8 46 95 bd 9c 19 8e bd 41 24 c7 3d 35 48 86 3d
       -0.07288927 -0.06938478 0.09723712 0.06556741
0000a0 e3 36 0c be f1 a7 80 bd 2d 7f 36 3e 2b 8c 0a be
       -0.13692813 -0.06282032 0.17821951 -0.13530032
0000b0 60 77 1e bc af 6a 91 3d c5 75 21 be 1a 00 15 be
       -0.009672016 0.071004264 -0.15767582 -0.1455082
0000c0 15 6e 8b 3d bf bc ce bd fc bb 24 3e 90 61 0c 3e
       0.06808106 -0.10094594 0.16087335 0.13709092
0000d0 3a d8 20 3e 3d 10 e0 bd 6b 52 7b bd e8 e9 c4 3d
       0.15707484 -0.10940597 -0.061357897 0.096149266
0000e0 59 2d 13 be 01 e6 c2 3b 7a 32 ed 3d 37 ad 16 3d
       -0.14372768 0.0059478288 0.11581893 0.036786284
0000f0 1b 9c a2 3d df 00 a4 bd f5 6c 6c bb 43 e1 f6 bd
       0.07939931 -0.08007979 -0.0036075686 -0.12054684
000100 42 9f 48 3d 86 c1 f9 bb f2 70 df 3d 30 62 8e bd
       0.048980005 -0.0076219467 0.109102145 -0.069523215
000110 ae 51 fd bd 69 87 0e 3e b4 7a 0e 3e a1 40 88 3d
       -0.12369095 0.13918842 0.13913995 0.06652952
000120 b3 49 f7 bd c0 b7 0c be 58 79 79 bd 78 d7 39 be
       -0.12074604 -0.1374197 -0.060906738 -0.18148601
000130 55 7f 81 bc 49 e6 99 3d 9f 5d 0d 3e 1f 43 98 bd
       -0.015807787 0.075146265 0.13805245 -0.07434677
000140 73 b2 23 be
       -0.15986042

enhance_net.iems.2.cell.c2_r.op.bias f4 [3]
000000 a7 00 0b be 2e 4d 2d 3d ef 87 2e 3e
       -0.13574468 0.042309932 0.17044042

enhance_net.iems.2.cell.c3_d.op.weight f4 [3, 3, 3, 3]
000000 2b b1 91 bd 8d 95 a3 3d 32 fa 96 bd 99 31 f3 bd
       -0.0711387 0.07987509 -0.0737194 -0.118746944
000010 e3 ab 8d 3c 79 77 8c bd 7f 34 7b bd 91 1b 21 3e
       0.017293876 -0.06858725 -0.06132936 0.15733172
000020 11 17 d6 bd 24 0f 41 be 09 ea 13 3e e8 cd 07 bd
       -0.10453618 -0.18853432 0.14444746 -0.033155352
000030 b8 54 aa bc 3f 1f 9d bd 53 e8 9e bd 6b 16 eb bd
       -0.02079235 -0.07671975 -0.07759156 -0.11478885
000040 f5 b3 92 bb 2e 39 92 bd 7f 74 e9 3d 35 7e be bd
       -0.004477019 -0.071398124 0.11399173 -0.09301416
000050 4d 46 da bb 38 59 df bd 13 89 25 bb a8 8d 19 bd
       -0.0066612125 -0.10905689 -0.0025258705 -0.03748861
000060 50 b6 a5 3b 16 8c ea bd 96 d8 2f bd ba e0 ea bc
       0.0050571337 -0.114525005 -0.04293116 -0.028671611
000070 a3 a9 a3 3d c2 25 23 bd 2d 42 9b 3d a5 49 0d 3e
       0.0799134 -0.03983093 0.075809814 0.13797624
000080 7c 87 24 be 1a f6 f6 bc 9b 5b 89 bd 43 1c f3 3d
       -0.16067308 -0.030146647 -0.067069255 0.11870625
000090 ff 5f b0 bd 27 7e ca 3c 16 55 28 be c8 a9 41 be
       -0.0861206 0.024718357 -0.16438708 -0.18912423
0000a0 69 65 f5 3d 17 bc 3c be 61 eb 1c 3d 8d 94 63 3d
       0.11982233 -0.18431126 0.038310412 0.05556159
0000b0 8b 9a 15 3c de 33 a3 bd 8a 50 a5 bd 7f ff 02 be
       0.009131084 -0.07968877 -0.08072002 -0.12792777
0000c0 0f e3 15 be e6 0b 8e bd 75 df b2 3d 22 a8 e3 bd
       -0.14637397 -0.06935863 0.08734027 -0.11116053
0000d0 a6 18 0a bc a6 e4 ac bd 71 93 31 bd 45 4e d6 3d
       -0.008428728 -0.08442049 -0.0433535 0.104641475
0000e0 ec 85 fb bc b0 f0 29 be 3c c3 19 be ec 1a 90 bd
       -0.030703507 -0.16595721 -0.15015882 -0.07036385
0000f0 4b 77 f5 3d 38 92 8f bd ee e6 16 be d1 1c 72 bd
       0.11985644 -0.07010311 -0.1473653 -0.059109513
000100 0a b8 0d bd d9 f0 11 3e 44 e0 0f 3c 57 b1 ab b9
       -0.03459934 0.14252032 0.008781496 -0.0003274779
000110 28 65 14 be 78 86 a3 bd 3b aa 01 bd 11 14 2d 3c
       -0.14491713 -0.07984632 -0.031656485 0.010563866
000120 01 b3 af 3c 57 3c 08 3d 47 8e c7 bc d6 e2 ab bc
       0.02144766 0.03326067 -0.024359835 -0.020982187
000130 33 c3 01 3d e8 6a 19 3e e7 fe a2 bd 1d 2c 09 3e
       0.031680297 0.14982188 -0.07958775 0.13395734
000140 bf 6b 35 be
       -0.17716883

enhance_net.iems.2.cell.c3_d.op.bias f4 [3]
000000 e2 70 e6 3c 60 0b d9 bd d8 56 64 be
       0.028129999 -0.10597873 -0.22298753

enhance_net.iems.2.cell.c4.op.weight f4 [3, 3, 3, 3]
000000 07 88 3b 3c ad 70 a3 3c f4 4c 8f bd 7b 5b 86 bd
       0.011446006 0.019951189 -0.069970995 -0.06560417
000010 da 03 92 3c 95 19 98 3d fd 17 0e be e8 06 9a bd
       0.017824102 0.074267544 -0.13876338 -0.075208485
000020 94 5c c3 bc f3 9a 06 3e 68 98 c5 3d 42 46 d9 bd
       -0.023847856 0.13145046 0.0964821 -0.10609104
000030 82 7d b6 bb 6e 03 c2 bc 86 aa 45 be ff 19 98 3c
       -0.005569161 -0.023683276 -0.19303331 0.018567083
000040 c2 3e d9 3d 6e bd 0f 3e 31 6e 7f b8 36 b1 7d 3c
       0.10607673 0.14037105 -6.089936e-05 0.015484145
000050 29 7a 1a 3d f7 84 c0 3d 8a 71 d4 3c 97 39 f2 3d
       0.037714157 0.09400361 0.025933046 0.11827391
000060 ba 34 02 3e 05 84 d5 3c 79 01 22 be 71 b6 04 be
       0.12715426 0.026063928 -0.15820874 -0.12960221
000070 27 9b 5a 3d a5 93 e1 bd 67 52 06 bd b2 eb 0a be
       0.05337062 -0.11014489 -0.03279343 -0.13566473
000080 98 dc 8a bd e4 1d 0d 3e 56 e2 da bd 33 40 36 bc
       -0.06780356 0.13780934 -0.106877014 -0.011123705
000090 0d d6 e5 bd 8f e3 08 be 79 60 c7 bd 15 0d fc bd
       -0.112224676 -0.13368057 -0.097351976 -0.12307183
0000a0 d9 7d e7 bd 06 8c 48 bd 00 a6 89 3d 18 37 49 3c
       -0.113033004 -0.04896166 0.06721115 0.012281202
0000b0 ba 70 e7 3d bd 64 ad 3d f9 18 22 3d 1a 4e 31 bb
       0.11300798 0.0846648 0.039574597 -0.0027054609
0000c0 d2 43 b3 bd 72 1a 90 3d 34 25 24 3d 17 b1 35 be
       -0.0875317 0.07036294 0.040074542 -0.17743336
0000d0 da 16 90 3d c9 f8 33 be 99 ef aa 3d 00 6a f4 3d
       0.070356086 -0.17575373 0.08346481 0.119342804
0000e0 76 9f 2c 3d c8 35 46 be b4 12 3a bc 2e 90 12 bc
       0.04214426 -0.19356453 -0.011356998 -0.008945508
0000f0 a0 fb a3 3c e0 37 28 bd 28 80 3a be 55 90 ab bd
       0.020017445 -0.04106891 -0.1821295 -0.083771385
000100 52 5c 11 bd ca fd 6e 3c b4 f6 18 3e c7 fa 95 bd
       -0.035488434 0.014586875 0.1493786 -0.073232226
000110 8b 8e ba bd e1 b6 bd 3c c7 e5 31 be a6 71 a1 3d
       -0.09109219 0.023158493 -0.1737281 0.07883005
000120 fb 37 eb bd 76 4a 28 be 3e 6d 58 be 93 0d b7 3d
       -0.11485287 -0.16434655 -0.21135423 0.08938136
000130 cd 74 bc 3d fe ac 78 3c c1 06 bc bd 63 be cf 3d
       0.092019655 0.015177963 -0.09180976 0.10143735
000140 71 57 91 bd
       -0.07096756

enhance_net.iems.2.cell.c4.op.bias f4 [3]
000000 91 b8 fd bc ce 1c 8b bd ab 4f f8 3d
       -0.030971797 -0.067926034 0.121245705

enhance_net.iems.2.cell.c5.weight f4 [3, 12, 1, 1]
000000 3d 58 97 ba 35 c5 31 bb a1 65 e6 39 a6 29 9b 39
       -0.0011546683 -0.0027125601 0.00043944738 0.00029594934
000010 c8 36 30 3a 90 33 64 b9 59 49 38 bd 90 f4 ca 3d
       0.000672203 -0.00021762983 -0.044991825 0.09909928
000020 46 91 e2 3d ad 18 d0 b9 6a 8c 8b bd b4 73 70 bb
       0.11062865 -0.00039691236 -0.06813891 -0.0036690058
000030 cf 85 3f 3a 88 37 92 bb 3f 62 9b 3b c6 b4 d3 3a
       0.0007306011 -0.0044621862 0.0047419365 0.0016151897
000040 bd d8 55 3c 5c 4d 91 ba 41 cf d0 bd fd 68 59 3e
       0.013052163 -0.0011085677 -0.101957805 0.21231456
000050 c3 16 0e 3e 52 d7 db b9 09 96 c8 bd 34 2c e5 bb
       0.1387587 -0.0004193136 -0.09794242 -0.006993795
000060 01 ce 5a 39 be 44 e7 3a 63 7e 93 ba e8 2d 1d bb
       0.00020866843 0.0017644388 -0.0011252876 -0.002398366
000070 d3 c2 95 3b 7e 31 1c b9 96 6e 78 bc 11 ca 6f bd
       0.004570344 -0.00014895757 -0.0151630845 -0.058542315
000080 86 1c a3 bd 93 fd d3 39 3a cf 9d 3d 5c c5 d0 3a
       -0.07964425 0.00040433984 0.07705541 0.0015927958

enhance_net.iems.2.cell.c5.bias f4 [3]
000000 32 cf e2 bf bd 8a e2 bf 6b 59 e5 bf
       -1.7719481 -1.769859 -1.7917913

denoise_net.stem.weight f4 [6, 3, 3, 3]
000000 db b2 ce 3c be 7e f4 bd 71 12 03 3e 70 25 40 3c
       0.02523177 -0.11938237 0.12800004 0.011727676
000010 1d 5d 1e bd 6e dc 16 3d b3 ae 1a be d9 2f 5a be
       -0.03866302 0.036831312 -0.15105705 -0.21307315
000020 64 4b 8c bd 74 55 85 3a 84 0f f0 3d 28 e1 18 bd
       -0.06850317 0.0010172562 0.11721709 -0.0373241
000030 a0 f4 02 3d ae 74 94 bd ee b1 a3 3d 20 48 7a be
       0.031971574 -0.072488174 0.07992922 -0.24441576
000040 5c 07 49 bd 92 61 ea 3c 24 87 03 3d 68 b2 cf bd
       -0.049079284 0.028610978 0.032111302 -0.1014145
000050 95 3a 48 3d ba 56 2e bd 00 5d 48 be cc fa b3 bd
       0.048883993 -0.042563178 -0.19566727 -0.0878807
000060 22 fd fb bd b0 09 63 bd f8 67 4c be c6 ee 0a be
       -0.123041406 -0.05542916 -0.19961536 -0.13567647
000070 68 1d 73 be 8a 26 61 be e9 b0 2a bd 0b 23 6e bd
       -0.23741686 -0.21987358 -0.04167262 -0.05813889
000080 b6 8a a9 3d eb a7 af 3d a9 79 e4 3d 92 22 2c 3e
       0.0827841 0.0857695 0.11156017 0.16810063
000090 ef 5d 5a be 83 10 a9 bd 60 a5 6c be 12 26 67 bd
       -0.21324895 -0.082551025 -0.2310996 -0.05643279
0000a0 9e 48 09 3e d0 e5 d3 bd 03 f1 12 3e f4 1c 8c 3d
       0.13406608 -0.10346568 0.14349751 0.0684146
0000b0 b2 0d 8e bd 51 fc 5a be 40 f8 d0 bd da 8c ab be
       -0.06936206 -0.21385314 -0.102036 -0.335059
0000c0 4d da 1c 3e eb 5b bb 3d fe 71 cb 3d a0 3c 22 3e
       0.1531765 0.09148391 0.09933852 0.15843439
0000d0 aa 53 9c 3d 7c c0 8a bd b4 19 75 3d 7e 52 4d 3d
       0.07633145 -0.06774995 0.059838966 0.0501275
0000e0 5d d0 84 be 4e bd e9 3d 17 98 80 3d 67 24 97 be
       -0.2594022 0.1141306 0.06279009 -0.2951996
0000f0 2c 4b 0d 3e 31 37 19 3a 57 fb 2f be 95 8f 0d be
       0.13798207 0.0005844711 -0.17185722 -0.13824303
000100 90 8c 0a bd 25 1a 65 be 6b e8 ba bc fd 56 66 3d
       -0.033825457 -0.22373255 -0.022815904 0.056235302
000110 91 26 4c be e6 8c 56 3d 54 c6 73 3d 51 f7 7a bd
       -0.19936587 0.052380465 0.059515312 -0.061271016
000120 79 59 8f ba 1d 6d 08 3d 3c 84 96 3d 35 b6 32 bc
       -0.0010936699 0.033307184 0.073494405 -0.010907699
000130 a1 96 12 be 09 d0 cc bc 05 36 47 be c0 ca 22 3c
       -0.14315273 -0.025001543 -0.194542 0.009936035
000140 13 32 1c 3e 6b 87 85 3e a7 c9 b5 3d 48 e4 3c be
       0.15253477 0.26079878 0.08876353 -0.18446457
000150 58 6c ae 3e 84 25 c4 3d dc e5 d3 be b9 c3 4a 3d
       0.34067035 0.09577468 -0.41386306 0.049503062
000160 d8 ef 6f bd 40 bd da bd f9 2d ac 3e 66 ec bf 3d
       -0.058578342 -0.10680628 0.33628824 0.09371261
000170 23 59 87 be 14 ae d1 3e 56 fe c8 3d 1f fc 0f bf
       -0.26435193 0.40953124 0.09814136 -0.5624408
000180 17 95 b4 3d 6f 3e a3 bd b0 63 05 be 08 70 8d 3e
       0.08817499 -0.07970893 -0.13026309 0.27624536
000190 8a 9d 87 3d db 8c 4f be 8b c9 a6 3e 50 4b 04 3e
       0.06621845 -0.20268576 0.3257564 0.12919354
0001a0 ee af c9 be 11 e9 d2 3d 2e e9 95 bd 03 77 0e be
       -0.39392036 0.1029836 -0.07319866 -0.13912587
0001b0 e5 33 58 bd 6e 86 48 bd e4 a6 50 bd d2 a9 78 bd
       -0.052783865 -0.048956327 -0.05094041 -0.06070883
0001c0 02 79 bc bd 8f 5b b1 be e5 86 d6 3d 6a 60 20 3e
       -0.09202768 -0.34640166 0.10474948 0.15661779
0001d0 03 a5 cd 3e 08 5a 44 bd 16 c9 67 bd 50 98 e3 bd
       0.40164956 -0.047937423 -0.056588255 -0.11113036
0001e0 22 47 e3 bc 6d 51 95 bd 74 76 ad be 15 0d f4 3d
       -0.02774388 -0.07290921 -0.33879435 0.11916558
0001f0 a1 14 38 3e de 5c e0 3e e0 68 5a bd 71 60 20 bd
       0.1797662 0.43820852 -0.053322673 -0.039154474
000200 72 ae 56 bd 3b b3 af bd 42 d7 05 be 93 9e b2 be
       -0.052412458 -0.085791074 -0.13070396 -0.34886608
000210 5f d7 06 3e 74 39 5b 3e bb 6e c4 3e 0d 5b ca bc
       0.13168095 0.21408635 0.3836573 -0.02470162
000220 8b 01 53 3e 42 e5 02 3e f0 81 ce bd 2c 15 27 3e
       0.20606057 0.12782767 -0.10083377 0.1631667
000230 f1 8e 01 be 69 cd f5 bd 26 70 72 bd c5 a8 0b 3d
       -0.12652184 -0.120020695 -0.059188984 0.034096498
000240 73 32 33 bc 57 d8 d1 3d f9 b8 fd 3d ba 86 26 be
       -0.010937321 0.10246342 0.12388796 -0.16262332
000250 d5 ed ae 3d ef 66 40 be dc 12 f4 bd 49 67 04 be
       0.085414566 -0.18789266 -0.1191766 -0.12930025
000260 cf ba 32 3d 2d ff b0 bc d9 29 7a 3e f5 64 3e 3e
       0.043635186 -0.021606052 0.24430026 0.185932
000270 e9 17 c9 bd 3e dc 53 3e 9a e3 48 bd 5e c7 23 be
       -0.098190136 0.20689484 -0.049045183 -0.15994021
000280 b2 6b a5 bd be f9 d9 3c
       -0.08077182 0.026608344

denoise_net.stem.bias f4 [6]
000000 da 3a ff bb b0 da df 3c 62 6c 82 3d 04 c2 a7 3e
       -0.007788998 0.027325958 0.06368329 0.3276521
000010 66 86 20 3e 5f 0f 1d 3e
       0.15676269 0.15337895

denoise_net.nrms.0.c1_d.op.weight f4 [6, 6, 1, 1]
000000 0c 0f 09 bd 3d 3a a3 3e d8 4a 82 3e 16 ec 8b 3d
       -0.033461615 0.3188037 0.25447726 0.06832139
000010 84 94 34 be ce 33 55 be ae 91 c6 bd b1 60 ea 3d
       -0.17634779 -0.20820543 -0.09695755 0.11444224
000020 46 3e ab bb 36 c9 0b be ff b7 d9 3d 12 cd 9a be
       -0.0052259294 -0.13650975 0.106307976 -0.3023458
000030 2b 7a b8 be a0 30 12 3e 94 f1 0e be fd 60 bd 3e
       -0.36030707 0.14276361 -0.13959342 0.3698806
000040 82 5b 21 3e 31 76 86 bd 14 c0 c8 be bf 60 00 3e
       0.15757564 -0.06565512 -0.39209044 0.12536906
000050 75 83 1a bd 6a 36 47 3e e3 21 06 bc 50 4e 6a be
       -0.037723023 0.19454351 -0.00818679 -0.22881436
000060 e5 ef cc bd f6 7a df 3d 56 db 12 3e d8 d5 90 be
       -0.10006694 0.10912125 0.14341483 -0.2828815
000070 db c4 7f be 65 27 c3 3e 53 f2 98 be b1 a1 ba be
       -0.24977438 0.38115993 -0.2987238 -0.36451486
000080 11 f3 62 3e bc 51 76 be 63 ef 52 bd 80 34 45 be
       0.22163035 -0.24054617 -0.05149783 -0.19258308

denoise_net.nrms.0.c1_d.op.bias f4 [6]
000000 0c 80 95 bd a5 d3 ba 3e d7 c0 46 be 32 95 ab 3d
       -0.07299814 0.36489597 -0.194095 0.08378066
000010 70 9a bc be 6b 2f f9 bc
       -0.36836576 -0.030418118

denoise_net.nrms.0.c1_r.op.weight f4 [6, 6, 1, 1]
000000 8e 3b 01 3e 3c f4 8c b9 1a 42 58 3b 33 bc ae 3e
       0.12620375 -0.0002688485 0.0032998384 0.3412796
000010 d6 22 9c 3d 88 88 77 3d f1 41 8b be 76 c7 7e 3e
       0.07623832 0.06043294 -0.27198747 0.24880776
000020 90 91 ae 3d 87 89 10 be e3 1e 13 bd 49 4c 0b 3e
       0.085238576 -0.14114963 -0.035918128 0.13603319
000030 17 f0 d0 bd 2b 7b 87 be 0d 2e d5 bd 82 fc b3 be
       -0.102020435 -0.26461157 -0.10409174 -0.35153586
000040 31 bd 87 be 16 bb 05 3e 10 5d 5a be fe 59 79 3d
       -0.2651153 0.13059649 -0.21324563 0.06087684
000050 37 8e b9 3e f3 9c f4 3d c3 05 f6 3d 5b 33 f4 be
       0.36241314 0.11943998 0.12012818 -0.4769543
000060 3e 5a 3b be 29 7b 45 3e 03 f1 07 3e e3 34 1f be
       -0.18296143 0.19285263 0.13275532 -0.15547518
000070 49 f7 ea be 46 9b a2 be 99 05 51 bd 00 c3 8f 3d
       -0.4589179 -0.3175909 -0.05103073 0.07019615
000080 bb 36 d0 bc 8d 35 06 3f a6 31 9c 3e cd 22 83 3d
       -0.025416723 0.5242546 0.3050663 0.06403122

denoise_net.nrms.0.c1_r.op.bias f4 [6]
000000 07 5b 33 bd 8d 8a 5c be 20 32 6a be 0f 1f a6 be
       -0.043787982 -0.21537228 -0.22870684 -0.3244557
000010 3f ac e8 3d 08 f8 b0 3e
       0.11360978 0.34564233

denoise_net.nrms.0.c2_d.op.weight f4 [6, 6, 3, 3]
000000 51 7d 12 bd 00 d2 c5 bd 04 91 e8 bd ec 48 b8 bd
       -0.035764042 -0.09659195 -0.113557845 -0.08998284
000010 0b a2 14 3d eb d0 4f bc 20 c3 70 b8 3d eb 21 3d
       0.03628735 -0.012684087 -5.7402183e-05 0.03953098
000020 85 0a ee 3c b0 8c 02 3e cf 88 ce 3d 31 81 17 3d
       0.02905775 0.1274898 0.10084688 0.03698844
000030 90 df 90 bc a4 70 d1 bd 7c 8e ab 3d 27 f7 42 3d
       -0.017684728 -0.102265626 0.08376786 0.047598984
000040 8f b1 85 bd 62 f5 9b bd be 98 cf 3d 4c 7c 13 bd
       -0.06528007 -0.076151624 0.10136555 -0.03600721
000050 de 4d dc bc bf 27 65 bc 11 9e 9f bd e7 e2 15 bd
       -0.026892599 -0.013986527 -0.07793821 -0.036593344
000060 60 49 c2 bd d4 c2 40 3a db 7e c8 3d f6 40 2c 3e
       -0.094866514 0.00073532504 0.09789821 0.16821656
000070 4a aa 2f 3d 6e 62 91 be 97 51 05 3e 9d 07 8a bd
       0.04288701 -0.28395408 0.13019405 -0.06739733
000080 4b eb 1d bf 4f f1 62 3d 1a bc e6 bc 8b 99 d3 bd
       -0.61687154 0.05540591 -0.028165866 -0.1033202
000090 27 23 bc 3d c9 5c d4 bd be 03 e2 bc c5 fc b9 3c
       0.09186392 -0.1036926 -0.027589675 0.022703538
0000a0 19 b7 68 3d 1b a6 4c 3d 7a 2e b6 3b 64 d1 58 3d
       0.05681524 0.049963098 0.0055597397 0.052934065
0000b0 a0 18 9a 3d 03 6b 8d bd bd 54 56 bc 7b 49 06 3d
       0.07524228 -0.069051765 -0.013081727 0.03278492
0000c0 18 8f cf bc 41 36 a7 3d a2 94 b6 3e f2 c0 31 3d
       -0.025336787 0.08164645 0.35660273 0.043396898
0000d0 f0 0b 57 3c ff 50 37 3d 27 04 4f 3c af 30 cb 3d
       0.013125405 0.04475498 0.012635267 0.09921395
0000e0 17 7b c1 3d cf 51 35 bd 71 8d fc bd 75 cc 00 be
       0.09447306 -0.044267472 -0.12331665 -0.12577994
0000f0 be ed b9 3d 01 22 e6 3d d8 ea 8e bd 31 5f 32 bd
       0.09078549 0.112369545 -0.06978387 -0.043547813
000100 53 34 92 3d ac 0a 1a 3e 04 3d 63 3d ab e5 d1 bc
       0.07138886 0.15043133 0.05547811 -0.02562221
000110 a0 d5 11 bc e2 8e 22 bd 2c e8 16 3d 75 78 e2 3c
       -0.00890103 -0.039687045 0.03684251 0.027645329
000120 f2 36 d2 bd b7 f9 f8 3d b6 33 3e 3c e4 55 e2 bd
       -0.10264386 0.12157004 0.011609009 -0.110515386
000130 8e 18 bc 3d db 2c 8d bd e2 dd a3 bd 7c 4a 28 3d
       0.09184371 -0.06893321 -0.08001305 0.04108666
000140 81 b6 7b 3a 57 f5 df bd 8f 2f 48 3e 1a 8b 74 3d
       0.00096020853 -0.10935467 0.19549392 0.05970297
000150 c3 81 2c be 05 73 48 3d d9 a9 5f be 04 50 1e bc
       -0.16846375 0.048937816 -0.21842135 -0.009662632
000160 0c c0 19 3e 3a ab 7e 3d 45 64 66 bd 8a a1 dc bc
       0.15014666 0.062175013 -0.05624797 -0.026932497
000170 e1 16 ec bd d8 93 13 be 8c 40 8d bb ad ff 3a 3e
       -0.11527801 -0.14411867 -0.004310673 0.18261595
000180 55 c9 3c 3c ff 1e 81 bd 92 40 e9 bc d9 35 bf bb
       0.011522611 -0.0630474 -0.028473172 -0.0058352766
000190 71 24 f0 bc a7 16 98 3d 4b 38 0e 3d e3 ba 24 bd
       -0.029314252 0.074261956 0.034721654 -0.04021729
0001a0 98 68 6e 3e ff 4c 74 bc 6d 89 9d bd d2 5a 0f 3e
       0.23282087 -0.014910935 -0.076922275 0.13999489
0001b0 78 e6 dc bd b9 df bd 3d 26 09 2e bc 73 ae 54 3d
       -0.10786146 0.09271187 -0.010622298 0.05192418
0001c0 51 b0 87 3d a4 88 da bd 38 98 bb bd e8 2a 8e 3d
       0.066254266 -0.106705934 -0.09159893 0.069417775
0001d0 74 dc 85 bc 55 ab 62 3d a7 70 36 3c 9a 5f 95 bd
       -0.016340472 0.055339176 0.011135257 -0.07293625
0001e0 33 98 a7 3d 5b 67 0a 3e 91 b3 97 3c b6 ba 05 3d
       0.081833266 0.1351599 0.018518241 0.032648765
0001f0 bf a6 99 3b d5 19 68 3d c6 18 13 3c 79 25 71 3d
       0.004689067 0.05666526 0.008978074 0.058873627
000200 9d 64 44 bd 05 c3 b1 bd 78 03 97 3c 5b f7 b7 bc
       -0.047947515 -0.08679775 0.018434271 -0.022456815
000210 41 77 c8 3d 3b 6b 01 3e 58 fc f8 bc 6f 6d 8e 3e
       0.09788371 0.12638561 -0.030393764 0.27817866
000220 a3 f9 9a 3e b9 df 40 be 4e c8 76 3e 8f 4c f8 3d
       0.30268583 -0.18835343 0.24099848 0.121239774
000230 60 c6 9c be 79 87 05 3e a9 62 b9 3d 5b b9 4b be
       -0.30620098 0.1303996 0.09052021 -0.19894926
000240 56 bc 92 bc 24 35 69 3c a2 9c cd b9 38 30 19 bd
       -0.017912071 0.014233861 -0.00039217348 -0.0373995
000250 0f ea ba bd 05 17 5c bd 6d 6c df bc f6 b5 aa bb
       -0.091266744 -0.05373289 -0.027273381 -0.0052096797
000260 52 23 6a 3d cb 2b ed bc 7b 34 37 be 67 4d 2c bc
       0.05716259 -0.028951546 -0.17891113 -0.010516501
000270 4a 4d 4f bb 39 1e 49 be 47 5b f4 3d 0e e9 f5 bc
       -0.0031631761 -0.19640435 0.11931472 -0.030018356
000280 20 a8 87 bd 32 99 a6 3d 25 b3 e5 bd 10 83 87 3d
       -0.06623864 0.081346884 -0.1121581 0.06616795
000290 2a 19 93 bc 49 a8 7e bd 11 6f af 3d 93 a0 ad bd
       -0.017956335 -0.062172208 0.08566106 -0.08477893
0002a0 37 25 db bd 0e 7b a0 3c 8a a2 1c bc 16 f3 1c 3e
       -0.107004575 0.019589927 -0.009560237 0.15327105
0002b0 c0 6b f1 3d c1 3f 47 bd 24 96 87 3c 95 f2 91 3d
       0.1178813 -0.048644785 0.016551085 0.07126347
0002c0 70 46 53 bd 0c 8f d9 bd ed 03 8e 3d c2 41 a1 bd
       -0.051580846 -0.10622987 0.069343425 -0.078738704
0002d0 8d 34 67 3d 33 cc dc 3d ff ce 60 3c 07 8e fc bc
       0.0564466 0.107811354 0.013721227 -0.030829443
0002e0 6b a2 97 3d 40 df fd 3d 64 75 10 bd f2 a5 d9 3d
       0.07404026 0.12396097 -0.035268202 0.10627355
0002f0 e3 c0 c4 bb 2f 19 b6 3d f7 fa e6 3a 24 31 aa bd
       -0.006004439 0.08891522 0.0017622401 -0.08310154
000300 c2 f0 87 bc 12 b5 a7 bd de bf f2 bc 07 5d 81 3b
       -0.016594294 -0.08188833 -0.029632505 0.0039478573
000310 da f5 6a 3d 9e ea 2b 3e 99 39 a5 3d 88 b5 9d bd
       0.05736337 0.16788718 0.080676265 -0.0770064
000320 da 7d cb bd 82 fd f5 bd 41 6f c4 3c 79 d6 24 3d
       -0.09936114 -0.120112434 0.023978831 0.0402436
000330 2c 93 af bd 81 d4 8c 3d 59 c9 94 3d e2 4d 83 3d
       -0.08572993 0.068764694 0.072649665 0.06411339
000340 f2 43 02 3d 22 08 25 3c a1 f8 bf bc 54 41 04 3e
       0.03180308 0.01007274 -0.023433985 0.12915546
000350 38 81 69 3d 14 75 87 3c 3b f7 eb bd ab b0 1d be
       0.057008 0.01653532 -0.11521765 -0.15399425
000360 e6 0d 6b bd bb bb 3a 3d d6 f3 da bd 5d ef cc bd
       -0.0573863 0.04558919 -0.10691039 -0.100065924
000370 24 6d 44 3d 78 7a aa bd 81 2a 6e 3c b9 d6 2e bd
       0.047955647 -0.0832414 0.014536501 -0.042685244
000380 30 1f 25 bd ce 76 2d 3e 68 3c 03 3d b0 8c 54 3e
       -0.040312946 0.16939852 0.03204003 0.20756793
000390 a1 2a 8f bd 70 20 c9 bd 3a 72 91 3c df 80 a2 3c
       -0.06990553 -0.0982064 0.017754663 0.019836841
0003a0 b3 90 fc bd 6f 62 15 3d 2b c3 e2 3c 30 2d 86 3d
       -0.12332287 0.036470827 0.027680954 0.065515876
0003b0 4f 16 94 bb 70 36 f2 3d ab 04 80 3d 07 1a cb bd
       -0.004519261 0.118267894 0.0625089 -0.09917074
0003c0 7c 8a 17 bd 77 50 70 3d 5a ba fd bc 4d 0a 4a bd
       -0.036997303 0.058670487 -0.030972648 -0.04932623
0003d0 a8 34 67 3d bc 33 03 3e 80 1d 77 3d b2 cd 00 be
       0.0564467 0.12812704 0.060330868 -0.12578467
0003e0 0c 19 da bc af 0b 1b 3d ed 55 c5 3d 4d 46 ee bb
       -0.026623271 0.03785294 0.0963553 -0.007271564
0003f0 43 f6 f7 bd e9 11 c7 be 08 cf 0c be 82 3d 4c 3d
       -0.121075176 -0.38880852 -0.13750851 0.049863346

denoise_net.nrms.0.c2_d.op.bias f4 [6]
000000 ca 18 aa 3d 38 77 3e 3d 48 f5 46 bd 27 56 5b 3d
       0.083055094 0.046500415 -0.048573762 0.05354896
000010 af d1 9b 3d 8a e4 10 3d
       0.07608353 0.0353742

denoise_net.nrms.0.c3_d.op.weight f4 [6, 6, 1, 1]
000000 cc a7 9e 3e cd cd b0 be 6d 7c 13 be 8b 4c 7c 3e
       0.30987394 -0.34532014 -0.14402933 0.24638574
000010 a7 cb bd 3e 20 6b a0 3e 1a 5c b0 3e 1e 19 92 3e
       0.37069437 0.3133173 0.34445268 0.28534788
000020 4f de 7a be f5 fc 05 bd 40 bd e1 3d 9f 6d 14 3e
       -0.24498866 -0.03271194 0.11022425 0.14494942
000030 36 0e bf be 00 7b 80 3c 51 66 5a 3e d5 a1 45 3e
       -0.3731553 0.015683651 0.21328093 0.19300015
000040 6a 58 4c 3e 41 77 e2 3c f7 b2 09 3e 8f 27 c2 3d
       0.19955602 0.027644755 0.13447176 0.094802015
000050 8e 08 52 3e 11 27 36 be e8 a7 33 3e ee 73 21 be
       0.20511076 -0.1778834 0.1754452 -0.1576688
000060 c6 22 a1 bd 2b 05 86 3e 17 76 be be 61 b4 ac 3c
       -0.07867961 0.26175818 -0.3719947 0.021082105
000070 dc fe 6f 3e 8d 21 16 3e 00 9a 1b 3e c6 72 61 3e
       0.23437065 0.14661236 0.15195465 0.22016439
000080 e4 bd 79 3a bd bc a2 bd e9 d1 54 be 08 e4 59 3d
       0.0009526892 -0.07946155 -0.207832 0.053195983

denoise_net.nrms.0.c3_d.op.bias f4 [6]
000000 2b 59 4e 3e 25 e9 bd bb 2e 28 b5 3d 9e 64 98 3e
       0.20151202 -0.0057956153 0.08845554 0.29764265
000010 c9 85 02 3e fd 2a ca be
       0.12746347 -0.39485922

denoise_net.nrms.0.c3_r.op.weight f4 [6, 6, 1, 1]
000000 fc b4 90 3e 06 86 b6 3e 9d 22 88 bc 59 a3 aa be
       0.2826308 0.35649127 -0.016618067 -0.3332775
000010 95 4e 5f b8 f0 d0 c2 be a3 d5 a6 3e 84 5b 8c bd
       -5.324053e-05 -0.38050032 0.32584867 -0.06853393
000020 87 33 af be c4 20 ae 3e d3 8c ee 3c a8 cc 98 3e
       -0.34219 0.34009373 0.029119885 0.2984364
000030 0a f9 38 bd a0 2f b9 be 5a 2e be 3e 70 e5 e3 3e
       -0.045159377 -0.36169147 0.37144738 0.44510984
000040 3c 39 b5 bd e8 a8 b9 be 55 8d b3 3e 07 c3 8b be
       -0.08848807 -0.36261678 0.35068765 -0.27297232
000050 87 aa 83 be 43 33 a9 be 02 a5 dc 3c ff a7 52 3d
       -0.2571604 -0.33046922 0.02693415 0.051429745
000060 70 08 6c be a8 92 84 be c8 55 b7 3e 39 29 34 be
       -0.23050094 -0.2589314 0.35807633 -0.1759385
000070 ae 01 84 3e cf 67 97 3e 0e 76 bf bd f7 bc 46 3d
       0.25782531 0.29571387 -0.09348689 0.048520055
000080 87 5d 86 3e c5 38 b4 bd 5e 5b 62 3e ab 08 e0 be
       0.2624323 -0.087998904 0.22105166 -0.43756613

denoise_net.nrms.0.c3_r.op.bias f4 [6]
000000 cc dc 4f 3e 86 29 09 be ec 24 97 3d 85 26 92 bd
       0.20299071 -0.13394746 0.07380089 -0.07136253
000010 1d 7c 5d be 1c e6 3e be
       -0.21629377 -0.18642467
