ckpt/lol.pt (torch_old, 31374 bytes, 76 tensors)

enhance_net.iems.0.cell.c1_r.op.weight f4 [3, 3, 1, 1]
0	0x3e029d95	0.12755425
1	0xbe078b1b	-0.13236658
2	0x3e1c26ef	0.15249227
3	0xbce9e062	-0.028549377
4	0x3e732b34	0.2374695
5	0x3e077522	0.13228276
6	0xbd83310d	-0.0640584
7	0xbee64653	-0.44975528
8	0x3e01e344	0.12684351

enhance_net.iems.0.cell.c1_r.op.bias f4 [3]
0	0xbefc2656	-0.49247998
1	0x3d944def	0.07241427
2	0x3d142f53	0.036177944

enhance_net.iems.0.cell.c2_d.op.weight f4 [3, 3, 3, 3]
0	0xbd26f21f	-0.04075825
1	0x3e1b3b4f	0.15159343
2	0x3c4ac6bb	0.012376483
3	0x3d9d746f	0.076882236
4	0x3da0b099	0.07846183
5	0xbddff774	-0.1093587
6	0xbd91f248	-0.071262896
7	0x3e3691dc	0.17829078
8	0xbe39eec7	-0.18157493
9	0xbc4db9d3	-0.012556511
10	0xbc702e53	-0.014659482
11	0x3e06adc5	0.13152225
12	0xbc90179a	-0.01758938
13	0x3d4816f4	0.048850015
14	0xbc115474	-0.008870233
15	0xbdd489aa	-0.1037782
16	0xbdd723b3	-0.10504856
17	0xbdb86897	-0.09004324
18	0xbe2c6c6f	-0.16838239
19	0xbdf65b0d	-0.12029085
20	0x3d32c700	0.043646812
21	0x3df9eb60	0.12203097
22	0x3c15f76e	0.00915323
23	0xbdadff96	-0.08496015
24	0x3da6e3ea	0.0814894
25	0xbd91b634	-0.071148306
26	0xbd282654	-0.041052178
27	0xbdd02960	-0.10164142
28	0xbd6e7c69	-0.058224116
29	0xbe2fe814	-0.17178375
30	0x3da1f6a4	0.07908371
31	0x3d938f6c	0.0720509
32	0x3d16cb7d	0.036815155
33	0x3dba6693	0.09101596
34	0x3da0e6f9	0.078565545
35	0x3c064b9d	0.008196739
36	0x3c9e5e5f	0.019332109
37	0x3c6379d5	0.0138840275
38	0x3dca1bfd	0.098686196
39	0x3dfe687e	0.12422274
40	0x3e080b85	0.13285644
41	0x3ddb8df1	0.107204325
42	0xbd3a3947	-0.04546478
43	0xbc0b0021	-0.008483917
44	0xbd1b2654	-0.03787835
45	0x3ddc6c9d	0.10762904
46	0x3ca71721	0.02039677
47	0x3e2f845c	0.17140335
48	0x3dc01ed6	0.093808815
49	0xbe226d45	-0.15861996
50	0x3d5d63d3	0.054050278
51	0x3e3635fd	0.17794032
52	0x3e286e14	0.16448241
53	0xbb48d810	-0.0030646361
54	0x3d7bdcef	0.061489996
55	0xbe321494	-0.17390662
56	0xbd721714	-0.05910404
57	0x3db91f06	0.090391204
58	0xbe2cf088	-0.1688863
59	0x3e256158	0.16150415
60	0xbdf9ae79	-0.12191481
61	0x3d701afd	0.058619488
62	0xbbe61473	-0.0070214807
63	0x3d045a42	0.03231264
64	0x3c9073de	0.017633375
65	0xbe31c0e1	-0.17358734
66	0xbd248b7e	-0.040172093
67	0xbdf0b11e	-0.117525324
68	0x3e21141e	0.1573033
69	0xbcbcee5a	-0.023062874
70	0xbe3d5318	-0.18488729
71	0x3d36cdb9	0.044629786
72	0x3da45ee4	0.080259115
73	0xbdaa6e37	-0.08321803
74	0xbc901554	-0.017588295
75	0x3da3a31b	0.07990094
76	0xbdecac5f	-0.11556315
77	0xbdc92038	-0.09820598
78	0xbc943ca0	-0.018095315
79	0xbe05875f	-0.13039921
80	0x3de8f2e8	0.11374456

enhance_net.iems.0.cell.c2_d.op.bias f4 [3]
0	0x3c7964fc	0.01522183
1	0x3de1ed14	0.11031547
2	0x3dc9b17b	0.09848305

enhance_net.iems.0.cell.c2_r.op.weight f4 [3, 3, 3, 3]
0	0xbe124e16	-0.142876
1	0xbdeca902	-0.11555673
2	0xbe01d9d4	-0.12680751
3	0xbd7415ac	-0.05959098
4	0xbd8ac280	-0.06775379
5	0xbcf4c25e	-0.029877838
6	0xbe37a5b0	-0.17934299
7	0x3da05135	0.07827989
8	0x3dd75f72	0.105162516
9	0x3d6ef300	0.05833721
10	0x3df06e3f	0.11739778
11	0x3e0e339d	0.13886876
12	0xbe3bcd4c	-0.18340033
13	0x3ce23aa1	0.027615847
14	0x3e2fb145	0.17157467
15	0xbe09f626	-0.13472804
16	0xbda9cbf6	-0.082908556
17	0xbc25f356	-0.010128817
18	0xbdeccb3a	-0.115622
19	0xbd104a96	-0.03522738
20	0xbce2a103	-0.027664667
21	0x3e28da8d	0.1648962
22	0xbc4366d0	-0.011926368
23	0x3dcd58fd	0.10026739
24	0x3e0abf30	0.13549495
25	0x3da8a043	0.082336925
26	0xbe25596b	-0.16147391
27	0x3e0e4912	0.13895062
28	0x3dfa6370	0.122259974
29	0xbe081336	-0.13288578
30	0xbd876116	-0.066103145
31	0x3e013709	0.1261865
32	0xbe3886ee	-0.18020222
33	0xbe266240	-0.16248417
34	0xbe00a8ca	-0.12564388
35	0x3d6c9b57	0.05776533
36	0xbd9ae491	-0.07563127
37	0xbe293d23	-0.16527228
38	0x3d9348e6	0.07191639
39	0x3dc039e3	0.09386041
40	0x3d8e5872	0.06950463
41	0xbe22951d	-0.15877195
42	0x3e38ee93	0.18059759
43	0xbc64026a	-0.013916591
44	0xbe349df6	-0.17638382
45	0xbce41969	-0.027844148
46	0x3df816df	0.12113737
47	0x3daeec4c	0.08541164
48	0xbafbd2e1	-0.0019212627
49	0x3e05dd17	0.1307262
50	0xbe2d2908	-0.16910183
51	0x3e03c243	0.12867074
52	0x3e3c7aae	0.18406174
53	0xbde6c4b1	-0.11267985
54	0x3d22e169	0.03976575
55	0xbcf4e3e8	-0.02989383
56	0xbe203fea	-0.15649381
57	0xbad4e387	-0.0016242125
58	0xbd7e7c6e	-0.062130384
59	0xbe222569	-0.15834583
60	0xbe0a52f5	-0.13508208
61	0x3b8473db	0.0040421314
62	0x3e2ffbce	0.171859
63	0x3d889824	0.066696435
64	0xbdfbf420	-0.123024225
65	0x3e03421b	0.12818186
66	0x3c7e1542	0.015507998
67	0xbe393188	-0.18085301
68	0x3c151be5	0.009100889
69	0x3df448f0	0.11927974
70	0xbddeb158	-0.108736694
71	0xbc0716ac	-0.0082451515
72	0xbdbcb5cb	-0.09214362
73	0xbe15783d	-0.14596649
74	0xbdd74f19	-0.105131336
75	0x3c9a1133	0.01880703
76	0x3df5d394	0.12003246
77	0xbd0c44c9	-0.034245286
78	0xbe2a867b	-0.16652863
79	0xbab69e00	-0.0013932586
80	0xbe24e6d1	-0.16103674

enhance_net.iems.0.cell.c2_r.op.bias f4 [3]
0	0x3c226a6a	0.009913066
1	0x3e0ce71c	0.13760036
2	0x3da38d4a	0.07985933

enhance_net.iems.0.cell.c3_d.op.weight f4 [3, 3, 3, 3]
0	0xbde83850	-0.11338866
1	0xbd279529	-0.040913735
2	0x3d9806d5	0.07423178
3	0x3d4dfc3b	0.050289374
4	0xbe32509c	-0.17413563
5	0xbddd59ee	-0.10808168
6	0xbd86472a	-0.06556542
7	0x3d8b855f	0.06812548
8	0x3e299d89	0.16564001
9	0x3da92a69	0.08260042
10	0x3d8f66b3	0.0700201
11	0xbe211720	-0.15731478
12	0x3df5a73e	0.119947895
13	0x3d87f42b	0.06638368
14	0xbd7431b8	-0.059617728
15	0xbdb62e84	-0.08895591
16	0x3d57d59c	0.05269395
17	0xbdcdceaa	-0.10049184
18	0x3d9a1e62	0.07525326
19	0x3e112d00	0.14177322
20	0xbdfa8421	-0.12232233
21	0xbdecd5df	-0.1156423
22	0xbd9dbbd0	-0.07701838
23	0xbe22880d	-0.15872212
24	0xbcae3058	-0.021263286
25	0x3dec77a7	0.115462594
26	0x3d8e188d	0.069382764
27	0xbd745950	-0.059655488
28	0xbcbbed15	-0.022940198
29	0xbda4fb3a	-0.0805573
30	0xbe192921	-0.14957096
31	0xbd4eef86	-0.050521396
32	0x3c52b3dd	0.012860266
33	0xbdc06a0d	-0.093952276
34	0xbe0e273f	-0.13882159
35	0x3d5e0ecc	0.05421333
36	0x3ce3a3c0	0.027788043
37	0xbd6a476f	-0.05719703
38	0x3d5173e6	0.05113592
39	0x3e2fe969	0.17178883
40	0x3c2d7464	0.010586832
41	0xbe01b472	-0.1266649
42	0x3e2ff525	0.17183359
43	0x3e090ab7	0.13382994
44	0xbc8e00f0	-0.017334431
45	0xbdab2675	-0.083569445
46	0xbd9feb08	-0.078085005
47	0x3e25a272	0.16175249
48	0x3dc69891	0.096970685
49	0xbdc3026d	-0.09521947
50	0x3bf60a7d	0.0075085745
51	0x3d1c2428	0.03812042
52	0x3d492ed3	0.04911692
53	0xbc2a23af	-0.010384484
54	0xbdc67dee	-0.09691988
55	0xbbb84c59	-0.0056243357
56	0xbd517bc1	-0.05114341
57	0xbd7e812d	-0.06213491
58	0xbdbc0910	-0.09181416
59	0xbdb7ef7d	-0.08981226
60	0xbdb2bf9d	-0.087279536
61	0x3d95c21c	0.07312414
62	0xbe206a99	-0.15665664
63	0xbe33f194	-0.17572623
64	0x3e22f8ec	0.15915269
65	0x3d894b56	0.06703822
66	0x3dd32a04	0.10310748
67	0x3da6caad	0.08144126
68	0xbd8fc9e5	-0.0702093
69	0xbded7003	-0.1159363
70	0xbe00e20c	-0.1258623
71	0xbc383944	-0.011244122
72	0x3d3d3528	0.046193272
73	0xbe31a72c	-0.17348927
74	0xbe119e43	-0.14220528
75	0x3dd60bb2	0.104514495
76	0x3cc3e5a5	0.023913214
77	0x3dfabaac	0.12242636
78	0x3e2938da	0.16525593
79	0x3de71677	0.11283582
80	0xbd20cd8d	-0.03925853

enhance_net.iems.0.cell.c3_d.op.bias f4 [3]
0	0xbda8f347	-0.082495265
1	0x3d59dddc	0.053190097
2	0x3e1b6e64	0.1517883

enhance_net.iems.0.cell.c4.op.weight f4 [3, 3, 3, 3]
0	0xbe35ff88	-0.17773259
1	0x3d4bd29c	0.0497614
2	0xbe125774	-0.14291173
3	0xbe16eb97	-0.14738308
4	0x3d895ff8	0.06707758
5	0x3dc1201f	0.09429955
6	0x3d81fc19	0.06346912
7	0x3d5cd16c	0.053910658
8	0xbd6562d3	-0.05600245
9	0x3b927c6c	0.0044703986
10	0xbe27a3cb	-0.16371076
11	0xbdf7ab36	-0.12093203
12	0x3b77d368	0.0037815217
13	0xbd2e1ffc	-0.04251097
14	0xbcec267a	-0.02882694
15	0x3dd7cde0	0.105373144
16	0x3d8e8498	0.06958884
17	0xbd20f5c0	-0.039296865
18	0xbd79edde	-0.061017863
19	0xbe095aff	-0.13413619
20	0x3dc368e1	0.095414884
21	0xbe0572cc	-0.13032073
22	0x3d6b68b1	0.05747289
23	0xbd0a0fdf	-0.033706542
24	0x3e13cca4	0.14433533
25	0xbdf24005	-0.11828617
26	0xbdf81d50	-0.12114966
27	0x3caf40c0	0.02139318
28	0x3bb22bdc	0.0054373574
29	0xbda353b3	-0.07974949
30	0x3e3d962d	0.18514319
31	0xbe226f93	-0.15862875
32	0x3dcdbad1	0.10045398
33	0x3db8cd10	0.090234876
34	0xbd2f3cfb	-0.042782765
35	0x3d867ab0	0.065663695
36	0xbcff2ff3	-0.031150794
37	0xbe0eae73	-0.13933735
38	0x3dfb3dcd	0.12267647
39	0xbd46b7ed	-0.04851525
40	0xbcdf359c	-0.027247243
41	0x3e3a0053	0.18164186
42	0x3e37d2b1	0.17951466
43	0xbe0d5357	-0.13801323
44	0xbd46f9ea	-0.04857818
45	0x3dd701ec	0.104984134
46	0x3deb4fa5	0.114898
47	0xbe0aa64d	-0.13540001
48	0xbe0a156d	-0.13484736
49	0x3d9f182a	0.07768281
50	0xbe019e09	-0.12657942
51	0x3e08c171	0.13355042
52	0xbe1149ef	-0.1418836
53	0xbdde99d0	-0.10869181
54	0x3d943d75	0.072382845
55	0x3dd06d21	0.10177065
56	0xbd8549af	-0.06508195
57	0xbddb80ac	-0.107179016
58	0x3d91ae3c	0.07113311
59	0x3d751c43	0.059841406
60	0x3d432dfe	0.047651283
61	0xbe2eeff8	-0.17083728
62	0xbd648ab9	-0.05579636
63	0xbd89c94d	-0.06727848
64	0x3b2aadc7	0.002604352
65	0x3e2abb18	0.16672933
66	0xbe0927ff	-0.13394164
67	0xbaefa91b	-0.001828465
68	0x3d92f041	0.07174731
69	0x3dd6dc25	0.10491208
70	0xbe3b6d87	-0.183035
71	0x3c06ec11	0.008234994
72	0x3e15d472	0.14631823
73	0xbdf7530b	-0.12076386
74	0x3dec8e5e	0.11550592
75	0xbcd6f6d7	-0.02624075
76	0x3e2b0a1d	0.16703077
77	0xbe22f295	-0.1591285
78	0x3d05eb02	0.032694824
79	0x3e09f261	0.13471366
80	0x3e099095	0.1343406

enhance_net.iems.0.cell.c4.op.bias f4 [3]
0	0xbdbde0f5	-0.09271423
1	0xbe1b2a8b	-0.15152948
2	0x3b97d32d	0.0046333284

enhance_net.iems.0.cell.c5.weight f4 [3, 12, 1, 1]
0	0xbe097c50	-0.13426328
1	0x3e33be72	0.17553118
2	0xbe13a2fd	-0.14417644
3	0x3cf0f73c	0.029414766
4	0xbe789f36	-0.24279484
5	0xba3b6c69	-0.0007149638
6	0x3e79a727	0.2438017
7	0x3e170d3c	0.14751142
8	0x3df0e06f	0.11761557
9	0xbe274a2f	-0.16336893
10	0x3e7362ef	0.23768209
11	0xbe0de913	-0.13858442
12	0x3e82a56b	0.2551683
13	0xbe6bae73	-0.23015766
14	0xbe0cef7c	-0.13763231
15	0xbdad6b0d	-0.08467684
16	0x3d338737	0.043830123
17	0x3e1a234b	0.15052526
18	0x3d739a4c	0.05947332
19	0xbdd691b9	-0.10477013
20	0xbe63276e	-0.2218301
21	0xbda67967	-0.081286244
22	0xbe06d0d5	-0.131656
23	0xbe2c04c9	-0.167987
24	0x3e30eb48	0.17277253
25	0x3d201ec7	0.03909185
26	0xbe18bb04	-0.14915091
27	0x3e07865f	0.13234852
28	0xbe3e4b9d	-0.18583532
29	0xbe2710ea	-0.16315046
30	0xbcdc414f	-0.02688661
31	0x3e3b403c	0.18286222
32	0x3e11808a	0.1420919
33	0xbe402c41	-0.18766882
34	0xbe48de71	-0.19616105
35	0x3dbfad4d	0.093592264

enhance_net.iems.0.cell.c5.bias f4 [3]
0	0xbca05f3e	-0.019576665
1	0x3ccfb3d4	0.025354303
2	0x3c1b7b63	0.009489867

enhance_net.iems.1.cell.c1_r.op.weight f4 [3, 3, 1, 1]
0	0xbeccb0eb	-0.39978728
1	0xbdc14588	-0.0943709
2	0xbe36ea2b	-0.17862765
3	0xbdbcaff5	-0.09213249
4	0x3eb4ed8b	0.3533748
5	0xbf046cb4	-0.5172837
6	0x3d517a10	0.0511418
7	0x3f0b8a91	0.5450831
8	0xbefe8556	-0.49711102

enhance_net.iems.1.cell.c1_r.op.bias f4 [3]
0	0x3e460028	0.19335997
1	0x3f132c15	0.5748914
2	0x3ea1301e	0.31482023

enhance_net.iems.1.cell.c2_d.op.weight f4 [3, 3, 3, 3]
0	0x3dbb2d75	0.091395296
1	0xbd9d9d72	-0.07696046
2	0x3d8bd34f	0.06827413
3	0x3c69dd06	0.0142738875
4	0x3e2ef063	0.17083888
5	0xbe3f2851	-0.18667723
6	0x3db48469	0.08814318
7	0xbdf76223	-0.12079265
8	0xbe327040	-0.17425632
9	0x3e2297a9	0.15878166
10	0x3cc2ac01	0.023763658
11	0xbdee7ba4	-0.11644676
12	0xbe40a5e8	-0.18813288
13	0xbd50065a	-0.050787307
14	0xbd5f6b62	-0.054545768
15	0xbce0c93d	-0.027439708
16	0xbd89b702	-0.06724359
17	0x3d1a27dd	0.037635673
18	0x3de88f07	0.11355405
19	0xbe238d4a	-0.15971866
20	0xbda6d75f	-0.081465475
21	0x3e167dd8	0.14696443
22	0xbe400954	-0.18753558
23	0x3e0cf2b5	0.1376446
24	0xbd41e352	-0.04733593
25	0x3d2856e0	0.041098475
26	0xbdd9d17d	-0.1063566
27	0x3dcb9bb2	0.09941806
28	0x3d0e7c04	0.03478624
29	0xbd0e88eb	-0.034798544
30	0x3e3ecce5	0.18632849
31	0xbe1f1553	-0.15535478
32	0x3e2f9971	0.17148377
33	0x3e0ad860	0.13559103
34	0xbc8f5510	-0.017496616
35	0xbd4049a5	-0.046945233
36	0x3e2ce2d8	0.16883409
37	0x3dc36392	0.09540476
38	0xbe13fb1e	-0.14451262
39	0xbdfa9925	-0.12236241
40	0xbe2382c4	-0.15967852
41	0xbd6a1804	-0.05715181
42	0xbc344b71	-0.011004315
43	0x3db4e548	0.088327944
44	0x3e036940	0.12833118
45	0xbe194b98	-0.14970243
46	0x3de39d44	0.111139804
47	0x3da4214a	0.08014162
48	0x3d9e128d	0.07718382
49	0xbe1b8809	-0.15188612
50	0xbddd8d95	-0.1081802
51	0xbbecc8a8	-0.0072260685
52	0x3dd8548e	0.105630025
53	0xbcea869b	-0.028628638
54	0xbd5b6a1e	-0.053567998
55	0x3ca4a71c	0.020099215
56	0x3c96fed5	0.01843206
57	0xbc9f0073	-0.019409394
58	0x3c9a114e	0.01880708
59	0xbdbd5eb4	-0.09246579
60	0x3e231a66	0.15928039
61	0x3c657a44	0.014006201
62	0x3dc49227	0.09598189
63	0xbe1723e9	-0.14759792
64	0xbd4eb38a	-0.05046419
65	0x3d8f5b1e	0.06999801
66	0xbdeab85e	-0.114609465
67	0x3c6e3917	0.0145399785
68	0xbdc130f1	-0.09433163
69	0xbd550149	-0.05200318
70	0x3c6ddeec	0.014518481
71	0xbe0f6d09	-0.14006437
72	0x3d8163b0	0.06317842
73	0x3df96d7c	0.121790856
74	0xbe20e0ca	-0.1571075
75	0xbbe8d05b	-0.007104916
76	0xbd15184a	-0.036400117
77	0xbe270832	-0.1631172
78	0xbd0efec9	-0.03491095
79	0x3e1fe903	0.1561623
80	0x3ceb4eba	0.028724063

enhance_net.iems.1.cell.c2_d.op.bias f4 [3]
0	0xbcc84694	-0.024447717
1	0x3e4ab30d	0.19794865
2	0x3d7fe7c7	0.0624769

enhance_net.iems.1.cell.c2_r.op.weight f4 [3, 3, 3, 3]
0	0x3e1264f4	0.14296323
1	0xbe160325	-0.14649637
2	0x3dcb46ac	0.09925589
3	0x3e125407	0.14289866
4	0x3dae69fb	0.08516308
5	0xbcde3ef7	-0.027129633
6	0x3e2c44bb	0.16823094
7	0xbdbacaf8	-0.091207445
8	0x3d8846bb	0.06654116
9	0xbe3c4a6f	-0.18387769
10	0xbe0e1f17	-0.13879047
11	0xbe2e6018	-0.17028844
12	0xbe1277ab	-0.14303462
13	0xbd961272	-0.07327737
14	0xbe2543ea	-0.16139188
15	0xbe01f24a	-0.12690082
16	0xbdc26c20	-0.094932795
17	0x3daead11	0.085291035
18	0x3e308a35	0.17240222
19	0x3dc495e1	0.095989
20	0xbda479c4	-0.080310374
21	0xbddfcc76	-0.1092767
22	0x3dc66dba	0.096888974
23	0xbde3db74	-0.11125842
24	0xbe1be4aa	-0.15223947
25	0xbd94e060	-0.07269359
26	0x3e30a576	0.17250618
27	0x3e1d3635	0.1535271
28	0xbe1e4f81	-0.15460016
29	0x3e3955b8	0.18099105
30	0xbdc71e4d	-0.09722576
31	0xbda05881	-0.07829381
32	0xbe2d89be	-0.16947076
33	0x3e20fba8	0.15720999
34	0x3e178e94	0.14800483
35	0x3e361bc7	0.17784034
36	0x3d715c9a	0.058926202
37	0xbd8ec32e	-0.06970821
38	0x3de37d97	0.11107939
39	0xbd364851	-0.04450256
40	0xbe2f6e3b	-0.17131893
41	0xbdc849ad	-0.097796775
42	0x3de0e0da	0.10980387
43	0xbe28563d	-0.16439147
44	0xbe38fa4b	-0.18064229
45	0x3e2e6a80	0.17032814
46	0xbe198770	-0.14993072
47	0x3d2faae2	0.042887576
48	0x3e397ffa	0.18115225
49	0x3d4d7fc8	0.05017069
50	0xbca3a458	-0.019975826
51	0x3d91dbd4	0.07122007
52	0x3e3b0e35	0.18267138
53	0xbe0476b0	-0.129359
54	0x3db49c24	0.08818844
55	0xbd9a3210	-0.0752908
56	0xbdf32d5b	-0.11873885
57	0xbc47d1a4	-0.012195978
58	0x3deb037f	0.11475276
59	0xbe1c1987	-0.15244113
60	0xbd3633f3	-0.044483136
61	0xbd439d41	-0.04775739
62	0x3dd66d9d	0.10470126
63	0x3d8998fe	0.06718634
64	0x3dbb284f	0.09138548
65	0x3e111d96	0.14171442
66	0x3dc9f4d7	0.098611526
67	0xbd9b5c6e	-0.07585989
68	0x3cadd1c7	0.021218194
69	0x3e0dd7f7	0.13851915
70	0x3de5e64b	0.112255655
71	0xbe070038	-0.13183677
72	0xbb08a351	-0.0020849297
73	0x3d9bb7c8	0.07603413
74	0x3d7ad2cc	0.061236188
75	0xbb724391	-0.0036966542
76	0xbc87285d	-0.016498739
77	0x3d9732f8	0.073827684
78	0xbda30eff	-0.07961845
79	0x3dee92f6	0.11649124
80	0xbe135a13	-0.1438983

enhance_net.iems.1.cell.c2_r.op.bias f4 [3]
0	0xbe23c1de	-0.15991923
1	0x3cdb5ee5	0.026778648
2	0x3cf1c507	0.029512895

enhance_net.iems.1.cell.c3_d.op.weight f4 [3, 3, 3, 3]
0	0x3d6d5731	0.05794448
1	0xbdf3771a	-0.11887951
2	0x3d5155eb	0.05110733
3	0xbe1f5861	-0.15561058
4	0x3db8ebaa	0.09029324
5	0x3def9898	0.11699027
6	0xbdb74739	-0.089491315
7	0x3d03490e	0.032052092
8	0x3def8583	0.11695387
9	0xbce87302	-0.028375152
10	0x3d938051	0.07202209
11	0xbdf01586	-0.11722855
12	0x3d408977	0.047006097
13	0x3d656f76	0.0560145
14	0x3d06204b	0.03274564
15	0xbdf8c290	-0.12146485
16	0x3bbd4075	0.005775506
17	0x3df2dfb6	0.11859076
18	0xbe1051f3	-0.14093761
19	0x3d5a350d	0.05327325
20	0xbda5d288	-0.08096796
21	0xbdb4ec36	-0.08834116
22	0xbdf77a1e	-0.12083839
23	0x3db9fa02	0.09080888
24	0x3e08fe15	0.13378175
25	0xbe2103bc	-0.15724081
26	0x3e14358a	0.14473549
27	0x3dda3f3e	0.10656594
28	0x3d21fa2f	0.039545234
29	0x3e068d3e	0.13139817
30	0x3d233c3b	0.039852362
31	0x3cff08fd	0.031132216
32	0x3dfca980	0.12337017
33	0xbc64ed08	-0.013972528
34	0x3e03764a	0.12838092
35	0xbc6f5491	-0.014607565
36	0x3e227c73	0.15867786
37	0x3c6e0fa9	0.014530101
38	0xbd8cbcd6	-0.06871955
39	0xbcf68393	-0.030092036
40	0xbe293649	-0.16524614
41	0xbdb7f9f4	-0.08983222
42	0x3cdcf560	0.026972473
43	0xbe2e04f0	-0.16994071
44	0xbe1c8104	-0.1528359
45	0x3d35c269	0.044374857
46	0x3d59caf4	0.053172067
47	0xbd9bf77e	-0.07615565
48	0x3e314a7b	0.17313568
49	0xbd85fe42	-0.065426365
50	0xbde0ddc7	-0.10979801
51	0x3d0b03c3	0.033939134
52	0x3dacc7a7	0.08436518
53	0xbdc45ad6	-0.09587638
54	0x3d3c7f75	0.04601999
55	0x3d4c70e0	0.049912333
56	0x3d9f8765	0.07789496
57	0x3cf5f764	0.030025192
58	0xbe365895	-0.17807229
59	0xbe311fae	-0.17297241
60	0x3e1e0878	0.15432918
61	0x3dccd9d1	0.10002483
62	0x3e32f2fb	0.17475502
63	0x3dc9275e	0.09821962
64	0x3d4bed62	0.049786933
65	0xbd5069f4	-0.050882295
66	0x3d8987e6	0.06715374
67	0x3da0402e	0.07824741
68	0xbdf04282	-0.11731435
69	0xbb6f9f21	-0.0036563354
70	0xbe3b968a	-0.18319145
71	0x3dac170c	0.08402833
72	0xbcf5d2eb	-0.0300078
73	0xbe0cff71	-0.13769318
74	0x3ddbf79a	0.107405856
75	0xbd4826a6	-0.048864983
76	0xbe02e455	-0.12782414
77	0xbc9f4e50	-0.019446522
78	0xbde4f087	-0.111786895
79	0x3c9dfc62	0.019285385
80	0x3d850255	0.064945854

enhance_net.iems.1.cell.c3_d.op.bias f4 [3]
0	0x3c19b276	0.009380927
1	0x3b919e38	0.00444391
2	0xbd00f017	-0.031478968

enhance_net.iems.1.cell.c4.op.weight f4 [3, 3, 3, 3]
0	0x3e07d22a	0.13263765
1	0x3e1ac0d6	0.15112624
2	0x3b479cd7	0.0030458474
3	0xbe1ecd61	-0.15508033
4	0x3db29dfa	0.08721538
5	0x3d94b78a	0.0726157
6	0x3db1934f	0.08670675
7	0xbd8c4404	-0.068489105
8	0x3da0b1d1	0.07846416
9	0x3e17f4ec	0.14839524
10	0x3e06c2d7	0.13160263
11	0xbe0f25eb	-0.13979308
12	0x3ceff75e	0.029292759
13	0xbe17ea81	-0.1483555
14	0xbe18c0e2	-0.14917329
15	0xbdf230ab	-0.11825689
16	0x3da9947d	0.08280275
17	0x3e05ed98	0.13078916
18	0xbe005043	-0.12530617
19	0xbcda26f4	-0.026629902
20	0x3d8aa126	0.06769018
21	0x3ddd1ae0	0.107961416
22	0x3dbeb0a8	0.09311038
23	0x3e08a9ee	0.13346073
24	0x3dec34bf	0.11533498
25	0xbdf4ac6c	-0.11946949
26	0x3da722bc	0.08160922
27	0x3cf966aa	0.030444462
28	0xbe1ce3c1	-0.15321256
29	0x3df579b2	0.11986102
30	0x3de6d9aa	0.11271985
31	0xbdfb6e26	-0.122768685
32	0xbbf7705f	-0.0075512375
33	0x3dbce149	0.09222657
34	0x3d4793e8	0.04872504
35	0x3e35cfb3	0.17755012
36	0xbe260307	-0.16212092
37	0xbd18dc6a	-0.03731958
38	0xbe4a84f6	-0.19777283
39	0x3e2bb7f0	0.16769385
40	0xbdf00d88	-0.11721331
41	0x3d9dae60	0.07699275
42	0x3dc72cb3	0.097253226
43	0xbd8ece17	-0.06972902
44	0xbe033473	-0.12812977
45	0x3e052f79	0.1300639
46	0x3e252d7c	0.16130632
47	0xbd301e7d	-0.042997826
48	0xbd374329	-0.044741783
49	0x3e0d0d9d	0.13774724
50	0xbb9c3f02	-0.0047682533
51	0xbe01bf89	-0.12670721
52	0x3dac845f	0.08423685
53	0xbe47500d	-0.1946413
54	0x3d0a3105	0.033738155
55	0xbe08d8c6	-0.13363943
56	0xbbdb3c3f	-0.0066905315
57	0xbd82fc79	-0.063958116
58	0xbda351ee	-0.07974611
59	0xbd9975e7	-0.07493191
60	0x3d46bd67	0.048520472
61	0x3d4dc7f9	0.050239537
62	0xbe1bccac	-0.15214795
63	0x3e35542f	0.17707895
64	0x3deec5ed	0.11658845
65	0xbe16aa2e	-0.14713356
66	0x3e3253cb	0.17414777
67	0xbd0b4a26	-0.03400626
68	0xbdf42c01	-0.119224556
69	0x3da2c8c9	0.07948453
70	0x3d17bc3d	0.037044752
71	0xbd9cdd09	-0.076593466
72	0x3d795ddd	0.06088053
73	0x3d80eef1	0.062955745
74	0x3d981f7d	0.07427881
75	0xbdf2a6ec	-0.11848244
76	0xbe2766e5	-0.16347845
77	0xbcdffcf5	-0.027342299
78	0xbe3435d8	-0.17598665
79	0x3d15fc18	0.03661737
80	0xbe39defa	-0.18151465

enhance_net.iems.1.cell.c4.op.bias f4 [3]
0	0xbceefdb2	-0.029173706
1	0x3e08477a	0.13308516
2	0xbe00536f	-0.12531827

enhance_net.iems.1.cell.c5.weight f4 [3, 12, 1, 1]
0	0xbd413aa0	-0.04717505
1	0x3e037ab9	0.12839784
2	0xbe481c46	-0.19542035
3	0xbe79310e	-0.24335119
4	0xbc6941c6	-0.014236873
5	0x3db592fe	0.08865927
6	0x3d92ebaa	0.071738556
7	0xbe27ba31	-0.1637962
8	0xbd912541	-0.07087184
9	0xbcb5f9a5	-0.022213766
10	0xbe8068d3	-0.25079975
11	0x3b682498	0.0035422202
12	0xbc85df81	-0.016341927
13	0xbe5a10d5	-0.21295483
14	0xbe06f716	-0.13180193
15	0x3e5abbb7	0.2136067
16	0x3e29c3e6	0.16578636
17	0xbe5919b0	-0.21201205
18	0x3dd3491b	0.10316678
19	0xbe8d8d7a	-0.27647
20	0xbe27d39e	-0.1638932
21	0x3d958058	0.0729987
22	0xbca56d7b	-0.020193806
23	0xbe3aa5d4	-0.18227321
24	0x3d77af53	0.060469937
25	0x3d91c370	0.07117355
26	0x3e63b7b2	0.22238043
27	0xbd3cd5eb	-0.046102446
28	0x3eaa5498	0.33267665
29	0x3e4c688a	0.19961753
30	0xbde4edaf	-0.11178147
31	0x3e5607d8	0.2090143
32	0xbe14c5d3	-0.14528589
33	0x3dadd63e	0.08488129
34	0x3de0f1af	0.109835975
35	0x3c01cd1c	0.007922437

enhance_net.iems.1.cell.c5.bias f4 [3]
0	0x3e4925d5	0.19643338
1	0x3e440cd9	0.19145526
2	0xbe2c6c4f	-0.16838191

enhance_net.iems.2.cell.c1_r.op.weight f4 [3, 3, 1, 1]
0	0x3e82bc31	0.25534204
1	0x3e5521fe	0.20813748
2	0xbe914e75	-0.2838017
3	0x3ed3604c	0.41284406
4	0x3d9a989e	0.07548641
5	0xbec2c4c6	-0.3804075
6	0x3ef06338	0.46950698
7	0x3e4f714b	0.20258062
8	0x3e964daf	0.29356143

enhance_net.iems.2.cell.c1_r.op.bias f4 [3]
0	0x3d450476	0.048099957
1	0x3e4c87f5	0.19973738
2	0x3d20307d	0.039108742

enhance_net.iems.2.cell.c2_d.op.weight f4 [3, 3, 3, 3]
0	0x3dfc98f7	0.12333863
1	0x3df72c4d	0.120689966
2	0x3cfdc153	0.030975973
3	0xbb9dbcef	-0.0048137824
4	0xbdd92462	-0.106026426
5	0x3d8f0721	0.069837816
6	0xbdb4d96b	-0.08830532
7	0x3d20debb	0.039274912
8	0x3da3ae34	0.07992211
9	0xbd93ad4a	-0.07210787
10	0xbc8cd2e4	-0.017190404
11	0xbdfb5792	-0.12272562
12	0xbd67f443	-0.05662943
13	0xbdb75399	-0.08951492
14	0xbd3424aa	-0.043980278
15	0x3e1192c0	0.14216137
16	0xbdd111cc	-0.102084726
17	0xbda7bfd6	-0.08190887
18	0xbdf37889	-0.11888225
19	0xbd648516	-0.055790983
20	0x3d7953de	0.060870998
21	0x3d842376	0.06452076
22	0x3e1e6b52	0.15470627
23	0x3d37690a	0.044777907
24	0x3dcdba07	0.100452475
25	0xbc748ab6	-0.014925649
26	0xbd808afd	-0.0627651
27	0xbe09402b	-0.13403384
28	0xbe13ff7f	-0.14452933
29	0xbc07011e	-0.008240012
30	0xbd2a1cd9	-0.041531418
31	0xbe4e8e8d	-0.20171566
32	0xbbf01218	-0.0073263757
33	0xbde28eaf	-0.11062371
34	0x3d4f7131	0.050645057
35	0x3d219507	0.039448764
36	0xbc3f2d78	-0.011668555
37	0xbbca2a30	-0.00616958
38	0xbc970377	-0.01843427
39	0x3bbd5a7f	0.0057786102
40	0xbd93e641	-0.07221652
41	0xbdad4495	-0.084603466
42	0xbd0ec9c8	-0.034860402
43	0x3d0d93c0	0.034564734
44	0xbd96090a	-0.07325943
45	0x3db47771	0.08811844
46	0xbd211d4a	-0.039334573
47	0x3dd92204	0.10602191
48	0x3db36331	0.08759154
49	0xbe10a52d	-0.1412551
50	0xbe183fc0	-0.14868069
51	0x3d9b2dbc	0.075770825
52	0xbe260835	-0.16214068
53	0x3dd09bef	0.10185992
54	0xbe4714f6	-0.1944159
55	0x3d5159c0	0.051110983
56	0xbd3a6592	-0.04550702
57	0xb92cd4a3	-0.00016482412
58	0x3da33a4f	0.07970106
59	0x3dc1a236	0.094547674
60	0xbda32ab5	-0.0796713
61	0xbe01d737	-0.12679754
62	0x3c7378a5	0.014860307
63	0xbd4c8c41	-0.049938444
64	0xbe50dd36	-0.20396885
65	0xbe668b95	-0.22514184
66	0xbe34d2d9	-0.17658557
67	0x3d6ac4af	0.05731648
68	0xbd5f3b30	-0.054499805
69	0xbc84d612	-0.016215358
70	0xbe1dfd9e	-0.15428779
71	0xbe03ca8b	-0.12870233
72	0x3ca1bcdc	0.019743375
73	0x3d9f4176	0.077761576
74	0xbe0fa397	-0.14027248
75	0xbe2bd683	-0.16781048
76	0xbd3573c6	-0.044299863
77	0xbd772f7b	-0.060348015
78	0xbdb9f0ad	-0.090791084
79	0xbe76dd2c	-0.24107808
80	0x3deefc3f	0.11669206

enhance_net.iems.2.cell.c2_d.op.bias f4 [3]
0	0xbcd34fef	-0.025794951
1	0x3bbf2d8d	0.0058342875
2	0xbe828843	-0.25494584

enhance_net.iems.2.cell.c2_r.op.weight f4 [3, 3, 3, 3]
0	0xbe24c2cc	-0.16089934
1	0x3dd627e1	0.10456825
2	0xbe12067f	-0.1426029
3	0xbc999ae6	-0.01875062
4	0xbcfe3da3	-0.03103525
5	0x3c85f79d	0.016353423
6	0xbe254839	-0.16140832
7	0x3d9a82a8	0.07544452
8	0xbcb82bde	-0.022481855
9	0x3d248543	0.04016615
10	0x3df0b3af	0.11753022
11	0xbe13093d	-0.14358993
12	0xbb9590a3	-0.004564361
13	0x3d196739	0.037451956
14	0xbda7b7d3	-0.081893586
15	0x3dc1f746	0.09470992
16	0x3dfd5031	0.12368811
17	0xbddad26b	-0.10684665
18	0xbd3c2372	-0.04593224
19	0x3d7b6f54	0.061385468
20	0xbdaa4196	-0.08313291
21	0xbe489409	-0.19587721
22	0x3e2dd961	0.16977455
23	0xbcabf280	-0.020989656
24	0x3dd35625	0.10319165
25	0x3d70caa7	0.058787014
26	0xbce30fdc	-0.027717523
27	0xbdad22fb	-0.084539376
28	0x3d337f64	0.04382266
29	0xbdc45901	-0.09587289
30	0x3cb7a646	0.022418153
31	0xbe2cbc6b	-0.16868751
32	0xbc5d8401	-0.013520242
33	0xbcdbab56	-0.026815098
34	0xbdb1af12	-0.0867597
35	0xbdd3f1a7	-0.10348826
36	0xbd4d651a	-0.050145246
37	0xbd7abc4f	-0.06121474
38	0x3dc3e136	0.0956444
39	0x3da614df	0.081094496
40	0xbe0c0ed9	-0.13677539
41	0xbd5b265b	-0.053503376
42	0x3e400a81	0.18754007
43	0xbdef352b	-0.11680063
44	0x3c2719bd	0.010199008
45	0x3dc08826	0.09400968
46	0xbe0f2a5a	-0.13981
47	0xbe16ae0b	-0.1471483
48	0x3da90b9a	0.08254166
49	0xbd9e2122	-0.07721163
50	0x3e1be0d8	0.1522249
51	0x3e09ce98	0.13457716
52	0x3e20ac8f	0.15690826
53	0xbdfddfd1	-0.12396205
54	0xbd770d01	-0.060315136
55	0x3dcde8fe	0.10054205
56	0xbe11a4f2	-0.14223078
57	0x3c9e9ab7	0.019360883
58	0x3dfb15eb	0.1226004
59	0x3d08b779	0.0333781
60	0x3da1d4bd	0.07901905
61	0xbdaa6957	-0.08320873
62	0xbadd4a8a	-0.0016883176
63	0xbde12853	-0.10994019
64	0x3d85c71b	0.06532117
65	0x3c489cc9	0.012244412
66	0x3df9b3f2	0.12192525
67	0xbd4b7900	-0.04967594
68	0xbde22a3a	-0.1104321
69	0x3e15cc60	0.14628744
70	0x3e0a5c6d	0.1351182
71	0x3d95cab1	0.07314051
72	0xbdec3db7	-0.11535209
73	0xbe08f99f	-0.13376473
74	0xbd63d847	-0.05562618
75	0xbe2b1255	-0.16706212
76	0xbc514997	-0.012773893
77	0x3dbf22c0	0.093328
78	0x3e154844	0.14578348
79	0xbd9f5d6f	-0.07781493
80	0xbe15e926	-0.1463972

enhance_net.iems.2.cell.c2_r.op.bias f4 [3]
0	0xbe5c6d8b	-0.21526162
1	0x3d9927a8	0.07478267
2	0x3e56a750	0.20962262

enhance_net.iems.2.cell.c3_d.op.weight f4 [3, 3, 3, 3]
0	0xbd565434	-0.052326396
1	0x3de818ed	0.11332879
2	0xbd43f74c	-0.047843263
3	0xbdd14641	-0.10218478
4	0x3cfcfe17	0.030882878
5	0xbd80cabd	-0.06288669
6	0xbd85f65f	-0.06541132
7	0x3e2823f3	0.16419964
8	0xbdad2b14	-0.08455482
9	0xbe38be5a	-0.18041363
10	0x3e19aaa8	0.15006506
11	0xbca109b0	-0.01965794
12	0xbd073f38	-0.033019274
13	0xbdb0481e	-0.08607505
14	0xbda76e9b	-0.08175393
15	0xbdf0e272	-0.11761941
16	0xbc2bd1c6	-0.010487026
17	0xbda925d3	-0.082591675
18	0x3e047cd6	0.12938246
19	0xbd8d2ae2	-0.06892945
20	0x3b9e685d	0.0048342184
21	0xbdec84e6	-0.11548786
22	0xbb7d8bfb	-0.0038688171
23	0xbd126cb8	-0.035748214
24	0x3a056f5b	0.00050901406
25	0xbdd623ea	-0.10456069
26	0xbcb8163b	-0.022471538
27	0xbc80a819	-0.015705155
28	0x3dca1208	0.098667204
29	0xbd14bfe9	-0.036315832
30	0x3d8b8a64	0.06813505
31	0x3e239350	0.15974164
32	0xbe081b75	-0.13291724
33	0xbc80f877	-0.015743477
34	0xbd3ff622	-0.04686559
35	0x3df1c475	0.11805049
36	0xbdccda38	-0.100025594
37	0x3ca9038a	0.02063157
38	0xbe3d0fda	-0.18463078
39	0xbe33b746	-0.17550382
40	0x3e00e6c6	0.12588033
41	0xbe301a2f	-0.17197488
42	0x3d49965d	0.049215663
43	0x3d8b1d33	0.06792679
44	0x3d247943	0.040154707
45	0xbd929847	-0.07157951
46	0xbd9cc8ae	-0.07655464
47	0xbdfe3268	-0.12411958
48	0xbe055f51	-0.13024642
49	0xbd63f01d	-0.05564891
50	0x3db8dea7	0.090268426
51	0xbdd5ad58	-0.10433453
52	0xbbe633f6	-0.007025237
53	0xbdb74ea0	-0.089505434
54	0xbceede2d	-0.029158676
55	0x3dddc380	0.10828304
56	0xbce471bd	-0.027886266
57	0xbe282c93	-0.16423254
58	0xbe295b8d	-0.1653883
59	0xbd52fa63	-0.05150832
60	0x3e15c7ac	0.1462695
61	0xbd9a0b60	-0.07521701
62	0xbe214ff3	-0.15753154
63	0xbd8931f9	-0.06698985
64	0xbd353116	-0.044236265
65	0x3df66c7f	0.12032413
66	0x3cb0e98b	0.021595737
67	0xbc2cb6fa	-0.010541672
68	0xbe0cb4b1	-0.13740803
69	0xbd524b2c	-0.05134122
70	0xbc806b4d	-0.015676165
71	0x3d14016c	0.03613417
72	0x3d2135da	0.039357997
73	0x3d46bff7	0.048522916
74	0xbcd17026	-0.025566172
75	0xbab34fc1	-0.0013680385
76	0x3ca28874	0.019840457
77	0x3e0a085f	0.13479756
78	0xbd857c1a	-0.06517811
79	0x3e097b99	0.13426055
80	0xbe316f45	-0.17327602

enhance_net.iems.2.cell.c3_d.op.bias f4 [3]
0	0x3d446644	0.04794909
1	0xbdbe0dbd	-0.09279964
2	0xbe49136e	-0.19636318

enhance_net.iems.2.cell.c4.op.weight f4 [3, 3, 3, 3]
0	0x3ce75543	0.028238898
1	0x3c8da31e	0.017289694
2	0xbd7ff068	-0.06248513
3	0xbbd4974a	-0.0064877616
4	0x3d1f11eb	0.038835447
5	0x3d866de6	0.0656393
6	0xbddac5f1	-0.106822856
7	0xbd659a9b	-0.056055646
8	0x3c5cd2f7	0.013478032
9	0x3e1c63e3	0.15272479
10	0x3df81e93	0.121152066
11	0xbd8e2b4b	-0.06941851
12	0x3c204db6	0.009784153
13	0x3ba29c26	0.004962462
14	0xbe20cdc1	-0.15703489
15	0x3d038010	0.03210455
16	0x3df81776	0.1211385
17	0x3e1762dd	0.14783807
18	0x3c098ced	0.008395416
19	0x3cd49390	0.02594927
20	0x3d346d6c	0.044049665
21	0x3df44d5f	0.1192882
22	0x3d77df31	0.060515586
23	0x3e27e91b	0.16397516
24	0x3e21e103	0.15808491
25	0x3d9c7506	0.07639508
26	0xbd96a6ab	-0.07356008
27	0xbe060205	-0.13086708
28	0x3d8371f0	0.06418216
29	0xbdda4a2e	-0.1065868
30	0xbbbbf6d4	-0.0057362113
31	0xbdf4b068	-0.11947709
32	0xbdc0e74f	-0.094191186
33	0x3e216e9d	0.15764852
34	0xbdca2741	-0.09870768
35	0xba42a31d	-0.00074248185
36	0xbdc8b611	-0.098003514
37	0xbdfc0668	-0.123059094
38	0xbd892370	-0.06696212
39	0xbe11c616	-0.1423572
40	0xbde5145a	-0.111855224
41	0xbd7e6125	-0.062104363
42	0x3d631432	0.05543918
43	0x3b937828	0.0045004077
44	0x3da03595	0.0782272
45	0x3dabd8c6	0.083909556
46	0x3d3dcf62	0.046340354
47	0x3b268fcc	0.00254153
48	0xbde24985	-0.11049179
49	0x3da4f5a9	0.080546685
50	0x3d5d353c	0.054005846
51	0xbe2f144a	-0.17097583
52	0x3db0fc9e	0.08641933
53	0xbe34dce0	-0.17662382
54	0x3ddacaa7	0.10683184
55	0x3e13a24f	0.14417385
56	0x3d8e3a5d	0.06944726
57	0xbe1a3e6b	-0.15062873
58	0xb8fa185a	-0.00011925465
59	0x3b352e42	0.002764598
60	0x3d33b893	0.043877196
61	0xbd24686b	-0.040138643
62	0xbe2132c3	-0.1574202
63	0xbd77852d	-0.06042974
64	0xbc1da0b3	-0.009620833
65	0x3d3bc4be	0.045841925
66	0x3e2cc794	0.16873008
67	0xbd3bf528	-0.045888096
68	0xbdaafc01	-0.08348847
69	0x3d132cd7	0.035931434
70	0xbe27672a	-0.16347948
71	0x3d91c8d9	0.07118387
72	0xbdc45edd	-0.09588406
73	0xbe040e66	-0.12896118
74	0xbe309800	-0.17245483
75	0x3e1307a0	0.14358377
76	0x3e116bcd	0.14201279
77	0x3d9fab10	0.077962995
78	0xbcf2321b	-0.029564908
79	0x3e111f58	0.14172113
80	0xbcebef60	-0.028800666

enhance_net.iems.2.cell.c4.op.bias f4 [3]
0	0x3c93bb03	0.01803351
1	0xbdaa0e25	-0.08303479
2	0x3e29fc5a	0.1660017

enhance_net.iems.2.cell.c5.weight f4 [3, 12, 1, 1]
0	0x3a45882a	0.00075352436
1	0xbb3e19e2	-0.0029007127
2	0x3b623302	0.0034515266
3	0x39564460	0.00020434102
4	0x39b37cfc	0.0003423466
5	0xbac7e3e8	-0.0015250416
6	0xbd4c269d	-0.049841512
7	0x3dc5ff72	0.09667863
8	0x3dfd78cb	0.12376555
9	0xba856c00	-0.0010179281
10	0xbd882829	-0.06648285
11	0xbb013122	-0.0019713123
12	0x3ab7ab1a	0.0014012784
13	0xbb951381	-0.004549444
14	0x3bdfdfc3	0.0068320944
15	0x393d59df	0.00018057924
16	0x39fba2f9	0.00047995875
17	0xbadb182e	-0.001671558
18	0xbdc1448a	-0.09436901
19	0x3e36f3ce	0.17866442
20	0x3e10f782	0.14156917
21	0xba12e4c7	-0.00056035485
22	0xbdb60a02	-0.088886276
23	0xbb60327b	-0.0034209776
24	0xba5a3256	-0.00083235407
25	0x3b0c0dd9	0.0021370559
26	0xbb11239b	-0.0022146467
27	0xb92014d0	-0.00015266542
28	0xb98b447c	-0.0002656317
29	0x3b411980	0.0029464662
30	0x3c926e19	0.017874764
31	0xbd7bbd4a	-0.061459817
32	0xbdc50b62	-0.09621312
33	0x380b3644	3.319072e-05
34	0x3d5a3766	0.05327549
35	0x3aa1c641	0.001234241

enhance_net.iems.2.cell.c5.bias f4 [3]
0	0xbfd22adf	-1.6419333
1	0xbfcdf79d	-1.609119
2	0xbfd38b4a	-1.6526883

denoise_net.stem.weight f4 [6, 3, 3, 3]
0	0x3cce8e14	0.025214233
1	0xbdf481de	-0.11938833
2	0x3e030cd6	0.12797865
3	0x3c4018db	0.011724676
4	0xbd1e6714	-0.03867252
5	0x3d16af2e	0.036788158
6	0xbe1aaaa7	-0.15104161
7	0xbe5a2f5e	-0.21307132
8	0xbd8c4700	-0.0684948
9	0x3a84b94b	0.0010126022
10	0x3df00ff5	0.117217936
11	0xbd18e6dd	-0.037329543
12	0x3d02f8ce	0.03197556
13	0xbd947741	-0.072493084
14	0x3da3a72f	0.07990872
15	0xbe7a4b37	-0.24442755
16	0xbd4908b8	-0.04908058
17	0x3cea5f21	0.028609814
18	0x3d0384fd	0.03210925
19	0xbdcfb49c	-0.101418704
20	0x3d482930	0.048867404
21	0xbd2e5f57	-0.042571392
22	0xbe485f72	-0.1956766
23	0xbdb40847	-0.08790641
24	0xbdfbf844	-0.12303212
25	0xbd631270	-0.055437505
26	0xbe4c684a	-0.19961658
27	0xbe0ae874	-0.13565236
28	0xbe731318	-0.23737752
29	0xbe6120d7	-0.21985184
30	0xbd2a794f	-0.041619595
31	0xbd6df786	-0.058097385
32	0x3da9b01a	0.08285542
33	0x3dafcac2	0.08583595
34	0x3de492d8	0.11160821
35	0x3e2c35ec	0.16817445
36	0xbe5a555e	-0.21321627
37	0xbda8f526	-0.08249883
38	0xbe6c9a70	-0.23105788
39	0xbd6702d8	-0.056399196
40	0x3e0952c2	0.13410476
41	0xbdd3d972	-0.10344209
42	0x3e12f122	0.14349797
43	0x3d8c0e5f	0.068386786
44	0xbd8e1828	-0.06938201
45	0xbe5af9db	-0.21384375
46	0xbdd0e1bd	-0.10199306
47	0xbeab8abd	-0.33504286
48	0x3e1ce9e7	0.15323602
49	0x3dbb6fbe	0.091521725
50	0x3dcb8ba5	0.099387445
51	0x3e2240d3	0.15845041
52	0x3d9c51cd	0.0763279
53	0xbd8ab8bb	-0.06773516
54	0x3d751b68	0.05984059
55	0x3d4d4a92	0.050119944
56	0xbe84cd8d	-0.25938073
57	0x3de9bf95	0.114134945
58	0x3d809763	0.06278875
59	0xbe972387	-0.29519293
60	0x3e0d3fed	0.13793917
61	0x3a176abf	0.0005776099
62	0xbe2ff756	-0.17184195
63	0xbe0d8d38	-0.13823402
64	0xbd0a8bb3	-0.033824634
65	0xbe65184d	-0.22372551
66	0xbcbadb00	-0.022809505
67	0x3d665ca2	0.056240685
68	0xbe4c2399	-0.19935454
69	0x3d5697dd	0.05239092
70	0x3d73cbf4	0.059520677
71	0xbd7aeb6e	-0.06125968
72	0xba8e85f7	-0.0010873665
73	0x3d086f5e	0.033309333
74	0x3d968d6d	0.073511936
75	0xbc327aa1	-0.010893495
76	0xbe129453	-0.14314394
77	0xbcccbf71	-0.02499363
78	0xbe473a63	-0.19455867
79	0x3c22f050	0.00994499
80	0x3e1c352a	0.15254655
81	0x3e8597a3	0.26092252
82	0x3db613b0	0.08890474
83	0xbe3cb4b2	-0.18428305
84	0x3eae8945	0.34089103
85	0x3dc477cd	0.09593163
86	0xbed3d9f5	-0.41377226
87	0x3d4b1eee	0.049590044
88	0xbd6f01e0	-0.058351398
89	0xbdda1aee	-0.10649668
90	0x3eac4ba5	0.33651462
91	0x3dc0635b	0.093939506
92	0xbe873e95	-0.26414934
93	0x3ed1ce18	0.4097755
94	0x3dc972b4	0.09836331
95	0xbf0ff4a3	-0.5623266
96	0x3db4f32c	0.08835444
97	0xbda2e74b	-0.07954272
98	0xbe053071	-0.1300676
99	0x3e8d87bc	0.2764262
100	0x3d88055d	0.06641648
101	0xbe4f58c4	-0.20248705
102	0x3ea6ed29	0.32602814
103	0x3e047fb0	0.12939334
104	0xbec9a04f	-0.39380118
105	0x3dd3300f	0.10311901
106	0xbd957cb9	-0.072991796
107	0xbe0e2d3f	-0.13884448
108	0xbd58250f	-0.052769717
109	0xbd483b61	-0.048884753
110	0xbd507195	-0.05088957
111	0xbd7834cd	-0.06059723
112	0xbdbc3c8c	-0.09191236
113	0xbeb15cc5	-0.3464109
114	0x3dd647e6	0.10462932
115	0x3e2050bd	0.15655799
116	0x3ecdb848	0.40179658
117	0xbd4401fd	-0.04785346
118	0xbd676983	-0.05649711
119	0xbde360e7	-0.11102467
120	0xbce2cc1b	-0.027685216
121	0xbd951085	-0.072785415
122	0xbead63d0	-0.33865213
123	0x3df43379	0.1192388
124	0x3e382a47	0.17984878
125	0x3ee07310	0.43837786
126	0xbd5a1de6	-0.05325117
127	0xbd1fe112	-0.039033003
128	0xbd56257b	-0.052281838
129	0xbdaf7f90	-0.085692525
130	0xbe05acce	-0.13054201
131	0xbeb290a6	-0.34875983
132	0x3e06d3ce	0.13166735
133	0x3e5b4d87	0.21416293
134	0x3ec48a19	0.3838661
135	0xbcc9a8d1	-0.02461663
136	0x3e5359d0	0.2063973
137	0x3e03002c	0.12793034
138	0xbdcdc8b1	-0.100480445
139	0x3e2772cd	0.16352387
140	0xbe019f3b	-0.12658398
141	0xbdf4d005	-0.11953739
142	0xbd70cb5b	-0.058787685
143	0x3d0e99e8	0.034814745
144	0xbc2bb4e3	-0.0104801385
145	0x3dd30d4c	0.103052706
146	0x3dfeb3f7	0.12436669
147	0xbe2603ac	-0.16212338
148	0x3db00dd9	0.08596391
149	0xbe402754	-0.18765002
150	0xbdf36381	-0.11884213
151	0xbe0410a8	-0.12896979
152	0x3d347f66	0.04406681
153	0xbcae6336	-0.021287542
154	0x3e7aadb8	0.24480331
155	0x3e3eb009	0.1862184
156	0xbdc8126e	-0.0976914
157	0x3e545cd4	0.20738536
158	0xbd4819c7	-0.04885271
159	0xbe234bf0	-0.15946937
160	0xbda4ad22	-0.08040835
161	0x3cdf6675	0.027270535

denoise_net.stem.bias f4 [6]
0	0xbbff6aff	-0.0077947374
1	0x3ce182d3	0.027528202
2	0x3d825357	0.06363552
3	0x3ea7e1ef	0.3278956
4	0x3e206347	0.15662871
5	0x3e1d7a2f	0.1537864

denoise_net.nrms.0.c1_d.op.weight f4 [6, 6, 1, 1]
0	0xbd0911d6	-0.033464275
1	0x3ea33a90	0.31880617
2	0x3e824b16	0.2544791
3	0x3d8bed92	0.06832422
4	0xbe349451	-0.17634703
5	0xbe55341c	-0.2082066
6	0xbdc69283	-0.09695914
7	0x3dea604f	0.11444151
8	0xbbab6255	-0.005230228
9	0xbe0bcb45	-0.1365176
10	0x3dd9b313	0.10629859
11	0xbe9acd91	-0.3023496
12	0xbeb87778	-0.36028647
13	0x3e1232e1	0.14277221
14	0xbe0ef10b	-0.13959138
15	0x3ebd5c66	0.36984557
16	0x3e2155f7	0.15755449
17	0xbd867cb3	-0.06566753
18	0xbec8b9d3	-0.39204273
19	0x3e0064fb	0.12538521
20	0xbd1a776a	-0.03771154
21	0x3e4727c1	0.19448759
22	0xbc075fbd	-0.008262572
23	0xbe6a53f5	-0.2288359
24	0xbdcce8f0	-0.10005367
25	0x3ddf7f00	0.10912895
26	0x3e12decd	0.14342804
27	0xbe90d4ea	-0.2828744
28	0xbe7fc879	-0.24978818
29	0x3ec3271e	0.38115782
30	0xbe98f367	-0.298732
31	0xbebaa28d	-0.3645214
32	0x3e62f319	0.22163047
33	0xbe7651e2	-0.24054673
34	0xbd52eaf4	-0.0514936
35	0xbe45347e	-0.19258305

denoise_net.nrms.0.c1_d.op.bias f4 [6]
0	0xbd957f60	-0.072996855
1	0x3ebad4c7	0.3649046
2	0xbe46ce56	-0.19414648
3	0x3dab96c8	0.083783686
4	0xbebc9d68	-0.3683884
5	0xbcf936d4	-0.030421652

denoise_net.nrms.0.c1_r.op.weight f4 [6, 6, 1, 1]
0	0x3e013b1a	0.12620202
1	0xb98d8dca	-0.00026999257
2	0x3b585ca2	0.0033014198
3	0x3eaebd9e	0.3412904
4	0x3d9c27ea	0.076248005
5	0x3d778ce7	0.06043711
6	0xbe8b43ef	-0.27200267
7	0x3e7ec9af	0.24881624
8	0x3dae8ee2	0.085233465
9	0xbe107eb8	-0.1411084
10	0xbd13235f	-0.035922404
11	0x3e0b509f	0.13604973
12	0xbdd0ef7b	-0.10201927
13	0xbe877b56	-0.26461285
14	0xbdd530a1	-0.10409666
15	0xbeb3fdd4	-0.35154593
16	0xbe87bde0	-0.2651205
17	0x3e05bacc	0.13059539
18	0xbe5a6fbd	-0.21331687
19	0x3d79240a	0.060825385
20	0x3eb98840	0.36236763
21	0x3df4c1eb	0.119510494
22	0x3df626f2	0.12019147
23	0xbef42fd3	-0.47692737
24	0xbe3b5889	-0.18295492
25	0x3e456ae1	0.19279052
26	0x3e07e8d0	0.13272405
27	0xbe1f540d	-0.15559407
28	0xbeeafe1a	-0.4589699
29	0xbea296e4	-0.31755745
30	0xbd525cd0	-0.051358044
31	0x3d8f92d9	0.07010431
32	0xbcd11d63	-0.025526708
33	0x3f0646d7	0.52451843
34	0x3e9c5917	0.3053672
35	0x3d835e12	0.06414427

denoise_net.nrms.0.c1_r.op.bias f4 [6]
0	0xbd335b8c	-0.043788478
1	0xbe5c7313	-0.21528272
2	0xbe6a34c5	-0.22871692
3	0xbea616c6	-0.3243925
4	0x3de86fd0	0.113494515
5	0x3eb111c9	0.34583881

denoise_net.nrms.0.c2_d.op.weight f4 [6, 6, 3, 3]
0	0xbd127ef1	-0.035765592
1	0xbdc5d424	-0.09659603
2	0xbde892a7	-0.11356097
3	0xbdb84b3d	-0.089987256
4	0x3d149e54	0.036283806
5	0xbc4fedca	-0.012690971
6	0xb874471e	-5.8240366e-05
7	0x3d21eaa0	0.039530396
8	0x3cee0441	0.029054763
9	0x3e028e44	0.12749583
10	0x3dce9085	0.10086159
11	0x3d178ee1	0.037001494
12	0xbc90d5ab	-0.01768001
13	0xbdd16ed0	-0.10226214
14	0x3dab924b	0.083775125
15	0x3d42fc95	0.047604162
16	0xbd85b555	-0.06528727
17	0xbd9bf28b	-0.07614621
18	0x3dcf9995	0.10136715
19	0xbd137efc	-0.036009774
20	0xbcdc5198	-0.026894376
21	0xbc652cb2	-0.013987707
22	0xbd9f9f82	-0.077940956
23	0xbd15e50e	-0.036595397
24	0xbdc24a01	-0.094867714
25	0x3a404fe8	0.0007336126
26	0x3dc87e6b	0.09789737
27	0x3e2c3e1e	0.16820571
28	0x3d2f4bf2	0.042797036
29	0xbe915804	-0.28387463
30	0x3e054801	0.13015749
31	0xbd89d220	-0.06729531
32	0xbf1decc7	-0.6168942
33	0x3d62f7ea	0.05541221
34	0xbce74040	-0.028228879
35	0xbdd3696f	-0.10322844
36	0x3dbc23db	0.091865264
37	0xbdd46ca2	-0.103722826
38	0xbce1feae	-0.027587261
39	0x3cb9e6c1	0.02269304
40	0x3d6934f3	0.056935262
41	0x3d4c9007	0.049942043
42	0x3bb68bdb	0.0055708713
43	0x3d58eb28	0.052958637
44	0x3d9a24f2	0.07526578
45	0xbd8d6e13	-0.069057606
46	0xbc5712fe	-0.013127087
47	0x3d063014	0.032760695
48	0xbccfdba7	-0.025373293
49	0x3da76f30	0.08175504
50	0x3eb690af	0.3565726
51	0x3d31b5e3	0.04338635
52	0x3c5896e0	0.013219565
53	0x3d3760f3	0.044770192
54	0x3c4efb80	0.012633204
55	0x3dcb2faa	0.099212006
56	0x3dc17ad1	0.094472535
57	0xbd355594	-0.044271067
58	0xbdfc8fcc	-0.123321146
59	0xbe00cde9	-0.12578548
60	0x3db9ed61	0.090784796
61	0x3de621df	0.11236929
62	0xbd8eec73	-0.06978693
63	0xbd325eb9	-0.043547366
64	0x3d923794	0.07139507
65	0x3e1a0c5b	0.15043776
66	0x3d633eed	0.055479933
67	0xbcd1e3bc	-0.025621288
68	0xbc11c366	-0.008896684
69	0xbd228dba	-0.039685942
70	0x3d16e2e6	0.03683748
71	0x3ce27cf2	0.02764747
72	0xbdd237bd	-0.102645375
73	0x3df8f954	0.121569306
74	0x3c3e2f57	0.011607966
75	0xbde25725	-0.11051778
76	0x3dbc1826	0.091842934
77	0xbd8d2de1	-0.06893516
78	0xbda3deb1	-0.080014594
79	0x3d28493d	0.04108547
80	0x3a7b5af5	0.0009588444
81	0xbddff297	-0.10934942
82	0x3e4826b9	0.19546022
83	0x3d74e470	0.059788167
84	0xbe2c8574	-0.16847783
85	0x3d48cc6b	0.049023073
86	0xbe5fa6ad	-0.21840926
87	0xbc1e130d	-0.009648097
88	0x3e19ba84	0.15012556
89	0x3d7f01ac	0.062257454
90	0xbd666730	-0.05625075
91	0xbcdcd070	-0.02695486
92	0xbdec187e	-0.11528109
93	0xbe139599	-0.14412536
94	0xbb8ada63	-0.0042374595
95	0x3e3affda	0.18261662
96	0x3c3ce215	0.0115285115
97	0xbd8118a9	-0.06303532
98	0xbce9298e	-0.028462198
99	0xbbbf1404	-0.0058312435
100	0xbcf04828	-0.029331282
101	0x3d9814ea	0.07425864
102	0x3d0e27cb	0.03470592
103	0xbd246cbe	-0.040142767
104	0x3e6e6580	0.23280907
105	0xbc744838	-0.014909796
106	0xbd9d6972	-0.07686128
107	0x3e0f5ec4	0.14000994
108	0xbddce7c5	-0.10786394
109	0x3dbde061	0.092713125
110	0xbc2e0f37	-0.010623745
111	0x3d54ae4b	0.05192403
112	0x3d87b07a	0.06625457
113	0xbdda893d	-0.106707074
114	0xbdbb9991	-0.0916015
115	0x3d8e2aeb	0.0694178
116	0xbc85dda6	-0.016341042
117	0x3d62a776	0.055335484
118	0x3c364a9f	0.0111261895
119	0xbd956391	-0.072943814
120	0x3da79717	0.08183115
121	0x3e0a676c	0.13516015
122	0x3c97a7a6	0.018512558
123	0x3d05b7c3	0.032645952
124	0x3b99a298	0.004688572
125	0x3d681415	0.056659777
126	0x3c1310ed	0.008976203
127	0x3d712546	0.058873437
128	0xbd446649	-0.04794911
129	0xbdb1c433	-0.0868
130	0x3c970129	0.01843317
131	0xbcb7f9d7	-0.022458
132	0x3dc876e7	0.09788304
133	0x3e016b53	0.12638597
134	0xbcf8feca	-0.03039493
135	0x3e8e7167	0.27820894
136	0x3e9b03ad	0.30276242
137	0xbe40e601	-0.1883774
138	0x3e76d771	0.24105622
139	0x3df84adf	0.121236555
140	0xbe9cc5d4	-0.3061968
141	0x3e058d3a	0.13042155
142	0x3db98a79	0.09059615
143	0xbe4bc0fa	-0.19897833
144	0xbc92a5eb	-0.017901381
145	0x3c696a82	0.014246585
146	0xb9c5e81d	-0.00037747706
147	0xbd191d42	-0.037381418
148	0xbdbaf69c	-0.09129068
149	0xbd5c0bc6	-0.053722166
150	0xbcdf5abc	-0.027264945
151	0xbbaaa95d	-0.005208178
152	0x3d6a2599	0.057164762
153	0xbceccd4f	-0.028906493
154	0xbe3722ba	-0.17884341
155	0xbc2b5ff8	-0.010459892
156	0xbb4b19c8	-0.0030990709
157	0xbe492076	-0.19641289
158	0x3df479e9	0.11937315
159	0xbcf57f92	-0.029968057
160	0xbd879d4a	-0.066217974
161	0x3da6adf5	0.081386484
162	0xbde5b532	-0.11216201
163	0x3d878197	0.06616514
164	0xbc931d46	-0.017958295
165	0xbd7eac98	-0.062176317
166	0x3daf6dc3	0.08565857
167	0xbdada2d6	-0.08478324
168	0xbddb270a	-0.107008055
169	0x3ca076df	0.019587932
170	0xbc1cacfd	-0.009562728
171	0x3e1cf41d	0.15327497
172	0x3df16ff7	0.11788934
173	0xbd473b94	-0.048640803
174	0x3c87972f	0.016551582
175	0x3d91f2c6	0.071263835
176	0xbd5343ae	-0.051578216
177	0xbdd98f09	-0.10622985
178	0x3d8e0244	0.06934026
179	0xbda140d8	-0.07873696
180	0x3d673424	0.05644621
181	0x3ddccbaf	0.10781037
182	0x3c60c9f9	0.013720029
183	0xbcfc9212	-0.03083137
184	0x3d97a1c8	0.07403904
185	0x3dfddf31	0.12396086
186	0xbd1076f6	-0.0352697
187	0x3dd9a593	0.10627284
188	0xbbc4ce32	-0.0060060257
189	0x3db618a6	0.0889142
190	0x3ae428b5	0.0017407151
191	0xbdaa0148	-0.08301026
192	0xbc87ffec	-0.016601525
193	0xbda795c9	-0.08182866
194	0xbcf25679	-0.029582249
195	0x3b81d708	0.0039624013
196	0x3d6aecba	0.057354666
197	0x3e2c0135	0.16797335
198	0x3da53dd6	0.08068435
199	0xbd9db80b	-0.07701119
200	0xbdcb7a50	-0.09935439
201	0xbdf5ff56	-0.12011592
202	0x3cc4dbd0	0.024030596
203	0x3d24da39	0.040247176
204	0xbdaf8e7c	-0.085720986
205	0x3d8cdc49	0.068779536
206	0x3d94d074	0.07266322
207	0x3d834fdd	0.06411717
208	0x3d0239ff	0.03179359
209	0x3c250a95	0.010073324
210	0xbcc00506	-0.023439895
211	0x3e04531a	0.12922326
212	0x3d697ec2	0.05700565
213	0x3c87850f	0.01654294
214	0xbdebda2f	-0.115162246
215	0xbe1dac68	-0.15397799
216	0xbd6b117d	-0.057389725
217	0x3d3ab731	0.04558486
218	0xbddaf548	-0.10691315
219	0xbdccf150	-0.10006964
220	0x3d446a11	0.047952715
221	0xbdaa7d64	-0.083246976
222	0x3c6e2099	0.014534139
223	0xbd2ed997	-0.04268798
224	0xbd2522b3	-0.040316295
225	0x3e2d7760	0.16940069
226	0x3d0340ba	0.03204415
227	0x3e548db2	0.20757177
228	0xbd8f29fe	-0.06990431
229	0xbdc91f89	-0.09820468
230	0x3c9187db	0.017764976
231	0x3ca28d1b	0.019842675
232	0xbdfc94b1	-0.12333048
233	0x3d1567a8	0.036475807
234	0x3ce2c468	0.027681544
235	0x3d862c6a	0.0655144
236	0xbb941f24	-0.004520314
237	0x3df236bc	0.11826846
238	0x3d800466	0.06250839
239	0xbdcb1b06	-0.09917264
240	0xbd178ac3	-0.036997568
241	0x3d704f43	0.05866934
242	0xbcfdbd80	-0.03097415
243	0xbd4a1b1f	-0.04934227
244	0x3d66e1b3	0.056367587
245	0x3e0359c8	0.12827218
246	0x3d76ec31	0.060283843
247	0xbe00bf39	-0.12572946
248	0xbcd98533	-0.026552772
249	0x3d1b0923	0.03785051
250	0x3dc53ab3	0.096303366
251	0xbbea2584	-0.0071455855
252	0xbdf7f99a	-0.121081546
253	0xbec715a9	-0.38883713
254	0xbe0cd3a5	-0.13752611
255	0x3d4c181c	0.04982768

denoise_net.nrms.0.c2_d.op.bias f4 [6]
0	0x3daa1a3d	0.08305786
1	0x3d3e7814	0.046501234
2	0xbd46c7d4	-0.048530415
3	0x3d5b5c05	0.053554554
4	0x3d9bbb5b	0.076040946
5	0x3d10e978	0.035378903

denoise_net.nrms.0.c3_d.op.weight f4 [6, 6, 1, 1]
0	0x3e9ea834	0.30987704
1	0xbeb0ce4c	-0.34532392
2	0xbe137cd9	-0.14403094
3	0x3e7c63a4	0.24647385
4	0x3ebdd4f4	0.37076533
5	0x3ea07854	0.31341803
6	0x3eb05c93	0.3444563
7	0x3e92191d	0.28534785
8	0xbe7adf07	-0.2449914
9	0xbd05f4ab	-0.032704037
10	0x3de1bfd4	0.110229164
11	0x3e14755c	0.14497894
12	0xbebf0eba	-0.37315923
13	0x3c807f61	0.015685739
14	0x3e5a66ee	0.21328327
15	0x3e45a693	0.19301824
16	0x3e4c5d02	0.19957355
17	0x3ce2944b	0.027658602
18	0x3e09b36d	0.13447352
19	0x3dc22893	0.09480395
20	0x3e520929	0.20511307
21	0xbe3640aa	-0.17798105
22	0x3e339253	0.17536287
23	0xbe219517	-0.1577953
24	0xbda12322	-0.07868029
25	0x3e8605c4	0.26176274
26	0xbebe7697	-0.37199852
27	0x3cac5c68	0.021040156
28	0x3e6ff610	0.23433709
29	0x3e160e16	0.14653811
30	0x3e1b9a61	0.1519561
31	0x3e6173f9	0.22016896
32	0x3a79c5e2	0.0009528083
33	0xbda29317	-0.079382114
34	0xbe54c093	-0.20776586
35	0x3d5a232d	0.053256202

denoise_net.nrms.0.c3_d.op.bias f4 [6]
0	0x3e4e60df	0.20154141
1	0xbbbcc128	-0.0057603307
2	0x3db522db	0.08844539
3	0x3e986020	0.29760838
4	0x3e027bde	0.12742564
5	0xbeca2eea	-0.39488918

denoise_net.nrms.0.c3_r.op.weight f4 [6, 6, 1, 1]
0	0x3e90b55d	0.2826337
1	0x3eb68616	0.35649174
2	0xbc8822f5	-0.016618231
3	0xbeaaa3e4	-0.33328164
4	0xb88a9a02	-6.609039e-05
5	0xbec2d193	-0.38050517
6	0x3ea6d608	0.32585168
7	0xbd8c5de3	-0.06853845
8	0xbeaf3408	-0.34219384
9	0x3eae34f4	0.34024775
10	0x3cef91e1	0.029244365
11	0x3e98e74b	0.29863963
12	0xbd38fa39	-0.045160506
13	0xbeb93019	-0.36169508
14	0x3ebe2ed7	0.3714511
15	0x3ee3cd65	0.4449264
16	0xbdb55e6c	-0.088559
17	0xbeb9bfc9	-0.36279133
18	0x3eb38dcc	0.3506912
19	0xbe8bc337	-0.27297375
20	0xbe83aae3	-0.25716314
21	0xbea92b92	-0.33041054
22	0x3cdd1392	0.02698687
23	0x3d52f123	0.051499497
24	0xbe6c08fa	-0.230503
25	0xbe849205	-0.25892654
26	0x3eb75651	0.35808042
27	0xbe3443d5	-0.17604001
28	0x3e83f7c7	0.25774977
29	0x3e97530a	0.2955554
30	0xbdbf76d2	-0.09348835
31	0x3d46bb98	0.048518747
32	0x3e865ddc	0.26243484
33	0xbdb3ea01	-0.08784867
34	0x3e627c9f	0.22117852
35	0xbedff00d	-0.43737832

denoise_net.nrms.0.c3_r.op.bias f4 [6]
0	0x3e4fdcd3	0.20299082
1	0xbe091335	-0.13386233
2	0x3d970cf2	0.07375516
3	0xbd92275b	-0.07136413
4	0xbe5d96a6	-0.21639499
5	0xbe3ed509	-0.18635954

denoise_net.nrms.0.c5.weight f4 [6, 24, 1, 1]
0	0xbdd36874	-0.10322657
1	0x3de8abcf	0.11360895
2	0x3e402093	0.18762426
3	0xbda05bc4	-0.07830003
4	0xbdf919ce	-0.12163125
5	0x3cc5289f	0.024067221
6	0xbdff1f1f	-0.12457108
7	0xbdb1bb17	-0.08678263
8	0x3cb8fc3f	0.022581218
9	0xbdf07074	-0.11740199
10	0xbd47b466	-0.048756026
11	0x3db78155	0.08960215
12	0xbe9b7976	-0.30366105
13	0x3d5f4059	0.054504726
14	0xbd2dd11b	-0.042435747
15	0xbe07409d	-0.13208242
16	0xbe3bf261	-0.18354179
17	0x3cde3ee8	0.027129605
18	0xbdfe5d01	-0.12420083
19	0xbdcb10ae	-0.09915291
20	0x3e700cb2	0.23442343
21	0xbcd8c527	-0.026461197
22	0xbe515000	-0.20440674
23	0x3c6288de	0.013826577
24	0xbc870bb6	-0.016485076
25	0xbdc2734b	-0.09494647
26	0xbc918108	-0.017761722
27	0xbe0e5b58	-0.13902032
28	0x3dc03464	0.09384993
29	0x398c46e3	0.00026755696
30	0xbe7e1e44	-0.24816233
31	0xbc30694d	-0.010767293
32	0x3e812e1c	0.2523049
33	0xbcfcb244	-0.030846722
34	0x3c7b7bf5	0.015349378
35	0xbe5d4041	-0.21606542
36	0xbe282022	-0.16418508
37	0xbc859570	-0.016306609
38	0xbdabb45e	-0.08384012
39	0xbd8c9b24	-0.06865528
40	0x3e103e1a	0.1408619
41	0x3d53d72e	0.051718883
42	0xbea19647	-0.31559965
43	0xbe34d4f0	-0.17659354
44	0x3dbdfa67	0.09276276
45	0xbd94022c	-0.07226977
46	0xbe167569	-0.14693226
47	0xbe5e0f62	-0.21685556
48	0xbe1eb291	-0.15497805
49	0xbcf68ead	-0.03009733
50	0x3d9eb4c3	0.07749321
51	0x3da50847	0.080582194
52	0xbe038b75	-0.12846167
53	0xbc592d9c	-0.013255503
54	0xbe144fd3	-0.14483576
55	0xbd38a7a4	-0.04508175
56	0x3de8fd9b	0.113764964
57	0xbc05433d	-0.008133707
58	0x3e756228	0.23963225
59	0xbdc2104b	-0.09475764
60	0xbe4fe6cf	-0.2030289
61	0xbdaa69e3	-0.083209775
62	0x3a687e50	0.00088689197
63	0x3dd3276a	0.10310252
64	0x3d32ebde	0.04368197
65	0x3bbd1303	0.0057700886
66	0xbe309c71	-0.17247178
67	0xbeb9de47	-0.36302397
68	0xbc99c06f	-0.018768517
69	0x3bd8b5e2	0.006613479
70	0x3e983f6a	0.2973588
71	0xbe9c57c9	-0.30535725
72	0xbc7b4968	-0.015337326
73	0x3d16b58e	0.036794238
74	0x3da98228	0.082767785
75	0x3e4d95da	0.20076695
76	0x3e6aa25a	0.22913495
77	0xbc623b87	-0.013808138
78	0xbea6938c	-0.32534444
79	0xbe424681	-0.18972208
80	0x3e6ca931	0.23111416
81	0xbe48d97e	-0.19614217
82	0xbe9495b7	-0.29020473
83	0xbe066078	-0.13122737
84	0xbd21c483	-0.03949405
85	0xbda56c3b	-0.08077284
86	0x3e1c9ecc	0.15294951
87	0xbe120ceb	-0.1426274
88	0xbd649725	-0.055808205
89	0xbe97e189	-0.29664257
90	0xbdde4b05	-0.108541526
91	0xbd1b019d	-0.037843335
92	0x3e3643c4	0.17799288
93	0xbe274acf	-0.16337131
94	0xbe0c3306	-0.13691339
95	0xbcbf04a1	-0.023317637
96	0x3e1d855e	0.15382907
97	0xbe0407ac	-0.12893552
98	0xbe1f2350	-0.15540814
99	0x3e4281b4	0.1899479
100	0xbd0790be	-0.03309702
101	0xbd5e3f35	-0.054259498
102	0xbce87d84	-0.028380163
103	0x3dd567dc	0.104202
104	0x3d54a843	0.05191828
105	0xbd819a25	-0.06328229
106	0xbc187590	-0.009305373
107	0xbe41e784	-0.18935972
108	0xbe0356e6	-0.12826118
109	0x3d12d92f	0.035851654
110	0xbd17567f	-0.036947723
111	0xbda2a215	-0.07941071
112	0xbe3f5d80	-0.18688011
113	0xbe78ead4	-0.2430833
114	0x3dd00314	0.10156837
115	0xbe082829	-0.1329657
116	0xbdc2d537	-0.09513324
117	0xbdd7110b	-0.105012976
118	0xbd65cc69	-0.056103144
119	0xbe4fcdac	-0.20293301
120	0x3e22db02	0.15903857
121	0xbde5bdce	-0.11217843
122	0xbe382b2e	-0.17985222
123	0xbe875745	-0.2643377
124	0xbde1d235	-0.11026422
125	0x3c55da9e	0.013052611
126	0x3ecbf18b	0.3983272
127	0x3e7f7d47	0.24950133
128	0xbefed316	-0.4977042
129	0x3ddf5968	0.10905725
130	0x3ed64fff	0.41857907
131	0x3df17603	0.11790087
132	0xbe282090	-0.16418672
133	0xbe1558b0	-0.14584613
134	0x3df740de	0.12072919
135	0xbe606538	-0.21913612
136	0xbd5adaeb	-0.053431433
137	0xbc46c38a	-0.012131581
138	0xbdeb7e47	-0.11498695
139	0xbe57fb42	-0.21091941
140	0xbeb13eac	-0.34618127
141	0x3c26515c	0.0101512335
142	0x3c53c973	0.012926447
143	0xbe03cd67	-0.12871324

denoise_net.nrms.0.c5.bias f4 [6]
0	0xbe047515	-0.12935288
1	0x3deb51c6	0.114902064
2	0xbe449878	-0.19198787
3	0xbe4fa4fc	-0.2027778
4	0xbc905d76	-0.01762269
5	0xbe76062f	-0.24025796
