ckpt/upe.pt (torch_old, 31374 bytes, 76 tensors)

enhance_net.iems.0.cell.c1_r.op.weight f4 [3, 3, 1, 1]
000000 1e 3e 06 3e 06 10 0b be 1d 74 20 3e 27 5d f4 bc
       0.13109633 -0.13580331 0.15669294 -0.029829575
000010 52 41 79 3e 92 b9 0a 3e ff 93 87 bd 39 ab ec be
       0.24341324 0.13547352 -0.06620025 -0.46224383
000020 0b 05 05 3e
       0.12990205

enhance_net.iems.0.cell.c1_r.op.bias f4 [3]
000000 7d 67 01 bf 40 cc 95 3d 8b 7f 14 3d
       -0.50548536 0.07314348 0.036254447

enhance_net.iems.0.cell.c2_d.op.weight f4 [3, 3, 3, 3]
000000 13 b1 2a bd 9c 87 1f 3e 92 c3 51 3c 9c 08 a2 3d
       -0.041672777 0.15579075 0.012802975 0.07911798
000010 ef 4f a5 3d da d2 e5 bd cf bc 95 bd e1 88 3b 3e
       0.08071887 -0.11221857 -0.07311403 0.18313934
000020 ec e2 3e be cf 2b 4b bc a3 ca 6f bc a6 ac 0a 3e
       -0.18641251 -0.0124005815 -0.014635715 0.13542423
000030 7c ec 8f bc 04 59 4f 3d 1f 64 0f bc 33 90 d9 bd
       -0.01756882 0.050622 -0.008751898 -0.10623207
000040 09 45 dc bd ea c7 bc bd 87 c4 30 be d0 7c fc bd
       -0.10755355 -0.09217818 -0.17262469 -0.123284936
000050 6c 74 38 3d 60 99 00 3e 0f 39 1e 3c 6c 42 b2 bd
       0.045032904 0.12558508 0.0096571585 -0.08704075
000060 11 c5 ab 3d 36 3d 95 bd 8e f9 2b bd 59 7d d6 bd
       0.08387197 -0.07287066 -0.04198604 -0.10473127
000070 40 76 76 bd 71 d5 34 be ce af a5 3d af e5 96 3d
       -0.060171366 -0.17659546 0.08090173 0.073680274
000080 9c 5a 1a 3d 31 4a bf 3d 84 29 a5 3d f7 68 0a 3c
       0.037684068 0.09340323 0.08064559 0.008447877
000090 aa 03 9b 3c f7 0c 5a 3c ba 03 ce 3d 78 ac 01 3e
       0.018922646 0.013308755 0.100593045 0.12663448
0000a0 dc c9 0a 3e fd 1b e0 3d 89 6c 41 bd 1a 00 16 bc
       0.13553566 0.10942838 -0.047222648 -0.009155298
0000b0 7a ba 20 bd c0 55 e1 3d ff 87 a7 3c 4a ce 33 3e
       -0.039240338 0.11002684 0.02045059 0.17559162
0000c0 56 44 c4 3d d5 44 27 be 83 d5 61 3d e0 d0 3a 3e
       0.095833465 -0.16334851 0.05513526 0.18243742
0000d0 60 b0 2c 3e 43 a2 5a bb f0 e4 80 3d 65 f8 36 be
       0.16864157 -0.0033360876 0.06293666 -0.17868192
0000e0 33 0e 79 bd 96 ae bd 3d b5 c9 31 be 96 b5 29 3e
       -0.060804557 0.09261815 -0.17362101 0.16573176
0000f0 82 40 00 be 72 30 76 3d 35 02 ef bb fa 41 05 3d
       -0.12524608 0.060104795 -0.0072939643 0.032533623
000100 df 54 90 3c c2 02 37 be da c7 2b bd b5 81 f8 bd
       0.017618595 -0.17872146 -0.04193864 -0.12134115
000110 e3 e2 24 3e da 6d c5 bc f0 df 42 be ea 01 3a 3d
       0.16102175 -0.024100233 -0.19030738 0.04541198
000120 01 0d a8 3d d8 8d af bd 60 1f 96 bc 26 41 a7 3d
       0.08205605 -0.085719764 -0.018325508 0.08166723
000130 fe c6 f3 bd 81 1c cf bd 0c 0e 9a bc 1c 5f 09 be
       -0.11903189 -0.101128586 -0.018805526 -0.13415188
000140 b8 b7 ee 3d
       0.11656135

enhance_net.iems.0.cell.c2_d.op.bias f4 [3]
000000 45 19 84 3c be 20 e6 3d 42 2a ce 3d
       0.01612533 0.11236714 0.10066654

enhance_net.iems.0.cell.c2_r.op.weight f4 [3, 3, 3, 3]
000000 68 85 16 be c9 ac f3 bd 42 aa 05 be 3e 97 7b bd
       -0.14699328 -0.118981905 -0.1305323 -0.061423533
000010 0f ed 8e bd b9 1d fd bc 31 bf 3c be 02 43 a4 3d
       -0.06978809 -0.030897962 -0.18432309 0.08020593
000020 da d9 dc 3d 8c 31 71 3d a6 d0 f4 3d 3c fb 10 3e
       0.107837394 0.058885142 0.11953859 0.14158338
000030 d7 d0 41 be cc 58 e1 3c 37 85 33 3e 80 7b 0e be
       -0.18927322 0.027508162 0.17531286 -0.13914299
000040 d8 ed af bd 46 68 36 bc 05 4a f4 bd ea 8a 16 bd
       -0.08590287 -0.011133259 -0.119281806 -0.036753573
000050 48 67 ed bc 9b e3 2c 3e cf 74 50 bc df e1 d1 3d
       -0.028979912 0.168837 -0.012723162 0.102481596
000060 fb 08 0e 3e b7 4a ac 3d d3 35 2a be 88 2d 12 3e
       0.13870613 0.08412688 -0.16622095 0.14275181
000070 6a a2 00 3e 0b a1 0b be a0 f1 8a bd 87 c7 04 3e
       0.12561956 -0.13635652 -0.067843676 0.12966739
000080 a9 68 3d be 7a d0 2a be b3 16 04 be 9b f0 72 3d
       -0.18496956 -0.1668109 -0.12899284 0.05931149
000090 88 a2 9e bd f4 92 2d be 8d b7 97 3d fe b5 c5 3d
       -0.07745844 -0.1695059 0.074080564 0.09653853
0000a0 aa a4 92 3d 31 bf 26 be c6 10 3e 3e bb e6 67 bc
       0.071603134 -0.16283871 0.18561086 -0.0141541315
0000b0 44 61 39 be c7 85 e9 bc db ef fe 3d ea df b3 3d
       -0.1810351 -0.028506173 0.124480926 0.087829426
0000c0 01 ee f5 ba c1 97 09 3e 42 b5 31 be 21 62 07 3e
       -0.0018762947 0.13436796 -0.173543 0.13221027
0000d0 fa 9b 41 3e 7a e4 ec bd 2e bd 27 3d 1a c8 fa bc
       0.18907157 -0.11567016 0.0409519 -0.030612994
0000e0 d7 6e 24 be 4f 51 d1 ba 70 a6 82 bd fd 6b 26 be
       -0.16057907 -0.0015969666 -0.06379402 -0.16252132
0000f0 cf f6 0d be b6 22 89 3b 3f c9 34 3e 7f 80 8d 3d
       -0.13863681 0.004185046 0.17654894 0.06909274
000100 93 c6 00 be 15 67 07 3e 3a b6 86 3c 45 ba 3d be
       -0.1257575 0.13222916 0.016444314 -0.18528087
000110 0b 6c 21 3c ce e5 fb 3d 16 cc e3 bd 70 c7 02 bc
       0.00985242 0.12299691 -0.11122911 -0.00798212
000120 dd 06 c1 bd 4f 20 19 be 10 5c dc bd 3a ac a0 3c
       -0.09425137 -0.14953731 -0.10759747 0.019613374
000130 24 f0 fc 3d 0e dc 0e bd 9f d1 2e be 86 b2 9c ba
       0.12350491 -0.03487783 -0.17072152 -0.001195506
000140 ba 0a 29 be
       -0.16507998

enhance_net.iems.0.cell.c2_r.op.bias f4 [3]
000000 23 01 18 3c 2a e5 10 3e 3a 15 a9 3d
       0.009277615 0.14149919 0.08256002

enhance_net.iems.0.cell.c3_d.op.weight f4 [3, 3, 3, 3]
000000 d2 75 ee bd 8f 15 2c bd b7 1d 9c 3d 59 84 53 3d
       -0.11643566 -0.042012747 0.07622855 0.05163989
000010 13 1a 37 be b5 49 e3 bd af e4 89 bd ee 44 8f 3d
       -0.1788104 -0.11098043 -0.06733071 0.06995569
000020 a5 2c 2e 3e 5d bf ad 3d 73 45 93 3d a4 67 25 be
       0.17009218 0.08483765 0.07190981 -0.16152817
000030 ba 45 fc 3d 9a 9b 8b 3d 86 b7 7a bd 95 11 bb bd
       0.12317987 0.06816788 -0.061210178 -0.09134213
000040 97 a1 5d 3d 17 53 d3 bd 05 41 9e 3d 96 12 15 3e
       0.054109182 -0.103185825 0.07727245 0.14557871
000050 3a 9f 00 be 1e 32 f3 bd 18 f8 a1 bd e6 e4 26 be
       -0.1256074 -0.118747935 -0.07908648 -0.16298255
000060 7c df b2 bc b1 d2 f2 3d a5 ea 91 3d 4d 0d 7a bd
       -0.021835081 0.118565924 0.07124833 -0.06104784
000070 6a 23 be bc 3f ef a8 bd fb 0c 1d be da fb 52 bd
       -0.023210246 -0.082487576 -0.15336983 -0.051509716
000080 a0 cf 5b 3c fc 6c c5 bd 24 d8 11 be 06 6b 64 3d
       0.013416201 -0.09639928 -0.14242607 0.055766128
000090 3e d9 f0 3c 9a 6e 6c bd b7 03 5b 3d a4 6e 35 3e
       0.029400464 -0.057722665 0.05347034 0.17717987
0000a0 d8 f1 41 3c ef 60 04 be f6 44 35 3e 30 4f 0d 3e
       0.011837445 -0.12927602 0.17702088 0.13799739
0000b0 f9 20 8d bc f1 73 af bd fc e9 a3 bd 06 39 2a 3e
       -0.017227637 -0.08567036 -0.08003613 0.16623315
0000c0 ee 36 cc 3d 81 fb c7 bd 53 29 00 3c 8c 90 20 3d
       0.099714145 -0.097647674 0.007822352 0.03920035
0000d0 75 bd 4e 3d 97 ac 2d bc 60 82 cb bd 66 cc b4 bb
       0.05047365 -0.010600231 -0.099369764 -0.0055175303
0000e0 89 4e 56 bd 3b 46 82 bd ef 85 c0 bd d3 7a bc bd
       -0.05232099 -0.06361052 -0.09400546 -0.09203114
0000f0 95 63 b7 bd ae 02 9a 3d 8f a2 24 be 54 29 38 be
       -0.08954541 0.07520042 -0.16077636 -0.17984515
000100 8b 1d 28 3e ef 87 8e 3d 12 03 da 3d f4 b9 ac 3d
       0.1641752 0.06959521 0.10645117 0.08433905
000110 9d 52 92 bd 4f f8 f2 bd 5c e5 03 be 22 fb 35 bc
       -0.071446635 -0.11863767 -0.12880462 -0.011107238
000120 f7 a9 42 3d 7c 50 36 be 8e 6d 15 be 4e 0b dc 3d
       0.047525372 -0.1780414 -0.14592573 0.10744344
000130 99 3f ca 3c 23 d8 00 3e 69 d0 2d 3e d1 5a ed 3d
       0.024688529 0.1258245 0.16974033 0.115895875
000140 08 fa 24 bd
       -0.04027751

enhance_net.iems.0.cell.c3_d.op.bias f4 [3]
000000 3d 73 ad bd 49 c3 62 3d 40 22 20 3e
       -0.084692456 0.05536202 0.15638065

enhance_net.iems.0.cell.c4.op.weight f4 [3, 3, 3, 3]
000000 a3 eb 3a be d3 2e 51 3d 57 49 16 be 0e 00 1b be
       -0.18253951 0.051070046 -0.14676414 -0.1513674
000010 51 03 8d 3d 7a 4c c6 3d 1d 74 85 3d b1 b9 62 3d
       0.06885398 0.096825555 0.065162875 0.05535287
000020 a8 8d 6b bd d0 46 93 3b fd 40 2c be 72 7f fe bd
       -0.05750814 0.0044945255 -0.16821666 -0.12426652
000030 e5 c3 78 3b 14 37 33 bd e1 0a f3 bc 71 75 dd 3d
       0.003795856 -0.0437537 -0.029668273 0.10813416
000040 92 37 92 3d 8a 7e 25 bd c9 5b 80 bd 87 10 0d be
       0.071395054 -0.04040388 -0.06267507 -0.13775836
000050 5d a0 c8 3d e4 0b 09 be eb b1 71 3d be d0 0d bd
       0.09796212 -0.13383442 0.059007566 -0.0346229
000060 28 c3 17 3e 37 c6 f8 bd cb cc fe bd 4c 52 b0 3c
       0.1482054 -0.121471815 -0.12441405 0.021523617
000070 89 4d ac 3b 03 42 a8 bd 29 59 42 3e e4 08 27 be
       0.0052582663 -0.08215716 0.18979324 -0.16311985
000080 1f d5 d2 3d 43 4b bd 3d d6 86 34 bd 2b b1 89 3d
       0.10294556 0.09242871 -0.044073902 0.06723245
000090 a6 95 07 bd 54 9d 13 be 8f e8 ff 3d 14 d5 50 bd
       -0.0331017 -0.14415485 0.12495529 -0.050984457
0000a0 48 5d ee bc b1 01 3e 3e 47 a9 3b 3e 5c 0c 12 be
       -0.029097214 0.18555333 0.18326293 -0.14262527
0000b0 df c6 4f bd 85 5c dc 3d 5b 2e f1 3d d2 97 0e be
       -0.050726768 0.10759834 0.1177642 -0.13925102
0000c0 c4 e7 0d be 27 32 a3 3d db 35 05 be ef 47 0c 3e
       -0.13857943 0.0796855 -0.13008825 0.13699315
0000d0 35 4e 15 be 3c d5 e4 bd 13 51 98 3d e3 77 d6 3d
       -0.14580615 -0.11173484 0.07437339 0.10472085
0000e0 ef 73 88 bd 11 47 e1 bd 74 d7 95 3d 12 33 7c 3d
       -0.066627376 -0.10999883 0.07316485 0.061572142
0000f0 a6 b2 48 3d f2 90 33 be c5 1e 6a bd 69 a9 8c bd
       0.048998497 -0.17535761 -0.05715825 -0.0686825
000100 b0 e7 50 3b f5 f3 2f 3e ec 52 0c be ef 88 a8 ba
       0.0031876378 0.17182906 -0.13703507 -0.0012858192
000110 12 24 98 3d 09 ad dd 3d a3 0c 40 be 39 dd 12 3c
       0.07428755 0.108240195 -0.1875482 0.008963876
000120 28 0a 1a 3e e7 9b fd bd 81 25 f3 3d 64 98 db bc
       0.15042937 -0.12383252 0.11872388 -0.026806064
000130 ce ba 2f 3e 18 3f 27 be 0a 0a 0a 3d 3c aa 0d 3e
       0.17161104 -0.16332662 0.03370098 0.1383447
000140 47 4f 0d 3e
       0.13799773

enhance_net.iems.0.cell.c4.op.bias f4 [3]
000000 2b 13 c3 bd e6 dd 1f be 13 1f a1 3b
       -0.095251404 -0.15611991 0.0049170344

enhance_net.iems.0.cell.c5.weight f4 [3, 12, 1, 1]
000000 c8 98 0c be c0 f2 38 3e 32 40 17 be df 74 f9 3c
       -0.13730156 0.18061352 -0.14770582 0.030451236
000010 fa 80 7d be f6 bd 0c ba 61 2b 80 3e ce 4b 1b 3e
       -0.24756232 -0.00053688826 0.25033095 0.15165636
000020 08 8b f7 3d 68 d4 2b be 45 b9 79 3e f2 7f 11 be
       0.12087065 -0.16780245 0.24387081 -0.14208964
000030 e5 11 86 3e 01 56 72 be ed 1f 11 be dc 1a b2 bd
       0.26185527 -0.2366562 -0.14172335 -0.08696529
000040 52 28 33 3d 0b c9 1d 3e 7d 35 7a 3d 8f f9 db bd
       0.043739624 0.15408723 0.061086167 -0.10740959
000050 fb 2f 69 be 48 f3 aa bd 27 90 0a be 5f 03 31 be
       -0.2277221 -0.083471835 -0.13531552 -0.17286442
000060 27 0b 37 3e 82 ad 29 3d 83 d6 1b be 69 b5 0b 3e
       0.17875348 0.041425236 -0.15218548 0.13643421
000070 bf b9 3d be 2b d9 2a be 67 07 e2 bc c1 1f 41 3e
       -0.18527888 -0.16684406 -0.02759142 0.1885977
000080 45 94 15 3e 3a 80 45 be b5 4a 4e be cd b8 c5 3d
       0.14607342 -0.19287196 -0.20145686 0.096543886

enhance_net.iems.0.cell.c5.bias f4 [3]
000000 bf 7e 99 bc 2d 76 d8 3c e4 93 51 3c
       -0.018737195 0.026423538 0.0127916075

enhance_net.iems.1.cell.c1_r.op.weight f4 [3, 3, 1, 1]
000000 b6 02 cf be 20 14 bd bd b8 a6 36 be d1 b2 b8 bd
       -0.40431756 -0.09232354 -0.17837036 -0.090184815
000010 9e dd bb 3e 0a e9 06 bf 16 7a 37 3d 8e c9 0d 3f
       0.36692518 -0.5269934 0.044794165 0.55385673
000020 24 2a 04 bf
       -0.516268

enhance_net.iems.1.cell.c1_r.op.bias f4 [3]
000000 12 98 56 3e be f3 15 3f e2 e7 a2 3e
       0.20956448 0.58575046 0.31817538

enhance_net.iems.1.cell.c2_d.op.weight f4 [3, 3, 3, 3]
000000 5b f5 ca 3d 7f aa 92 bd 18 aa 9d 3d 0b f9 9c 3c
       0.09910079 -0.07161426 0.076984584 0.019161722
000010 f3 c3 3d 3e 92 3e 3c be 10 43 cb 3d 61 40 e7 bd
       0.1853178 -0.18383244 0.099249005 -0.11291576
000020 7d 5a 2c be c4 50 30 3e 53 ce 19 3d e6 4f dd bd
       -0.16831394 0.1721831 0.03755028 -0.10806255
000030 d9 90 3c be 33 aa 1e bd d6 d4 35 bd 75 54 80 bc
       -0.1841463 -0.038736533 -0.04439243 -0.015665272
000040 1f d5 5a bd 00 23 59 3d 12 6e ff 3d 96 ae 1b be
       -0.053425904 0.053011894 0.12472166 -0.15203318
000050 d5 e3 97 bd c1 2b 21 3e 0e 71 38 be 16 af 1a 3e
       -0.074165024 0.15739347 -0.18011877 0.15105852
000060 17 1f 1a bd c8 86 69 3d f8 e3 c3 bd c9 0d da 3d
       -0.037627306 0.057013303 -0.09564966 0.106471606
000070 33 7a 25 3d 40 1d fc bc d5 71 48 3e 15 d6 1c be
       0.04039974 -0.030775666 0.19574673 -0.15316041
000080 1c e2 39 3e b0 5a 13 3e 1b fc 4a bc 3b f6 2b bd
       0.1815266 0.14390063 -0.012389208 -0.04198287
000090 59 d3 33 3e 03 39 cf 3d c2 0e 15 be af ca fa bd
       0.17561091 0.10118296 -0.14556411 -0.1224569
0000a0 6a ad 22 be 91 d2 5e bd 9d 6f 07 bc c1 0e c2 3d
       -0.15886465 -0.05440003 -0.008266357 0.0947547
0000b0 07 f4 0b 3e a0 cf 17 be 31 8b f7 3d e4 52 b4 3d
       0.13667308 -0.14825296 0.120870955 0.08804873
0000c0 6a 0c af 3d 20 70 17 be f8 83 d4 bd 23 e7 ca ba
       0.0854729 -0.14788866 -0.103767335 -0.0015480261
0000d0 e7 52 ec 3d fb a4 b0 bc 0b 64 70 bd 7a 11 6f 3c
       0.1153925 -0.021563044 -0.05868916 0.014591569
0000e0 21 06 73 3c f5 67 ca bc 61 83 3c 3c 06 9c cd bd
       0.014833004 -0.024707774 0.011505933 -0.10039525
0000f0 b0 64 21 3e 8b 4e dc 3b 49 5e bc 3d 6b 91 20 be
       0.15761065 0.0067232302 0.09197671 -0.15680473
000100 c1 70 7a bd c5 a4 85 3d d8 6d fe bd f2 65 ac 3b
       -0.061142687 0.06525568 -0.12423295 0.0052611763
000110 22 55 d4 bd 3b 7b 79 bd 83 5e 96 3b c3 de 1b be
       -0.103678 -0.060908537 0.0045889034 -0.15221696
000120 4e 0f 76 3d 37 b3 ed 3d 50 fc 2a be 74 3a 4a bc
       0.06007319 0.11606448 -0.16697812 -0.012343038
000130 2c 6a 40 bd 4c a9 31 be eb 11 2f bd 08 b9 19 3e
       -0.046976253 -0.17349738 -0.042741697 0.1501199
000140 51 95 ad 3c
       0.021189364

enhance_net.iems.1.cell.c2_d.op.bias f4 [3]
000000 7f cd 3f bc 3e 0a 4b 3e fc 6e 69 3d
       -0.011706709 0.19828126 0.05699061

enhance_net.iems.1.cell.c2_r.op.weight f4 [3, 3, 3, 3]
000000 24 d1 18 3e 28 76 18 be 78 36 d3 3d ac 61 19 3e
       0.14923531 -0.14888823 0.103131235 0.14978665
000010 e2 e8 b6 3d 95 f0 d8 bc 39 aa 33 3e 9a 2c bc bd
       0.089311376 -0.026481906 0.17545404 -0.091881946
000020 1c 96 8f 3d 66 8e 3e be ad 00 10 be 46 8a 31 be
       0.07011053 -0.18609008 -0.14062758 -0.17337903
000030 38 c0 12 be 4d 0f 95 bd 3e cb 27 be 4c 41 02 be
       -0.14331138 -0.07278309 -0.16386124 -0.12720221
000040 44 cd c2 bd 36 c1 b7 3d 0b 39 38 3e 77 ec cd 3d
       -0.095118076 0.08972399 0.1799051 0.10054868
000050 2a d0 a5 bd 4e 4d de bd b7 c2 d0 3d f5 2a e6 bd
       -0.08096345 -0.108545884 0.10193389 -0.11238662
000060 8e d2 1c be 77 22 94 bd 83 a0 37 3e c2 31 21 3e
       -0.15314695 -0.07233136 0.17932324 0.15741637
000070 2a 3a 25 be 33 9a 3b 3e 33 1d c6 bd a5 76 a2 bd
       -0.16135469 0.18320541 -0.09673538 -0.07932786
000080 b9 97 30 be 03 0a 26 3e 47 83 1c 3e bb e6 3a 3e
       -0.17245378 0.16214757 0.15284453 0.18252079
000090 a4 58 74 3d 8f 43 99 bd 8d 0c e3 3d c1 b0 31 bd
       0.059654847 -0.07483589 0.11086378 -0.043381456
0000a0 b8 23 33 be de b6 cb bd 26 94 e8 3d d5 f4 2b be
       -0.17494094 -0.099469885 0.11356382 -0.16792615
0000b0 46 5b 3e be e6 a4 32 3e 53 82 20 be e6 50 28 3d
       -0.18589506 0.17445716 -0.15674715 0.041092776
0000c0 e8 ed 41 3e 04 b4 58 3d 8d da 9b bc 94 f9 97 3d
       0.1893841 0.05290605 -0.019025112 0.0742065
0000d0 5d 39 41 3e 84 1f 08 be 23 28 b8 3d a7 50 9c bd
       0.18869539 -0.13293272 0.089920305 -0.07632571
0000e0 08 83 f5 bd da 3c 77 bc 72 ab ed 3d 63 63 20 be
       -0.11987883 -0.015090192 0.11604966 -0.15662913
0000f0 84 af 39 bd 87 d5 43 bd b0 2b e1 3d eb 3b 90 3d
       -0.0453334 -0.047811057 0.10994661 0.070426784
000100 de 23 c6 3d 17 8c 18 3e 69 e7 cc 3d 46 8a a1 bd
       0.0967481 0.1489719 0.100050755 -0.07887702
000110 3d 92 b9 3c 06 1e 13 3e 05 d9 ef 3d f2 12 07 be
       0.02265274 0.14366922 0.11711315 -0.13190821
000120 0a cc 98 ba 27 f1 a4 3d 97 dc 86 3d eb 8e b8 bb
       -0.0011657488 0.08053809 0.06585043 -0.0056322715
000130 ef be 95 bc 07 35 9c 3d cd 21 a5 bd 20 8f f8 3d
       -0.01827952 0.07627302 -0.080630876 0.12136674
000140 50 01 14 be
       -0.14453626

enhance_net.iems.1.cell.c2_r.op.bias f4 [3]
000000 76 8c 26 be 05 fa d8 3c 19 6b 05 3d
       -0.16264519 0.026486406 0.03257284

enhance_net.iems.1.cell.c3_d.op.weight f4 [3, 3, 3, 3]
000000 ee f0 73 3d c8 ea f9 bd e7 e8 56 3d 5a a0 23 be
       0.05955594 -0.12202984 0.052468207 -0.15979138
000010 ab bd bd 3d a5 ed f5 3d f0 38 bc bd 39 b9 06 3d
       0.09264692 0.12008218 -0.091905475 0.032891486
000020 3d e4 f5 3d 4b 84 ed bc 55 dc 97 3d f0 8d f6 bd
       0.120064236 -0.028993746 0.07415072 -0.12038791
000030 bb 42 45 3d b1 eb 6a 3d 17 b6 08 3d 16 11 00 be
       0.048159342 0.05735368 0.03337678 -0.12506518
000040 08 67 ba 3b 9f b3 f8 3d f1 ed 13 be ef fc 60 3d
       0.005688552 0.12143635 -0.14446236 0.054928716
000050 be 62 aa bd d9 d7 b9 bd 7c 8b fe bd 4e 2e be 3d
       -0.08319615 -0.09074373 -0.12428948 0.09286176
000060 78 5a 0c 3e ce b3 25 be 48 b7 17 3e c8 b9 df 3d
       0.13706386 -0.16181871 0.1481601 0.10924107
000070 a5 63 25 3d a9 1e 0a 3e dc 51 27 3d 4a a9 02 3d
       0.04037823 0.13488258 0.04084955 0.031899728
000080 76 b5 01 3e 39 b2 6b bc a6 e7 06 3e d1 df 75 bc
       0.12666878 -0.014385753 0.13174304 -0.015006975
000090 37 53 25 3e 11 e8 56 3c 9e bc 91 bd 88 3a 04 bd
       0.16145025 0.013116852 -0.07116054 -0.032282382
0000a0 dc 3b 2f be 80 19 be bd d0 ba da 3c f2 03 34 be
       -0.17112678 -0.092822075 0.026700407 -0.1757963
0000b0 1f 2e 21 be 20 66 32 3d 1f ea 56 3d 82 89 a1 bd
       -0.1574025 0.043554425 0.05246937 -0.07887556
0000c0 68 05 34 3e 60 5c 8d bd 4f 2b e8 bd 99 b6 08 3d
       0.17580187 -0.06902385 -0.113363855 0.033377264
0000d0 20 3f ae 3d 8d d3 ca bd 8b 27 41 3d 8a 8e 51 3d
       0.08508134 -0.09903631 0.04715685 0.051161326
0000e0 f9 b7 a3 3d 15 31 fc 3c ad 42 3b be 6c e8 35 be
       0.079940744 0.030785123 -0.18287154 -0.17764443
0000f0 bf 41 22 3e 07 4e d2 3d f8 bb 37 3e ba 6d cd 3d
       0.15845393 0.10268789 0.17942798 0.10030694
000100 58 aa 4e 3d ba a6 57 bd 6a 36 8c 3d 87 a8 a3 3d
       0.05045542 -0.052649237 0.06846316 0.079911284
000110 52 7b f7 bd 59 fb 81 bb b6 f3 40 be 7d 26 b0 3d
       -0.12084068 -0.0039667306 -0.18842968 0.08601091
000120 1b e9 01 bd 85 af 11 be e6 c8 e0 3d 10 08 51 bd
       -0.031716447 -0.14227112 0.10975818 -0.05103308
000130 91 1b 07 be 6c 93 a7 bc b2 06 ec bd 24 99 9e 3c
       -0.1319411 -0.020456038 -0.115247145 0.019360133
000140 37 bd 87 3d
       0.06627887

enhance_net.iems.1.cell.c3_d.op.bias f4 [3]
000000 9e 3a 18 3c ec 8d 8d 3b ae 11 03 bd
       0.009291319 0.004319897 -0.031999283

enhance_net.iems.1.cell.c4.op.weight f4 [3, 3, 3, 3]
000000 f5 4f 0b 3e 08 b1 1e 3e a0 1b 4b 3b 8b e0 22 be
       0.1360472 0.1549722 0.0030991808 -0.15905969
000010 d0 7a b8 3d 41 53 99 3d b9 04 b7 3d 6f 2f 8f bd
       0.090077996 0.074865825 0.08936448 -0.06991469
000020 55 b9 a5 3d 01 b0 25 3e 10 a7 15 3e cf 2b 09 be
       0.0809199 0.16180421 0.1461451 -0.13395618
000030 a5 26 22 3d cc 80 11 be e0 11 13 be 50 23 e6 bd
       0.039587636 -0.14209288 -0.14362288 -0.11237204
000040 63 cd c2 3d 8a 04 14 3e bb c4 ed bd 84 b4 68 bc
       0.09511831 0.14454857 -0.11609789 -0.0142031945
000050 85 1f a5 3d 82 60 fe 3d db ac e0 3d ee b7 18 3e
       0.080626525 0.12420751 0.109704696 0.14913914
000060 a1 4e 06 3e 9f 4e df bd 6b 43 c6 3d 20 24 ed 3c
       0.13115932 -0.10903668 0.09680828 0.02894789
000070 da b4 23 be d4 ad fb 3d 86 8f ec 3d 2b 8d fe bd
       -0.15986958 0.122890145 0.115508124 -0.124292694
000080 66 ba e2 bb ad 88 c3 3d fc 78 50 3d 30 65 3b 3e
       -0.006919193 0.09547553 0.05089663 0.18300319
000090 8b ab 34 be 90 2e 4a bd 2e 20 53 be cd 8f 28 3e
       -0.17643563 -0.04936081 -0.20617744 0.16461106
0000a0 15 c1 fe bd cd 0c 9d 3d 72 d6 cf 3d 76 32 94 bd
       -0.12439171 0.07668457 0.10148324 -0.07236187
0000b0 13 aa 04 be 29 9f ee 3d 02 50 1a 3e 0d 6a 4b bd
       -0.12955503 0.11651451 0.15069583 -0.049661685
0000c0 87 80 74 bd 8d 85 0a 3e 54 80 e4 bb 48 a2 06 be
       -0.059692886 0.13527508 -0.0069733057 -0.13147843
0000d0 bf 92 b2 3d 76 4d 4a be a9 5a 0d 3d 46 b9 0c be
       0.08719396 -0.19756112 0.03451029 -0.13742551
0000e0 5f c0 e1 bb 5b a5 86 bd 9e f1 a7 bd 1c a0 9d bd
       -0.0068893875 -0.06574508 -0.08200382 -0.07696554
0000f0 b5 de 4b 3d 32 d1 52 3d 0e 02 20 be b9 a8 38 3e
       0.049772937 0.051469035 -0.15625784 0.18033113
000100 93 5f f1 3d a9 5b 1b be fb 9d 35 3e 0c 8d 15 bd
       0.117858075 -0.15171684 0.17736046 -0.036511466
000110 3e 14 fc bd 05 5b a4 3d 28 f0 14 3d 16 c2 a2 bd
       -0.123085484 0.08025173 0.036361843 -0.07947175
000120 fb 93 77 3d 9e c1 7f 3d 1f d2 9a 3d 09 75 fd bd
       0.06044386 0.062440507 0.07559609 -0.12375838
000130 82 fd 2d be c9 bd eb bc 26 13 3b be 78 5f 11 3d
       -0.16991237 -0.02877702 -0.18269023 0.035491437
000140 91 f2 3f be
       -0.18744875

enhance_net.iems.1.cell.c4.op.bias f4 [3]
000000 d0 9f e7 bc f7 d1 0d 3e 79 db 03 be
       -0.028274447 0.13849626 -0.12876691

enhance_net.iems.1.cell.c5.weight f4 [3, 12, 1, 1]
000000 01 63 36 bd a5 a2 0d 3e cd 5b 48 be 98 5b 71 be
       -0.04452801 0.13831575 -0.19566269 -0.23570096
000010 96 cc d8 bc fa e2 ae 3d bb ef 95 3d b8 30 2b be
       -0.026464742 0.08539386 0.073211156 -0.16717803
000020 44 d8 94 bd 6c 97 c8 ba e5 19 75 be 4c cc b3 3b
       -0.07267812 -0.0015303916 -0.23935659 0.0054870006
000030 ff 9d 37 3c 04 2b 48 be 8f 8d e5 bd be 05 80 3e
       0.011207103 -0.19547659 -0.11208641 0.2500438
000040 e6 51 54 3e 88 36 3d be 5b a5 d7 3d a5 62 91 be
       0.20734367 -0.18477833 0.10529586 -0.28395572
000050 ba 59 2d be 7a 01 f6 3d 5f 5f a7 3b 49 92 40 be
       -0.16928759 0.120120004 0.0051078047 -0.18805803
000060 72 70 8e 3d 24 54 a4 3d 6b f4 70 3e 7c 3d 04 bd
       0.06955041 0.08023861 0.23530738 -0.0322852
000070 85 f2 ab 3e 0c 9f 50 3e ee c0 ea bd cb f9 5b 3e
       0.33583465 0.20373172 -0.1146258 0.21482007
000080 da c7 18 be fe 74 d4 3d 2e e2 ff 3d 5b ef 09 3c
       -0.14919987 0.10373877 0.12494312 0.008418883

enhance_net.iems.1.cell.c5.bias f4 [3]
000000 75 6d 25 3e 10 20 49 3e 1d 4c 4a be
       0.16155036 0.19641137 -0.19755597

enhance_net.iems.2.cell.c1_r.op.weight f4 [3, 3, 1, 1]
000000 71 ed 8a 3e 40 01 56 3e fe 06 96 be de a9 c5 3e
       0.27134278 0.20898914 -0.2930221 0.3860616
000010 31 a4 5a 3d ac a4 dd be b3 f3 ed 3e 31 0f 39 3e
       0.05337924 -0.43289697 0.4647499 0.18072201
000020 15 ca 99 3e
       0.3003699

enhance_net.iems.2.cell.c1_r.op.bias f4 [3]
000000 bf 52 c5 3d 76 cd 1e 3e 59 af 92 3d
       0.09634923 0.15508065 0.07162351

enhance_net.iems.2.cell.c2_d.op.weight f4 [3, 3, 3, 3]
000000 42 60 e8 3d 4d de ab 3d 13 9d a3 3c c6 0d 72 bc
       0.11346485 0.0839201 0.01997236 -0.014773792
000010 42 5b 03 be 69 2a 34 3d a7 c8 0a be 3b 9e 5d 3d
       -0.12827781 0.043985758 -0.13553105 0.05410598
000020 38 5b c0 3d 7e 13 85 bd 4c 74 18 bd 0c 34 0f be
       0.093923986 -0.064978585 -0.037220284 -0.13984698
000030 bf 23 9c bd e7 9f e6 bd 1e 3c 99 bd 00 34 cf 3d
       -0.076240055 -0.11260968 -0.074821696 0.1011734
000040 6c 63 c7 bd 43 fa a6 bd 9d bc a5 bd 48 47 7f bd
       -0.0973576 -0.081532024 -0.08092616 -0.06232384
000050 bf 0d a8 3d 34 c3 6d 3d 7b 5a 0a 3e 6e e7 4f 3c
       0.08205747 0.05804749 0.13511078 0.0126894545
000060 a6 c9 86 3d cd bc 91 bc 4d 49 f3 bc 32 4b 22 be
       0.0658143 -0.017790223 -0.029698038 -0.15848997
000070 06 a0 24 be 6d e0 05 bd e2 8d cf bd a4 c4 85 be
       -0.16076669 -0.032684732 -0.10134484 -0.26126587
000080 4c ff 35 bd 46 6b 37 be 58 8c 1b bb b9 46 29 bb
       -0.044432923 -0.17912015 -0.0023734774 -0.0025829508
000090 a3 57 f0 bc cc 8a 4b bb 7f 40 68 bd 52 3f 33 bd
       -0.029338663 -0.0031058071 -0.056702133 -0.04376156
0000a0 f7 9b df bd ce e2 d2 bd 19 8f 7b bd cc 5d 8f bc
       -0.1091842 -0.10297166 -0.061415765 -0.01750078
0000b0 39 a6 04 be 6c 4f 7e 3d 16 52 68 bd 47 dd ab 3d
       -0.12954034 0.06208746 -0.05671891 0.08391815
0000c0 84 f7 5b 3d 91 ce 57 be b0 8c 35 be 1d 60 68 3d
       0.053702846 -0.21074893 -0.1772945 0.056732286
0000d0 c0 0f 83 be ff 85 5f 3d ac df 1d be 7f 8c ba 3d
       -0.25597954 0.054571148 -0.15417355 0.09108829
0000e0 9d 42 50 3c c8 a2 1f 3d f1 44 b1 3d 53 9c ed 3d
       0.012711194 0.0389736 0.08655728 0.11602082
0000f0 db b0 11 bd 87 d5 a4 bd e5 5e 60 3d 01 17 fa bb
       -0.035569053 -0.080485396 0.054778 -0.007632137
000100 9f 51 2f be 30 2f 2f be b1 4e 0d be 7f d2 8c 3d
       -0.1712098 -0.17107844 -0.1379955 0.068760864
000110 05 5a f1 bc 8f 7d 09 3d f6 e5 da bd f9 c2 bb bd
       -0.02946187 0.033567008 -0.10688393 -0.091680475
000120 f2 1c 69 3d 33 62 f8 3d 9a 13 99 bd c2 6d fe bd
       0.05691237 0.12128105 -0.07474442 -0.124232784
000130 d4 63 30 bd 0a e4 26 bd f3 eb 1b bd e0 10 46 be
       -0.043063954 -0.04074482 -0.038066816 -0.19342375
000140 8c fd 21 3e
       0.15819377

enhance_net.iems.2.cell.c2_d.op.bias f4 [3]
000000 9c 6e 96 bd 1e 3a f3 3c 8c b0 2f be
       -0.07345316 0.029690798 -0.17157191

enhance_net.iems.2.cell.c2_r.op.weight f4 [3, 3, 3, 3]
000000 96 91 23 be 0a 86 fc 3d 70 51 01 be 3e 2b 93 bb
       -0.15973505 0.123302534 -0.12628722 -0.004491239
000010 5d 1f c1 3b 7d e3 1c 3d d0 8f 1f be e3 7f b8 3d
       0.0058936314 0.038302887 -0.15582204 0.090087675
000020 cf 93 48 bc b9 0f 7b 3d c8 f3 12 3e a6 26 ef bd
       -0.012242272 0.06129429 0.14350808 -0.116772935
000030 5f 67 7a 3c f8 6b 83 3d 28 37 6a bd d6 c0 f3 3d
       0.015283435 0.06417078 -0.057181507 0.11902015
000040 91 59 16 3e 5c bd c0 bd a5 11 06 bd 4f 9a 9f 3d
       0.14682604 -0.094111174 -0.03273167 0.07793104
000050 c4 af 84 bd fc 53 3f be 65 85 40 3e 8b 78 37 3b
       -0.06478837 -0.18684381 0.18800886 0.0027995433
000060 06 17 01 3e ef 15 92 3d 39 ed 37 bc ae d3 d7 bd
       0.12606439 0.0713309 -0.011225992 -0.105384216
000070 3d ee 4c 3d 57 5c bc bd e4 d5 38 3d c7 00 37 be
       0.05003189 -0.091973 0.045125857 -0.1787139
000080 e0 01 df bc 4d 6b e2 bc 2d a6 e0 bd f8 10 f0 bd
       -0.027222574 -0.027639056 -0.109691955 -0.117219865
000090 5f 20 92 bd 43 ac 88 bd 6d b0 c4 3d d1 5f a3 3d
       -0.071350805 -0.06673481 0.09603963 0.0797726
0000a0 b7 7b 07 be c4 c4 8d bd f8 ec 3c 3e bf 39 0d be
       -0.13230787 -0.06922296 0.18449771 -0.1379156
0000b0 bd b0 74 bc 94 be 93 3d 65 25 2e be 5b c1 26 be
       -0.014934716 0.07214084 -0.17006452 -0.16284697
0000c0 d0 9a b0 3d 8b d7 d2 bd 6f 03 24 3e 9a fa 18 3e
       0.08623278 -0.10295018 0.16016935 0.14939347
0000d0 e5 24 2b 3e 17 bf f1 bd 70 30 84 bd 91 ff c0 3d
       0.16713293 -0.118040256 -0.06454551 0.094237454
0000e0 31 9e 21 be 6b 26 43 bb 60 98 da 3d db 40 b4 3c
       -0.15783001 -0.0029777538 0.106735945 0.022003582
0000f0 51 d8 bb 3d ea 12 af bd b4 8f f3 ba 5a 78 fd bd
       0.091721185 -0.085485294 -0.0018582256 -0.12376471
000100 31 cc 4e 3d 10 42 1d bc e4 f5 da 3d b5 8e a6 bd
       0.0504877 -0.00959827 0.10691431 -0.08132688
000110 7e f4 0c be 46 14 1b 3e 0f bf 11 3e c2 e3 95 3d
       -0.13765141 0.15144452 0.1423304 0.07318832
000120 b3 02 ea bd da 57 04 be 6e 88 69 bd 42 bc 43 be
       -0.11426296 -0.12924138 -0.057014875 -0.19114783
000130 e6 cd 31 bc 68 52 93 3d 43 3a 1b 3e 10 3b 9e bd
       -0.010852313 0.07193452 0.15158944 -0.07726109
000140 98 0a 27 be
       -0.16312635

enhance_net.iems.2.cell.c2_r.op.bias f4 [3]
000000 83 72 11 be e4 c7 56 3c 7b 80 22 3e
       -0.14203839 0.013109181 0.15869324

enhance_net.iems.2.cell.c3_d.op.weight f4 [3, 3, 3, 3]
000000 2b 80 82 bd f1 87 d1 3d 7b f9 7b bd 7e 84 0b be
       -0.06372102 0.10231007 -0.06151722 -0.1362476
000010 67 4c 9d 3c e9 27 93 bd b1 81 a1 bd 70 4f 28 3e
       0.01920147 -0.07185347 -0.07886065 0.16436553
000020 5a 3d ed bd 3f ac 3b be ec a5 21 3e 38 0b e4 bc
       -0.115839675 -0.18327425 0.1578595 -0.02783738
000030 48 30 a3 bc c0 41 b1 bd 85 b9 a8 bd 98 26 f2 bd
       -0.019920483 -0.08655119 -0.0823851 -0.118237674
000040 30 d3 e6 bb 42 21 97 bd bc 37 1a 3e 87 a8 93 bd
       -0.0070442185 -0.0737939 0.15060323 -0.072098784
000050 9b 92 41 3c 2d fe e6 bd 22 6d c4 bb e7 da 36 bd
       0.011814739 -0.11278949 -0.005994455 -0.044642355
000060 86 1c 01 bb 6b a1 f5 bd 13 5b 41 bd 83 98 14 bd
       -0.001970084 -0.11993679 -0.047205996 -0.03627826
000070 37 02 b8 3d 48 57 51 bd 41 20 b8 3d b9 5a 18 3e
       0.089847974 -0.05110863 0.08990527 0.14878358
000080 d1 4e 2b be ab 7e be bc 6f 4c 8f bd 51 e2 0a 3e
       -0.16729285 -0.02325376 -0.069970004 0.13562895
000090 f4 1e d3 bd 5c 37 d5 3c dc 2e 29 be 51 f9 4c be
       -0.10308638 0.026027374 -0.16521782 -0.20016982
0000a0 32 c8 07 3e ac 68 41 be 25 83 0e 3d e5 2b 62 3d
       0.13259962 -0.18887585 0.034793038 0.055217642
0000b0 94 92 e1 3b c0 7d e5 bd b7 19 ba bd 3b 46 10 be
       0.0068839286 -0.112056255 -0.09086936 -0.14089291
0000c0 95 29 15 be 97 c1 6e bd 87 d7 e5 3d c3 41 c2 bd
       -0.14566644 -0.05829009 0.11222749 -0.09485199
0000d0 24 ff 3f 3b 8c ea 8b bd bd 7b 83 bd a4 cf ec 3d
       0.0029296363 -0.06831846 -0.064200856 0.11563042
0000e0 a2 45 47 bd 99 db 38 be 58 f4 2b be bb 87 c8 bd
       -0.04865039 -0.1805252 -0.16792428 -0.097915135
0000f0 63 29 f2 3d 63 5c b9 bd 15 e0 37 be 17 2a 7e bd
       0.118243 -0.090508245 -0.17956574 -0.06205186
000100 27 2f a1 bc 9b 3a 28 3e 49 4e 4c 3c b7 f0 37 3c
       -0.019675804 0.16428606 0.0124698365 0.0112268245
000110 c6 54 19 be 12 22 9f bd d5 23 f5 bc 5a 51 41 3b
       -0.14973745 -0.0777017 -0.029924313 0.0029497952
000120 21 7b de ba 4b ef 1b 3d 47 85 0c bd ca 4f de bc
       -0.0016973951 0.038070004 -0.03430679 -0.027137656
000130 f1 cf d9 3c e5 82 1a 3e 84 d5 9f bd 44 40 02 3e
       0.026588412 0.15088995 -0.07804397 0.12719828
000140 ab bf 4d be
       -0.20092647

enhance_net.iems.2.cell.c3_d.op.bias f4 [3]
000000 45 ee 51 3d d5 d5 bc bd e8 22 58 be
       0.051252622 -0.09220473 -0.21107066

enhance_net.iems.2.cell.c4.op.weight f4 [3, 3, 3, 3]
000000 ba a0 32 bc 6f 99 58 bc d2 27 de bd 7e 39 b4 bd
       -0.010902578 -0.013220175 -0.10847439 -0.08800028
000010 47 0a 34 3b ab 32 7f 3d cd e1 04 be 09 33 4a bd
       0.0027471946 0.06230418 -0.12976761 -0.049365077
000020 f2 b3 77 bc ae 1d f9 3d 48 12 9f 3d 2a 77 0b be
       -0.015118586 0.12163864 0.07767159 -0.13619676
000030 50 81 06 bd 15 63 05 bd f2 07 50 be e8 e4 0b 3c
       -0.032838166 -0.032565195 -0.20315531 0.008538462
000040 32 64 f8 3d 80 5d 1e 3e b6 9f 67 bc b9 66 90 bc
       0.12128486 0.15465355 -0.014137199 -0.017627107
000050 7f ef 43 bc bf f2 6b 3d d1 a4 9e bc 21 27 bc 3d
       -0.011958956 0.057604548 -0.0193657 0.09187151
000060 ed b0 01 3e 8b 6e 2f 3d a7 81 2b be 0c 02 0a be
       0.12665148 0.04283003 -0.16748677 -0.13477343
000070 11 1e 27 3d 01 fd f3 bd ba d9 2f bd c4 62 0f be
       0.040800158 -0.11913491 -0.04293225 -0.1400252
000080 d4 33 8e bd 70 d7 12 3e d0 7a f7 bd b3 cc e5 bc
       -0.06943479 0.14339995 -0.120839715 -0.02805171
000090 5a 1a d8 bd 78 1b 17 be a8 0b e1 bd 08 f0 fb bd
       -0.10551901 -0.14756572 -0.109885514 -0.12301642
0000a0 1b fa f8 bd c4 1f 35 bd 44 db ab 3d 61 0e b6 3c
       -0.12157079 -0.044219747 0.08391431 0.022223653
0000b0 37 e4 04 3e 0f 6c 06 3e ef 54 79 3d 34 e2 40 3c
       0.12977682 0.13127159 0.060872015 0.011772681
0000c0 9a 9a a9 bd 9a bf b6 3d ad 44 21 3d 0a 50 3d be
       -0.08281441 0.08923264 0.039372135 -0.18487564
0000d0 d2 f7 a8 3d 89 61 47 be 4d a7 94 3d 2e 9b e9 3d
       0.08250393 -0.194708 0.072584726 0.11406551
0000e0 25 b3 0b 3d 26 77 73 be 91 0b 3c bd fb c4 1f bd
       0.034106392 -0.2377592 -0.045909468 -0.039006215
0000f0 15 93 d9 3b 54 69 5b bd 6c a8 53 be de a1 99 bd
       0.006639848 -0.053567246 -0.20669717 -0.07501577
000100 c4 7d d6 bc 8b 88 e5 3c ea 6d 18 3e aa c2 a9 bd
       -0.026183017 0.02801921 0.14885679 -0.08289082
000110 34 a6 c2 bd dd 2d fb 3c 16 4d 30 be 37 ac bb 3d
       -0.09504357 0.030661518 -0.17216906 0.09163707
000120 c1 ef d6 bd 5a 63 1d be b5 73 51 be f2 1d a1 3d
       -0.10494948 -0.15369931 -0.20454295 0.0786704
000130 a7 5b b0 3d f4 89 ea 3b c3 f9 be bd cf 4e eb 3d
       0.08611231 0.0071575586 -0.09324982 0.11489641
000140 46 a7 89 bd
       -0.06721358

enhance_net.iems.2.cell.c4.op.bias f4 [3]
000000 7e c2 9e bd 61 c1 6b bd da 1d 1e 3e
       -0.0775194 -0.057557467 0.15441075

enhance_net.iems.2.cell.c5.weight f4 [3, 12, 1, 1]
000000 20 4f e5 bb 38 59 d1 bb 03 97 06 bb ae b1 79 3b
       -0.006997958 -0.0063888095 -0.0020536787 0.003810029
000010 4a 73 35 bc ee 58 28 bb f0 b8 20 bd e1 d0 d7 3d
       -0.01107485 -0.0025687772 -0.03923887 0.10537887
000020 91 57 19 3e 89 0c 8d bc 95 8c e3 bd e8 fc 00 bc
       0.1497481 -0.017217891 -0.11110798 -0.007872798
000030 c5 7d d7 3b 05 4a 0d bc db 0e ea 3b c7 a7 61 bb
       0.006576272 -0.008623605 0.007142884 -0.0034432278
000040 0f 42 a3 3d 34 86 15 3b c9 3b 20 be 2e 03 73 3e
       0.07971584 0.0022815587 -0.15647806 0.23731682
000050 d8 bd f8 3d 17 f8 50 3c d3 ee 26 be d6 27 31 3d
       0.12145585 0.012754462 -0.16302042 0.04325088
000060 2e cb 42 3b 17 6b 2d 3b b5 b3 73 3b 9b 92 4d 3a
       0.0029723155 0.0026461536 0.003718597 0.00078419753
000070 af b4 21 3d 03 73 74 ba 16 79 6c bd a7 5f 95 bd
       0.039478954 -0.00093249994 -0.057732664 -0.07293635
000080 3c cf 10 be 0d a8 8a bc db 46 07 3e 62 1d f3 3c
       -0.14141554 -0.016925836 0.13210623 0.029677097

enhance_net.iems.2.cell.c5.bias f4 [3]
000000 59 10 3a bf 2e 67 07 bf bc 81 28 bf
       -0.72681195 -0.52891815 -0.6582296

denoise_net.stem.weight f4 [6, 3, 3, 3]
000000 e0 a5 ce 3c 9d 81 f4 bd 3e 11 03 3e 58 12 40 3c
       0.02522558 -0.11938784 0.12799546 0.0117231235
000010 0d 66 1e bd f8 c4 16 3d f3 b5 1a be 3a 37 5a be
       -0.038671542 0.036808938 -0.1510847 -0.2131013
000020 11 56 8c bd 76 a2 84 3a 3d 12 f0 3d d7 eb 18 bd
       -0.06852353 0.0010119218 0.11722229 -0.03733429
000030 1b f2 02 3d 33 7a 94 bd be a6 a3 3d ec 4f 7a be
       0.03196917 -0.0724987 0.07990788 -0.2444455
000040 9b 1d 49 bd c5 3c ea 3c e2 7f 03 3d b8 b5 cf bd
       -0.0491005 0.02859343 0.03210438 -0.10142082
000050 50 31 48 3d a9 5f 2e bd b4 61 48 be 50 09 b4 bd
       0.048875153 -0.042571697 -0.19568521 -0.08790839
000060 e5 0a fc bd 59 20 63 bd 14 6f 4c be 4e f6 0a be
       -0.123067655 -0.05545077 -0.19964248 -0.1357052
000070 60 21 73 be 67 2b 61 be 02 da 2a bd a2 5b 6e bd
       -0.237432 -0.21989213 -0.041711815 -0.058192857
000080 56 6f a9 3d 95 67 af 3d 0e 32 e4 3d bb 02 2c 3e
       0.08273189 0.085646786 0.1114236 0.16797917
000090 f3 62 5a be b8 0e a9 bd 00 a7 6c be 54 45 67 bd
       -0.21326809 -0.082547605 -0.2311058 -0.0564626
0000a0 b6 3f 09 3e c2 fd d3 bd 8d d3 12 3e 4c d7 8b 3d
       0.1340321 -0.10351135 0.14338513 0.06828174
0000b0 aa 4e 8e bd 5c 03 5b be 85 fc d0 bd 7e 8f ab be
       -0.06948598 -0.21388 -0.10204414 -0.33507913
0000c0 c0 d3 1c 3e 52 4a bb 3d af 5e cb 3d 0e 22 22 3e
       0.15315151 0.09145035 0.09930169 0.15833303
0000d0 57 13 9c 3d 4b fe 8a bd 00 49 75 3d 98 78 4d 3d
       0.07620876 -0.06786784 0.05988407 0.050163835
0000e0 a8 cc 84 be 0a d6 e9 3d 99 ae 80 3d 40 1f 97 be
       -0.2593739 0.11417778 0.06283302 -0.2951603
0000f0 a6 5b 0d 3e cc b0 26 3a e9 f1 2f be da 86 0d be
       0.13804492 0.0006358742 -0.17182125 -0.13820973
000100 28 6e 0a bd 5b 13 65 be 9c 99 ba bc 33 80 66 3d
       -0.03379646 -0.22370665 -0.022778325 0.056274604
000110 16 1c 4c be e3 c6 56 3d cb fa 73 3d 91 cf 7a bd
       -0.19932589 0.052435767 0.059565347 -0.061233107
000120 c6 15 8a ba 69 8f 08 3d 33 97 96 3d f0 11 32 bc
       -0.0010535053 0.03333989 0.07353058 -0.010868534
000130 3d 8e 12 be 9a 71 cc bc 22 2a 47 be 73 90 23 3c
       -0.14312072 -0.024956513 -0.19449666 0.00998317
000140 22 3e 1c 3e 7b a9 85 3e e9 5d b6 3d aa ab 3c be
       0.15258077 0.26105866 0.08904631 -0.1842486
000150 f2 8f ae 3e 03 ad c4 3d d2 d3 d3 be 76 8e 4b 3d
       0.34094197 0.09603312 -0.41372544 0.04969641
000160 5a 45 6f bd 0f 70 da bd 7f 51 ac 3e 5f 85 c0 3d
       -0.05841575 -0.10665905 0.33655927 0.094004385
000170 a0 3c 87 be 21 d3 d1 3e 5b 88 c9 3d 4c f3 0f bf
       -0.2641344 0.4098139 0.09840461 -0.56230617
000180 94 fd b4 3d b1 e7 a2 bd a0 3d 05 be 1d 94 8d 3e
       0.08837429 -0.07954348 -0.1301179 0.27652064
000190 e0 33 88 3d c1 50 4f be ed ee a6 3e 46 92 04 3e
       0.06650519 -0.20245649 0.3260416 0.12946424
0001a0 94 9a c9 be d9 5b d3 3d f3 87 95 bd f5 4b 0e be
       -0.39375746 0.10320253 -0.07301321 -0.13896163
0001b0 1d 68 57 bd c5 a4 47 bd 1e 69 4f bd e3 2c 78 bd
       -0.052589525 -0.04874112 -0.050637357 -0.060589682
0001c0 14 07 bc bd cc 2a b1 be dc 03 d7 3d 56 ac 20 3e
       -0.091810375 -0.34602964 0.10498783 0.15690741
0001d0 d4 d2 cd 3e 5c 85 43 bd ae dc 66 bd 3d f4 e2 bd
       0.40199912 -0.047734603 -0.0563628 -0.11081741
0001e0 b4 42 e2 bc b3 d5 94 bd 3c 43 ad be 4b 8c f4 3d
       -0.027619697 -0.072673224 -0.33840358 0.11940821
0001f0 13 65 38 3e e7 8d e0 3e d9 75 59 bd 2b 5c 1f bd
       0.18007307 0.43858263 -0.053090904 -0.038906258
000200 5f 5a 55 bd fd 5a af bd 8c 92 05 be 88 6a b2 be
       -0.052088138 -0.085622765 -0.13044184 -0.34846902
000210 e1 1d 07 3e f2 8e 5b 3e 74 a1 c4 3e 05 7b c6 bc
       0.13194992 0.21441248 0.3840443 -0.024228582
000220 2e ae 53 3e 4d 7e 03 3e 7d ac cd bd 35 98 27 3e
       0.20671913 0.12841149 -0.10042665 0.16366656
000230 b3 38 01 be 3f 8f f5 bd 2e d2 71 bd 29 a5 0c 3d
       -0.12619285 -0.11990213 -0.059038334 0.034337196
000240 16 3f 2a bc ee 57 d3 3d 2c 0c ff 3d 80 0a 26 be
       -0.010391017 0.10319506 0.124534935 -0.16214943
000250 3c 15 b0 3d 15 02 40 be 51 b8 f3 bd a9 32 04 be
       0.085978 -0.18750794 -0.1190039 -0.1290995
000260 31 e1 33 3d db 72 ac bc 39 e6 7a 3e 63 12 3f 3e
       0.04391593 -0.021050861 0.24501885 0.18659358
000270 4b 09 c8 bd 0b 7b 54 3e 6b 0f 47 bd 29 85 23 be
       -0.097673975 0.20750062 -0.048598688 -0.15968765
000280 b7 d9 a4 bd 6a c7 dc 3c
       -0.08049338 0.026950557

denoise_net.stem.bias f4 [6]
000000 00 e6 ff bb a9 54 de 3c 94 97 82 3d af e4 a7 3e
       -0.0078094006 0.027139978 0.063765675 0.3279166
000010 2e d4 20 3e 49 2e 1d 3e
       0.1570594 0.15349688

denoise_net.nrms.0.c1_d.op.weight f4 [6, 6, 1, 1]
000000 95 11 09 bd 68 3b a3 3e d3 4b 82 3e 8d ed 8b 3d
       -0.033464033 0.3188126 0.25448474 0.068324186
000010 9d 96 34 be 5b 35 55 be ff 93 c6 bd bf 63 ea 3d
       -0.1763558 -0.20821135 -0.09696197 0.11444806
000020 93 23 ab bb 7e c7 0b be 86 bc d9 3d 86 ce 9a be
       -0.0052227466 -0.13650319 0.10631661 -0.3023569
000030 4f 7c b8 be 7c 35 12 3e 0c f2 0e be 40 63 bd 3e
       -0.3603234 0.14278215 -0.13959521 0.36989784
000040 c2 5f 21 3e 53 7d 86 bd de ba c8 be 07 77 00 3e
       0.15759185 -0.065668724 -0.39205068 0.12545405
000050 6a 48 1a bd 6c 31 47 3e 7a 7d 05 bc b9 5b 6a be
       -0.037666716 0.19452447 -0.008147592 -0.22886552
000060 be ea cc bd 83 82 df 3d 5a e0 12 3e 3c d5 90 be
       -0.10005711 0.10913565 0.14343396 -0.28287685
000070 05 c8 7f be 37 28 c3 3e e3 f4 98 be ac a4 ba be
       -0.24978645 0.3811662 -0.29874334 -0.3645376
000080 1c f3 62 3e 3f 53 76 be a7 f3 52 bd db 34 45 be
       0.22163051 -0.24055193 -0.051501896 -0.19258444

denoise_net.nrms.0.c1_d.op.bias f4 [6]
000000 04 81 95 bd 3a d6 ba 3e f4 bc 46 be 2a 88 ab 3d
       -0.072999984 0.36491567 -0.19408017 0.083755806
000010 45 9e bc be d1 1d f9 bc
       -0.368395 -0.030409725

denoise_net.nrms.0.c1_r.op.weight f4 [6, 6, 1, 1]
000000 b6 3c 01 3e 1e d4 91 b9 2e 01 58 3b 3e be ae 3e
       0.12620816 -0.00027814595 0.0032959688 0.34129518
000010 6e 21 9c 3d 6d 91 77 3d 38 38 8b be 9c c2 7e 3e
       0.07623564 0.060441423 -0.2719133 0.24878925
000020 68 9e ae 3d c1 89 10 be 98 90 13 bd b0 51 0b 3e
       0.08526307 -0.14115049 -0.036026567 0.1360538
000030 fb f3 d0 bd 5a 7c 87 be 38 30 d5 bd 8d fd b3 be
       -0.102027856 -0.2646206 -0.104095876 -0.3515438
000040 05 be 87 be 20 bc 05 3e 6b 7a 5a be 24 16 79 3d
       -0.2651216 0.13060045 -0.21335761 0.06081213
000050 20 89 b9 3e 5d e0 f4 3d aa 0c f6 3d 6b 31 f4 be
       0.3623743 0.119568564 0.12014134 -0.47693953
000060 9f 8a 3b be 5c 70 45 3e f2 c6 07 3e 3e 79 1f be
       -0.18314599 0.19281143 0.13259485 -0.15573594
000070 94 ed ea be 03 9c a2 be e5 f0 51 bd 30 f8 8e 3d
       -0.45884383 -0.31759652 -0.051255126 0.06980932
000080 0b 44 d2 bc 76 3f 06 3f ed 1c 9c 3e c2 a0 83 3d
       -0.025667211 0.52440584 0.3049082 0.064271465

denoise_net.nrms.0.c1_r.op.bias f4 [6]
000000 51 58 33 bd bf a7 5c be d0 32 6a be 56 12 a6 be
       -0.043785397 -0.21548365 -0.22870946 -0.32435864
000010 9e 03 e9 3d ef 07 b1 3e
       0.11377643 0.34576365

denoise_net.nrms.0.c2_d.op.weight f4 [6, 6, 3, 3]
000000 2d 82 12 bd 72 d8 c5 bd e0 96 e8 bd 6c 4b b8 bd
       -0.035768677 -0.09660424 -0.11356902 -0.089987606
000010 2e a1 14 3d 6e da 4f bc 8a f3 74 b8 89 e7 21 3d
       0.036286525 -0.012686355 -5.8400947e-05 0.03952745
000020 30 04 ee 3c 47 91 02 3e e2 95 ce 3d a7 97 17 3d
       0.029054731 0.12750731 0.10087182 0.03700986
000030 f7 ec 90 bc 86 79 d1 bd d0 89 ab 3d 32 fe 42 3d
       -0.017691119 -0.10228257 0.08375895 0.0476057
000040 87 ab 85 bd b3 f1 9b bd 5f 9a cf 3d 56 80 13 bd
       -0.06526857 -0.0761446 0.10136866 -0.036011063
000050 95 55 dc bc 6c 2c 65 bc b6 a0 9f bd 08 e7 15 bd
       -0.026896277 -0.013987642 -0.07794325 -0.03659728
000060 15 4b c2 bd ef 61 40 3a b8 7f c8 3d 66 37 2c 3e
       -0.09486977 0.0007338812 0.097899854 0.16818008
000070 25 46 2f 3d dd 5e 91 be 47 44 05 3e 47 24 8a bd
       0.042791504 -0.28392687 0.13014327 -0.067452006
000080 2a e9 1d bf 86 eb 62 3d 45 9b e7 bc a0 84 d3 bd
       -0.61683905 0.055400394 -0.02827228 -0.103280306
000090 fd 43 bc 3d c8 2a d4 bd 17 99 e1 bc c0 b9 b9 3c
       0.09192655 -0.103597224 -0.02753882 0.02267158
0000a0 67 75 68 3d a5 95 4c 3d 4a dd b6 3b 38 ee 58 3d
       0.05675259 0.0499474 0.005580579 0.052961558
0000b0 49 1e 9a 3d 06 80 8d bd 74 3f 57 bc 72 11 06 3d
       0.07525308 -0.06909184 -0.013137687 0.03273148
0000c0 df ac cf bc 3f 55 a7 3d 58 9b b6 3e 64 be 31 3d
       -0.025350986 0.08170556 0.35665393 0.04339446
0000d0 92 32 56 3c e7 42 37 3d d7 f3 4e 3c d1 2e cb 3d
       0.01307358 0.044741537 0.012631378 0.09921039
0000e0 1e 7a c1 3d c2 56 35 bd 9d 91 fc bd 2e ce 00 be
       0.0944712 -0.04427219 -0.12332461 -0.12578651
0000f0 f9 ed b9 3d c0 21 e6 3d 0a ee 8e bd 01 5d 32 bd
       0.09078593 0.11236906 -0.06978996 -0.043545727
000100 22 3a 92 3d 3c 0e 1a 3e fe 39 63 3d 9d fa d1 bc
       0.07139994 0.15044492 0.055475228 -0.025632197
000110 83 f1 11 bc 14 8f 22 bd f0 ee 16 3d 37 81 e2 3c
       -0.008907679 -0.03968723 0.036848962 0.027649505
000120 1b 3a d2 bd 48 fa f8 3d 06 2a 3e 3c 20 59 e2 bd
       -0.10264989 0.12157112 0.011606699 -0.110521555
000130 be 18 bc 3d 96 2f 8d bd 4d e0 a3 bd 7b 49 28 3d
       0.09184407 -0.06893842 -0.08001766 0.0410857
000140 b8 1d 7b 3a 00 fb df bd ba 2e 48 3e 6f f2 74 3d
       0.00095793186 -0.10936546 0.19549075 0.059801515
000150 98 86 2c be 49 7a 48 3d f7 8e 5f be fc 04 1e bc
       -0.16848218 0.048944745 -0.2183188 -0.009644743
000160 11 bd 19 3e e9 fd 7e 3d 14 42 66 bd d0 22 dc bc
       0.1501353 0.062253866 -0.05621536 -0.026872069
000170 9b 08 ec bd 41 97 13 be bf 1a 8e bb d3 03 3b 3e
       -0.11525079 -0.14413168 -0.0043366845 0.18263178
000180 09 1f 3d 3c 69 15 81 bd ca 27 e9 bc 77 9f be bb
       0.011543044 -0.06302912 -0.028461356 -0.0058173495
000190 a8 11 f0 bc 26 20 98 3d 28 5a 0e 3d d5 70 24 bd
       -0.029305294 0.07428007 0.03475395 -0.040146668
0001a0 b1 7a 6e 3e b3 c5 73 bc 6c 84 9d bd cc 64 0f 3e
       0.2328899 -0.014878678 -0.07691273 0.14003295
0001b0 11 e9 dc bd c2 e2 bd 3d 60 07 2e bc e4 ae 54 3d
       -0.107866414 0.09271766 -0.0106218755 0.0519246
0001c0 7a b1 87 3d 87 8b da bd d2 9a bb bd c4 2c 8e 3d
       0.06625648 -0.10671144 -0.09160389 0.06942132
0001d0 b2 dd 85 bc 12 a5 62 3d 46 40 36 3c 66 66 95 bd
       -0.016341064 0.055333205 0.011123722 -0.072949216
0001e0 ce 99 a7 3d db 69 0a 3e 09 b4 97 3c 56 b8 05 3d
       0.08183633 0.13516943 0.018518465 0.0326465
0001f0 a7 68 99 3b 6f 15 68 3d 85 12 13 3c 2c 27 71 3d
       0.004681665 0.056661066 0.008976583 0.058875248
000200 03 67 44 bd ac c5 b1 bd a6 03 97 3c 01 fa b7 bc
       -0.047949802 -0.08680281 0.018434357 -0.022458078
000210 0e 78 c8 3d 35 6c 01 3e 0f 00 f9 bc 6b 76 8e 3e
       0.097885236 0.12638934 -0.030395536 0.2782472
000220 a8 08 9b 3e 60 e7 40 be 02 db 76 3e b3 8d f8 3d
       0.30280042 -0.18838263 0.24106982 0.12136402
000230 8c cd 9c be e1 92 05 3e dd a3 b9 3d 2b c2 4b be
       -0.3062557 0.13044311 0.090644576 -0.19898288
000240 9d cb 92 bc 68 8d 68 3c 0c 46 d0 b9 ea 20 19 bd
       -0.017919356 0.01419387 -0.0003972504 -0.037384905
000250 ee d9 ba bd 5e 14 5c bd 16 66 df bc 7a a6 aa bb
       -0.09123598 -0.05373036 -0.027270358 -0.005207834
000260 55 30 6a 3d 06 ac ec bc b9 24 37 be 42 35 2b bc
       0.057175 -0.02889062 -0.17885102 -0.010449709
000270 08 ba 4b bb 47 19 49 be 1f 6f f4 3d 7b 81 f5 bc
       -0.0031086225 -0.19638549 0.11935257 -0.029968968
000280 d8 81 87 bd 1d b5 a6 3d e8 b7 e5 bd 87 80 87 3d
       -0.066165626 0.08140013 -0.11216718 0.066163115
000290 8d 24 93 bc fb ae 7e bd 8a 6e af 3d 1d a3 ad bd
       -0.017961765 -0.062178593 0.085660055 -0.08478377
0002a0 2a 29 db bd cc 71 a0 3c 74 b3 1c bc e8 f5 1c 3e
       -0.10701211 0.019585513 -0.009564269 0.15328181
0002b0 2a 73 f1 3d 0a 3b 47 bd 4a 8d 87 3c b7 ef 91 3d
       0.11789544 -0.04864029 0.016546864 0.071258
0002c0 fa 4c 53 bd 05 91 d9 bd 6f 07 8e 3d cb 40 a1 bd
       -0.051587082 -0.106233634 0.069350116 -0.078736864
0002d0 c1 33 67 3d 63 cc dc 3d 05 c5 60 3c 66 96 fc bc
       0.05644584 0.10781171 0.013718848 -0.030833434
0002e0 07 a2 97 3d 21 e0 fd 3d 3e 79 10 bd 5b a6 d9 3d
       0.07403951 0.12396265 -0.035271876 0.10627433
0002f0 e1 d8 c4 bb c5 1f b6 3d 4a 6f e6 3a 91 f9 a9 bd
       -0.0060072993 0.08892778 0.0017580774 -0.08299554
000300 d9 ef 87 bc 24 af a7 bd 16 a0 f1 bc ad 19 82 3b
       -0.01659386 -0.08187702 -0.02949528 0.003970346
000310 55 f5 6a 3d 97 07 2c 3e 00 55 a5 3d de 93 9d bd
       0.057362873 0.1679977 0.08072853 -0.07694219
000320 12 6f cb bd ba fe f5 bd 37 5b c4 3c 29 e7 24 3d
       -0.09933294 -0.12011476 0.023969276 0.040259514
000330 13 89 af bd ac e3 8c 3d 00 d6 94 3d e2 5f 83 3d
       -0.08571067 0.068793625 0.0726738 0.064147726
000340 96 5d 02 3d 0e 75 25 3c 72 9c bf bc 54 57 04 3e
       0.03182753 0.010098709 -0.023390029 0.12923938
000350 a2 c4 69 3d b9 d8 87 3c 8c ea eb bd a8 a8 1d be
       0.05707229 0.016582834 -0.11519346 -0.15396369
000360 0e 18 6b bd d0 b1 3a 3d 41 fa da bd b8 f4 cc bd
       -0.057395987 0.04557973 -0.106922634 -0.10007614
000370 a6 64 44 3d d9 7e aa bd 89 10 6e 3c 4b e2 2e bd
       0.04794755 -0.083249755 0.0145303095 -0.04269628
000380 39 28 25 bd b0 78 2d 3e 71 3c 03 3d 23 8f 54 3e
       -0.040321562 0.1694057 0.032040063 0.20757727
000390 56 2d 8f bd 17 23 c9 bd 56 71 91 3c cc 80 a2 3c
       -0.06991069 -0.09821146 0.017754238 0.019836806
0003a0 5a 93 fc bd 6e 66 15 3d ab bb e2 3c 0c 2b 86 3d
       -0.123327926 0.036474638 0.027677378 0.06551179
0003b0 06 45 94 bb 69 36 f2 3d 7e 02 80 3d ef 1e cb bd
       -0.00452483 0.11826784 0.06250475 -0.099180095
0003c0 96 90 17 bd 72 4c 70 3d 73 c8 fd bc 3d 04 4a bd
       -0.037003122 0.058666654 -0.03097937 -0.04932045
0003d0 3f 1e 67 3d dd 73 03 3e c2 5d 77 3d 11 e0 00 be
       0.05642533 0.12837167 0.06039215 -0.12585475
0003e0 76 b8 d7 bc f7 22 1b 3d 86 56 c5 3d 61 df e7 bb
       -0.026333075 0.037875142 0.09635644 -0.0070761894
0003f0 24 e5 f7 bd 6e 0b c7 be 1e c6 0c be 14 74 4c 3d
       -0.12104252 -0.38875908 -0.1374745 0.04991539

denoise_net.nrms.0.c2_d.op.bias f4 [6]
000000 92 0e aa 3d 82 8f 3e 3d fd bc 46 bd cc 7a 5b 3d
       0.0830356 0.04652358 -0.048520077 0.053583905
000010 99 f6 9b 3d 99 1d 11 3d
       0.07615394 0.035428617

denoise_net.nrms.0.c3_d.op.weight f4 [6, 6, 1, 1]
000000 4c a9 9e 3e 6b d0 b0 be d1 7d 13 be 90 61 7c 3e
       0.30988538 -0.3453401 -0.14403464 0.24646592
000010 5f c9 bd 3e 47 76 a0 3e bb 5d b0 3e 8e 19 92 3e
       0.37067696 0.31340238 0.3444651 0.28535122
000020 97 e0 7a be ca e4 05 bd 10 b2 e1 3d cc 5f 14 3e
       -0.24499737 -0.032688893 0.11020291 0.14489669
000030 fa 0f bf be 0d 81 80 3c 52 68 5a 3e b8 a1 45 3e
       -0.37316877 0.015686536 0.21328858 0.19299972
000040 d5 5a 4c 3e 12 d0 e2 3c 34 b4 09 3e 6c 2e c2 3d
       0.19956525 0.027687106 0.13447648 0.094815105
000050 84 0a 52 3e 60 2c 36 be 16 b7 33 3e 50 7c 21 be
       0.20511824 -0.17790365 0.1755031 -0.15770078
000060 46 24 a1 bd 63 07 86 3e e2 77 be be c2 ac ac 3c
       -0.07868247 0.2617751 -0.37200838 0.021078471
000070 8a 0b 70 3e 66 2b 16 3e 86 9b 1b 3e 5f 74 61 3e
       0.23441902 0.14664993 0.15196046 0.22017048
000080 68 a7 79 3a 32 ad a2 bd 5b d2 54 be bc 9c 5a 3d
       0.00095235417 -0.07943191 -0.20783369 0.05337213

denoise_net.nrms.0.c3_d.op.bias f4 [6]
000000 d3 5b 4e 3e a4 fc be bb 65 32 b5 3d 86 67 98 3e
       0.20152216 -0.005828457 0.088475026 0.29766482
000010 fd 8d 02 3e 33 26 ca be
       0.12749477 -0.3948227

denoise_net.nrms.0.c3_r.op.weight f4 [6, 6, 1, 1]
000000 56 b6 90 3e f9 86 b6 3e d3 23 88 bc 12 a5 aa be
       0.2826411 0.3564985 -0.016618645 -0.33329064
000010 98 8a 9d b8 21 d3 c2 be 36 d7 a6 3e 76 67 8c bd
       -7.5121585e-05 -0.38051704 0.32586068 -0.06855671
000020 22 35 af be b8 30 ae 3e db e2 ed 3c 16 d3 98 3e
       -0.34220225 0.34021544 0.029038837 0.29848546
000030 c5 fb 38 bd 08 31 b9 be 21 30 be 3e 6c eb e3 3e
       -0.04516198 -0.3617022 0.37146094 0.4451555
000040 b2 39 b5 bd 7c b2 b9 be 07 8f b3 3e 9b c4 8b be
       -0.08848895 -0.36268985 0.3507006 -0.27298436
000050 c9 ab 83 be 17 32 a9 be dc 9f dc 3c b2 27 53 3d
       -0.25717 -0.33046028 0.026931696 0.05155153
000060 a6 0a 6c be dd 90 84 be 6b 57 b7 3e bf 3b 34 be
       -0.23050937 -0.25891772 0.35808882 -0.17600916
000070 f6 0f 84 3e 97 74 97 3e bb 77 bf bd 81 ad 46 3d
       0.25793427 0.29581138 -0.09349009 0.04850531
000080 c7 5e 86 3e 02 09 b4 bd 3f 4a 62 3e be 00 e0 be
       0.26244184 -0.087907806 0.22098635 -0.43750566

denoise_net.nrms.0.c3_r.op.bias f4 [6]
000000 4a dd 4f 3e 74 33 09 be c3 28 97 3d 0d 18 92 bd
       0.20299259 -0.13398534 0.073808216 -0.071334936
000010 02 6b 5d be 11 ec 3e be
       -0.21622851 -0.1864474
